Protection/model/AAE_btc_part.pt (torch_old, 3372 bytes, 2 tensors)

gc1.weight f4 [6, 32]
0	0x3e5b7481	0.21431161
1	0x3ea1dcc0	0.3161373
2	0xbdf399dd	-0.118945815
3	0x3e2846be	0.16433236
4	0xbbf45c32	-0.0074572796
5	0x3d68a252	0.056795426
6	0x3ea9a49b	0.33133397
7	0x3ec6e283	0.3884469
8	0xbde867e6	-0.11347942
9	0xbea86a31	-0.32893518
10	0x3ecd6b9e	0.40121168
11	0xbd31dee2	-0.04342545
12	0x3f06cc52	0.5265552
13	0xbdfb81d0	-0.12280619
14	0x3d4cb751	0.04997951
15	0x3ec29b72	0.3800922
16	0x3e115460	0.14192343
17	0x3f0b928c	0.5452049
18	0xbe4f69e9	-0.20255245
19	0xbebb6492	-0.36600167
20	0xbdb3b266	-0.08774261
21	0xbe9cbe7e	-0.30614084
22	0x3ee2e9b3	0.44318923
23	0xbeb93451	-0.36172727
24	0xbe9c23cd	-0.30496064
25	0x3f06d658	0.5267081
26	0xbe085310	-0.13312936
27	0x3f0c3594	0.54769254
28	0xbe9d2726	-0.3069393
29	0x3e5a67eb	0.21328704
30	0x3f222a60	0.6334591
31	0x3c354c98	0.011065625
32	0xbd721867	-0.059105303
33	0xbf290e8f	-0.6603784
34	0xbf1c86d1	-0.61143214
35	0x3ed7491a	0.4204796
36	0x3f0f5afe	0.5599822
37	0x3cc195dc	0.023631029
38	0x3de637d6	0.112411186
39	0xbeb92bda	-0.3616627
40	0xbec8f6fa	-0.39250928
41	0x3ea3d88d	0.32001153
42	0x3ee4c703	0.44683084
43	0xbe3fca7f	-0.1872959
44	0x3edb2654	0.4280268
45	0xbde7ac20	-0.11312127
46	0x3e9a05a6	0.30082434
47	0x3dcdf348	0.10056168
48	0xbe1ad163	-0.15118937
49	0x3f355ab2	0.70841515
50	0x3eceadee	0.40367073
51	0xbc8d5cd0	-0.01725617
52	0xbd73b3bf	-0.05949759
53	0x3ee9fdde	0.45701498
54	0x3dc43e89	0.0958224
55	0x3e41ddba	0.18932238
56	0x3f0608b2	0.5235702
57	0xbe6224fa	-0.22084418
58	0xbe8a3382	-0.26992422
59	0xbe7ceee4	-0.24700505
60	0x3f602026	0.87549055
61	0xbf06ce0e	-0.52658165
62	0x3dd9f183	0.10641768
63	0x3e880122	0.26563364
64	0x3ec5a0ae	0.3859915
65	0x3ed449bd	0.41462508
66	0xbe50ead8	-0.20402086
67	0xbdc63c66	-0.09679489
68	0xbe550794	-0.20803672
69	0x3e16630c	0.14686221
70	0xbf3a91f1	-0.7287894
71	0x3ef67365	0.48134914
72	0xbd35f76d	-0.044425417
73	0x3f255feb	0.64599484
74	0xbeb25a58	-0.34834552
75	0xbe1ea322	-0.15491918
76	0xbe832c39	-0.25619677
77	0xbe678367	-0.2260872
78	0xbd56e59d	-0.05246507
79	0xbe98b3dd	-0.29824725
80	0xbe41a5cc	-0.18910903
81	0xbe95e6c4	-0.29277623
82	0xbf079de7	-0.52975315
83	0xbe8bda26	-0.27314872
84	0xbf02d868	-0.5111146
85	0xbe826436	-0.2546708
86	0x3f0c605f	0.5483455
87	0x3eca5c5b	0.39523587
88	0x3dc8d51b	0.09806272
89	0x3e49f142	0.19720939
90	0xbe7e1b0c	-0.24815005
91	0xbe439eb8	-0.19103515
92	0x3ede9c65	0.43478695
93	0x3e82771f	0.25481507
94	0xbe9724bf	-0.29520223
95	0x3e8dd48c	0.27701223
96	0x3e4cc6dc	0.19997734
97	0xbd80d7de	-0.062911734
98	0x3f0809b8	0.5313983
99	0x3eaae1c3	0.33375368
100	0xbf473625	-0.77816993
101	0xbdae1255	-0.0849959
102	0x3ec61f45	0.38695732
103	0x3e742cb6	0.23845181
104	0xbe60a917	-0.21939503
105	0xbf190d88	-0.5978627
106	0xbf1698b1	-0.5882674
107	0x3f14e37f	0.5815963
108	0xbdca4fc9	-0.09878499
109	0xbb5cc580	-0.0033687055
110	0x3e85175d	0.25994387
111	0xbef30a3d	-0.4746875
112	0x3c310e15	0.01080658
113	0xbd13db4d	-0.036097813
114	0xbe6f0c50	-0.2334454
115	0xbcebfb00	-0.02880621
116	0x3f05eddb	0.52316064
117	0xbeca610d	-0.3952717
118	0xbe71b55b	-0.23604338
119	0xbdcad9a6	-0.099047944
120	0x3f027206	0.50955236
121	0xbee6a67a	-0.45048887
122	0xbeb0c571	-0.34525636
123	0x3f227821	0.6346455
124	0x3e0b5566	0.13606796
125	0x3e8b2c98	0.2718246
126	0x3c9aedc9	0.018912213
127	0x3dbd8dad	0.09255538
128	0xbd92a061	-0.07159496
129	0x3f1542e2	0.5830518
130	0x3edbf66f	0.4296145
131	0xbd10ddd0	-0.035367787
132	0xbe2adb10	-0.16685128
133	0xbe502b28	-0.20328963
134	0x3e5d5108	0.21612942
135	0xbea96de6	-0.33091658
136	0xbeef8ad9	-0.4678562
137	0x3e27d5ac	0.16390103
138	0x3e1670ee	0.14691517
139	0x3ec0882a	0.37603885
140	0x3da59d7d	0.08086679
141	0xbe8de7b1	-0.2771583
142	0x3ec0fd07	0.37693045
143	0x3ef028a5	0.4690601
144	0x3e9f6a2b	0.31135687
145	0xbec09719	-0.37615278
146	0x3ed33423	0.41250715
147	0x3d548fe0	0.051895022
148	0x3e94ba87	0.2904856
149	0x3f0ccef9	0.55003315
150	0xbf120634	-0.57040715
151	0xbede3196	-0.43397206
152	0x3e2c3e50	0.16820645
153	0x3f26a8ff	0.6510162
154	0xbeb19c61	-0.3468962
155	0xbeff8cc6	-0.4991209
156	0x3e82df9f	0.25561234
157	0xbef720d5	-0.48267236
158	0xbe88ce07	-0.26719686
159	0x3d9bf284	0.076146156
160	0xbe9dcfca	-0.30822593
161	0xbe4ce6c8	-0.20009911
162	0x3e54cfde	0.2078242
163	0x3d374326	0.044741772
164	0xbd8e928b	-0.069615446
165	0x3f18e946	0.59730947
166	0x3d00dbdc	0.031459674
167	0xbe55010b	-0.20801179
168	0x3da7c565	0.08191947
169	0x3e0e9d4c	0.13927191
170	0x3eb7a319	0.3586662
171	0xbe6d605b	-0.23181288
172	0xbe74e98b	-0.23917215
173	0xbe217fe6	-0.15771446
174	0xbe17e233	-0.14832382
175	0x3e5e9e51	0.2174008
176	0x3f02e61d	0.51132375
177	0xbe1a1f07	-0.15050898
178	0x3ebb717a	0.36610013
179	0xbe8986fd	-0.268608
180	0xbbbbf2cf	-0.005735732
181	0x3df071af	0.117404334
182	0xbda6c25d	-0.081425406
183	0x3f13defe	0.57762134
184	0x3ebabe3a	0.36473256
185	0xbedc7ae7	-0.43062517
186	0x3e727c2a	0.23680177
187	0xbd58c33c	-0.052920565
188	0xbf65a019	-0.89697415
189	0x3ecae38f	0.39626738
190	0x3e4bb751	0.19894148
191	0x3e8087c1	0.25103572

gc2.weight f4 [32, 16]
0	0xbf2daf81	-0.6784592
1	0x3df41004	0.11917117
2	0xbe9eea75	-0.31038252
3	0xbea56ba8	-0.32308698
4	0xbf042e45	-0.516331
5	0x3e3db9d3	0.18527918
6	0x3ec8a403	0.3918763
7	0xbe2f2c88	-0.17106831
8	0x3ec41c68	0.38302922
9	0x3d67059e	0.05640184
10	0x3e80922c	0.2511152
11	0x3df5ecd9	0.12008066
12	0xbe822694	-0.25420058
13	0xbc0d12ff	-0.008610486
14	0xbe790265	-0.2431732
15	0xbd544c25	-0.05183043
16	0xbe97a8e2	-0.29621035
17	0x3ed39460	0.4132414
18	0xbf2a30f5	-0.6648095
19	0x3dde913c	0.10867545
20	0xbf0b5505	-0.54426605
21	0xbf1d582d	-0.6146267
22	0xbf1e3a2b	-0.6180751
23	0xbcbf33fe	-0.023340221
24	0x3f4d2825	0.8013938
25	0xbf754d4d	-0.95821077
26	0xbf847078	-1.0346823
27	0xbeeab18a	-0.45838577
28	0xbe981096	-0.29700154
29	0xbf612821	-0.87951857
30	0x3d68af06	0.05680754
31	0x3dfd62b6	0.12372343
32	0xbefe6ae8	-0.49690938
33	0x3dc44f9e	0.09585498
34	0x3d2ba79d	0.041907895
35	0xbded213c	-0.115786046
36	0x3eaf29e1	0.3421164
37	0xbecc2d9f	-0.39878556
38	0x3ed8069e	0.4219255
39	0x3e0dc890	0.1384604
40	0x3c75bcfd	0.014998672
41	0xbf1262a1	-0.57181746
42	0xbf239d2a	-0.6391169
43	0xbe854c74	-0.26034892
44	0xbec6c088	-0.38818765
45	0x3ec72da0	0.38901997
46	0x3eadd1e4	0.33949196
47	0xbeedb67a	-0.4642828
48	0xbcb649ac	-0.022251926
49	0x3e6d7e16	0.23192629
50	0x3e91e85b	0.28497586
51	0xbe9e6437	-0.30935833
52	0xbc8dbef7	-0.017302973
53	0x3e8a5718	0.27019572
54	0x3ead3bcd	0.33834687
55	0xbea34f54	-0.3189646
56	0xbe61752e	-0.22017357
57	0x3e92008a	0.28516036
58	0x3e7fa12b	0.24963824
59	0x3e83b771	0.25725892
60	0x3e4102dc	0.18848747
61	0xbd22a76c	-0.039710447
62	0xbe881a38	-0.26582503
63	0x3ea52be2	0.32260042
64	0xbd5b19bd	-0.053491343
65	0xbd52a690	-0.051428378
66	0xbe82d69c	-0.2555436
67	0xbe9e6621	-0.30937293
68	0x3f79bc2c	0.9755275
69	0xbee9349f	-0.4554796
70	0x3e795f29	0.24352707
71	0x3daa2c93	0.08309283
72	0x3eac4f75	0.3365437
73	0xbf54c48a	-0.83112395
74	0xbe6ddcd0	-0.23228765
75	0xbd5d3214	-0.054002836
76	0x3eb204b3	0.3476921
77	0x3e48f65b	0.19625227
78	0xbe57e9f4	-0.2108534
79	0x3e8eda1c	0.2790078
80	0x3f0d3d18	0.55171347
81	0x3e32827c	0.17432588
82	0x3f48f1a4	0.78493714
83	0xbea56808	-0.32305932
84	0x3e2a5594	0.16634208
85	0x3e0dcb69	0.13847126
86	0x3da4a5c2	0.08039428
87	0x3e53e1be	0.20691583
88	0x3e90a2f9	0.28249338
89	0x3c8987c2	0.016788367
90	0x3d87d7c9	0.066329546
91	0x3e91c406	0.28469867
92	0x3ee14f0a	0.44005615
93	0xbe18cade	-0.14921138
94	0x3d827a84	0.06371024
95	0xbecd38b7	-0.40082332
96	0xbe4ac8db	-0.19803183
97	0xbee45da3	-0.4460269
98	0xbe139034	-0.14410478
99	0x3caadd04	0.020857342
100	0x3f3eeb74	0.7457802
101	0xbef2112d	-0.4727873
102	0x3e740180	0.23828697
103	0x3e288564	0.16457134
104	0xbf1225ac	-0.5708873
105	0x3f16d5eb	0.5892016
106	0xbf1a2cef	-0.60224813
107	0x3e87143e	0.2638263
108	0x3ec61d53	0.38694248
109	0x3e02f409	0.12788405
110	0xbf1c1db1	-0.60982805
111	0x3ce90ca0	0.028448403
112	0xbed966a0	-0.4246111
113	0x3e84969e	0.25896162
114	0xbe7f1454	-0.24910098
115	0xbf2a04e2	-0.664137
116	0xbf0430a6	-0.5163673
117	0x3e82e09c	0.25561988
118	0x3e543090	0.2072165
119	0xbdcd245a	-0.10016699
120	0x3f30a563	0.6900236
121	0xbecec783	-0.4038659
122	0xbecb6c0e	-0.39730877
123	0xbc57593e	-0.013143836
124	0x3ef3764e	0.47551197
125	0xbd66f704	-0.056387916
126	0xbf073779	-0.5281902
127	0xbe273884	-0.16330153
128	0x3e1af477	0.15132318
129	0x3e6702bd	0.22559638
130	0xbdefb109	-0.11703689
131	0xbe0d0f4d	-0.13775368
132	0xbe434f39	-0.1907319
133	0x3e12b9c9	0.14328684
134	0xbed40705	-0.41411605
135	0x3e26882e	0.16262886
136	0xbe3dc72c	-0.1853301
137	0x3e04e21b	0.12976877
138	0xbd663bc9	-0.05620936
139	0x3d9891a2	0.07449652
140	0xbdba22ed	-0.09088693
141	0x3d7908f0	0.06079954
142	0xbe09ec2b	-0.13468997
143	0x3eb3745b	0.3504971
144	0x3eff5c81	0.49875262
145	0xbdad677f	-0.08467006
146	0x3eadb1b1	0.3392463
147	0x3eb8d14e	0.36097187
148	0xbef075e1	-0.46964934
149	0x3e08f47f	0.13374518
150	0xbea7ec59	-0.32797506
151	0xbeba96d7	-0.36443207
152	0x3f0e1ae6	0.55509794
153	0xbf27fb06	-0.65617406
154	0x3f1bd545	0.608723
155	0x3e1d5ac0	0.1536665
156	0x3e767b6e	0.24070522
157	0xbebb2e0c	-0.36558568
158	0x3ebd27d0	0.36944437
159	0x3ea9f069	0.3319123
160	0x3eefe9b4	0.4685799
161	0x3ea0a5a6	0.3137638
162	0xbe486642	-0.19570258
163	0x3e6810e0	0.22662687
164	0x3eef4fc4	0.46740544
165	0x3e9bc749	0.3042548
166	0xbefd6e0b	-0.4949802
167	0x3f091020	0.5354023
168	0x3e507339	0.20356454
169	0x3f10e763	0.5660307
170	0x3e0998e7	0.13437234
171	0xbe887710	-0.26653337
172	0xbdc007f6	-0.093765184
173	0xbd754af7	-0.059885945
174	0x3e020482	0.12697032
175	0x3d5ba77d	0.053626526
176	0xbf384ab6	-0.71989
177	0xbe8d78cc	-0.27631223
178	0xbee46b85	-0.4461328
179	0xbdf87eb5	-0.121335424
180	0xbd3a57d8	-0.04549393
181	0xbf060b21	-0.5236073
182	0xbd6c3f74	-0.0576777
183	0xbec1f3e5	-0.3788139
184	0xbf1afe12	-0.6054393
185	0xbf043986	-0.51650274
186	0xbe8e65fe	-0.2781219
187	0x3ea2d5d8	0.31803775
188	0x3da1fccf	0.079095475
189	0xbd06de11	-0.032926623
190	0xbefcadce	-0.49351352
191	0xbe4e98a1	-0.20175411
192	0x3ee8e195	0.45484605
193	0xbedcca63	-0.4312316
194	0xbf2ef369	-0.68340164
195	0xbd3a1931	-0.04543418
196	0xbd3842d7	-0.04498562
197	0x3efde7c8	0.49590898
198	0xbf07acb4	-0.529979
199	0x3e0a9c5d	0.1353621
200	0x3df48e3d	0.11941192
201	0x3f502438	0.81305265
202	0xbec84aba	-0.39119512
203	0xbe9641d0	-0.29347086
204	0x3d9f34dc	0.07773754
205	0x3e4b5fec	0.1986081
206	0xbf3aec6a	-0.7301699
207	0x3f239723	0.6390249
208	0x3e5e529a	0.21711197
209	0x3e9c4731	0.30523065
210	0x3d984ba8	0.07436305
211	0x3e269432	0.1626747
212	0x3dfd4064	0.12365797
213	0x3e46ffae	0.19433472
214	0xbe92c5a0	-0.286664
215	0xbcb201c0	-0.02172935
216	0xbd854280	-0.065068245
217	0x3e50703a	0.20355311
218	0x3e5c5bde	0.2151942
219	0x3e9a8a6f	0.3018374
220	0x3e8b51b9	0.27210787
221	0xbe133700	-0.1437645
222	0x3e44afda	0.19207707
223	0xbdaeb5ac	-0.08530745
224	0xbeb84bb4	-0.35995257
225	0x3e0de2f8	0.13856113
226	0xbe104c33	-0.14091568
227	0x3e8f4c22	0.27987772
228	0xbdf954a6	-0.121743485
229	0x3e667a73	0.22507648
230	0x3e9eded2	0.31029373
231	0xbd7d02b2	-0.06177015
232	0xbf021d13	-0.50825614
233	0xbe56e0bf	-0.20984171
234	0x3d8eca4f	0.06972181
235	0x3de5e7db	0.112258635
236	0xbe9d57f0	-0.30731153
237	0xbe3f134b	-0.18659703
238	0x3d22cbec	0.039745256
239	0x3c44d903	0.01201463
240	0x3eb4c3ba	0.35305578
241	0x3e8d2758	0.2756908
242	0xbe7f6c78	-0.24943721
243	0x3ec5a1bb	0.38599953
244	0x3f118791	0.5684748
245	0x3d71b607	0.059011485
246	0xbe264efb	-0.16241066
247	0x3da97cbc	0.08275744
248	0x3f25ce14	0.64767575
249	0x3d498b4d	0.049205113
250	0xbec36c5f	-0.38168618
251	0x3e3c9316	0.18415484
252	0xbe928864	-0.28619683
253	0x3e80ddbf	0.2516918
254	0x3eb38dc0	0.35069084
255	0x3c9e75db	0.019343307
