Protection/model/AAE_btc.pt (torch_old, 3372 bytes, 2 tensors)

gc1.weight f4 [6, 32]
00000000: 64cc 493e 2228 87be 913f 14bf 5d56 47bd
00000010: ccbc 04be 6feb 0cbf c35d a1be a51b b33e
00000020: 4e90 c83d 38c4 c1be 5f4f 6fbe 8449 27be
00000030: bda7 65be 5c46 ebbe f91f b33e 444b 5ebe
00000040: 8e0c 9cbe dcbb 473e 67aa 9e3e 33b3 0a3e
00000050: df1a 203f 734b 833b 8cc9 dfbe cfae 063f
00000060: ebc1 263e d4b5 c93e 964f f3be 1370 0a3f
00000070: 5799 263e d675 1e3e 6044 523d ce3b cd3e
00000080: 72ae 8b3e 91fd af3e 2bb4 c33e e946 a83e
00000090: a255 84be cb7f 43be 7737 3e3e 3ca0 b83e
000000a0: 418c a53e ee83 833e 6a02 9cbe 5089 54be
000000b0: eac9 24be 834b ca3e ba21 b9be 1ba2 0ebe
000000c0: bd1e 8c3e caf7 c73e 10f0 a93d 93c2 bd3e
000000d0: 69f0 e73e 5ce3 a0be 1511 0cbd f2ae b2bd
000000e0: bcde 1ebe 3556 2ebe 58b8 55be b464 c1be
000000f0: e47e 553f 317c 7f3e 5f09 8b3e 028d 00be
00000100: 4f12 d3bd 1ff1 063f 7de0 5b3e e714 65be
00000110: ac66 0f3a f259 143f 6bd2 72be 7203 0ebf
00000120: 4c54 5bbd f3e2 cd3e 5f4a 933e f0fc 153e
00000130: 30f8 80be e65c ecbc e511 9abe f2e3 32be
00000140: 000c d3be c989 54be 651b c03e b759 8e3e
00000150: 7c78 f53d 9500 79bd 4935 60be d7ea 0d3f
00000160: 29d8 a8be 4d7d 123f f35a 4c3d c41c cebe
00000170: 9ca1 6bbe e1cf 133e 4812 4f3e 9e99 87bc
00000180: f42b d53d 35a8 a8be b898 05bf a96e 08be
00000190: 14be 0d3e 8cb2 913e dfe4 0abe 8c26 163f
000001a0: d12e a8bd ccd2 af3e 085d db3e 1402 6dbd
000001b0: ef10 60be d0da e83e fce2 8e3e 9fc6 87be
000001c0: f6fc d13e 0782 8fbe d2fb 27be 791b b9bd
000001d0: f51f 67bf 40dc 283e cebf 983d a8ba 133e
000001e0: 39a5 13be 2b1e 9abe fead 033e 2dc8 74be
000001f0: b2de 7ebe 15f4 103f 70ad ef3e 5e4d dc3c
00000200: ac38 1f3e 3033 cd3e 3984 1e3e 2573 1b3e
00000210: bba8 683f 5409 ba3d d4b0 c2bc cbad b43e
00000220: 8119 b53e d3b9 03bf 891a 7dbc b1a8 b33e
00000230: a85d 343d 702b f8bc b9ed b23c 44cb a63d
00000240: a3a3 fc3d b2b4 10be 6fdf 353e c562 7dbd
00000250: c84a c8be dc0f c23e 4736 bfbe 3614 fbbd
00000260: 7fb9 c4be 34df 33be 21ff ab3e b93f ae3e
00000270: 1601 71be 6cfd e1be 861d 20bf cfaf e93e
00000280: ae80 483e 85a2 5bbd f8ba bf3e 7fed 4b3e
00000290: 52d6 30bf 26cb 9e3c f7e4 1e3f 2247 1bbf
000002a0: 24bf 1e3d 922f a43e 2f93 b73e 0cb9 0b3e
000002b0: 49a2 5abe 6de3 a3be 1af8 713e 7f42 86be
000002c0: a569 4cbd 77b4 5d3e a636 043e 9241 16bf
000002d0: 5d79 833e 75ef 123f 5e81 24bd ca74 77be
000002e0: 659e c0be e1ab 15be 99e6 113e 740a fd3e
000002f0: 392a 6bbe 35c6 d43e a17b fb3d 0756 91be
0.19706875 -0.26397806 -0.57909495 -0.048666347 -0.12962645 -0.55046743 -0.31516847 0.3498203
0.09793149 -0.37845016 -0.23370121 -0.16336638 -0.22427268 -0.45952117 0.3498533 -0.21708399
-0.30478328 0.19505256 0.30989382 0.13544922 0.62541 0.004006797 -0.43708456 0.52610487
0.16284911 0.39396536 -0.47521657 0.5407726 0.16269432 0.15474638 0.05133474 0.4008469
0.2728153 0.34373143 0.38223395 0.328666 -0.25846583 -0.19091718 0.18575846 0.3605975
0.32333568 0.25686592 -0.30470592 -0.20755506 -0.16092649 0.39510736 -0.36158544 -0.13929026
0.273672 0.39056236 0.082977414 0.3706251 0.45300606 -0.3142346 -0.03419598 -0.087247744
-0.15514654 -0.17025073 -0.20871103 -0.37772143 0.83396745 0.24949719 0.27155587 -0.1255379
-0.103062265 0.5271167 0.21472354 -0.22371255 0.00054703164 0.57949746 -0.2371308 -0.5547401
-0.05354719 0.4021221 0.28767678 0.14647269 -0.25189352 -0.028852891 -0.30091777 -0.17469767
-0.41220093 -0.20755686 0.375209 0.27802822 0.11985871 -0.06079157 -0.21895327 0.5543646
-0.32977417 0.57222444 0.049891423 -0.4025632 -0.23010868 0.14434768 0.20221817 -0.016552743
0.10408774 -0.32940832 -0.52186155 -0.13323463 0.1384204 0.28456533 -0.1356387 0.5865257
-0.082120545 0.34340513 0.42844415 -0.05786331 -0.2188146 0.4547944 0.2790755 -0.26518723
0.41013306 -0.2802889 -0.16404656 -0.09038443 -0.9028314 0.16490269 0.07458459 0.14426672
-0.14418496 -0.3010114 0.12859342 -0.23904486 -0.24889639 0.5662244 0.4681201 0.02689236
0.15548962 0.40078115 0.15480126 0.15180643 0.9088246 0.090838104 -0.023765959 0.35288844
0.3537102 -0.5145542 -0.015448221 0.3508964 0.04403463 -0.03029415 0.02184187 0.081442386
0.12335899 -0.1413143 0.17761014 -0.061861772 -0.39119554 0.37902725 -0.37346098 -0.12259714
-0.38422772 -0.17565614 0.33593085 0.34032992 -0.2353557 -0.44138658 -0.6254505 0.45641944
0.19580337 -0.053621788 0.37447333 0.19914816 -0.69077027 0.019383978 0.6206812 -0.60655415
0.038756505 0.32067543 0.3585448 0.13644809 -0.2135097 -0.3200945 0.236298 -0.26222607
-0.049905438 0.21650873 0.12911472 -0.586938 0.2567853 0.5739663 -0.040162437 -0.24165645
-0.37620845 -0.14616348 0.14248122 0.49422038 -0.22965325 0.4155747 0.1227944 -0.28385946

gc2.weight f4 [32, 16]
00000000: cf72 a03e 0c3b aa3e 04cc 873c b126 a53e
00000010: a06d 2d3e 466e acbd c984 503e 5398 633e
00000020: 28a4 a93e 3e79 78be 95b3 403e 78bd ad3e
00000030: 0a44 e13d 4ced 653d 684b a2be 4e05 773d
00000040: 8526 f8be e15e 403f 8d59 af3e ea88 a2bd
00000050: 145c f23d 4a4a 0fbd a6a4 11bf 3403 9ebe
00000060: d6c0 663e 9644 ccbe b32e 3abe c896 36bf
00000070: 2d56 343e dfee 4d3e 7940 bf3d 71c7 ffbd
00000080: 1bc2 d9be 344c cf3e d940 063e fff0 8a3e
00000090: 5d7b 80be 68d6 1bbe a427 18bf 23d3 c0be
000000a0: 7394 f0bd 7604 80be d8d5 4dbe 1b19 b4be
000000b0: 41ad afbd b201 f4be b20c 54bf bb3d 923c
000000c0: 9185 203e cff3 eb3e 7933 98be 41c6 5f3e
000000d0: fa1d 133e 33d8 a33c 2c23 acbe 4dfe a23e
000000e0: e597 c63d bb21 d0be 41db 783e 8829 e53e
000000f0: 9c44 8c3e 1744 90bd fb3b cfbe d9df 113e
00000100: a8e0 023f e92c 87be 3652 aabf 17d8 bdbe
00000110: ed3b debe 520c 143f 3adb 293d 049e 03bf
00000120: 9b18 d8be 7756 273f 223c 60bf aa9a 47bf
00000130: cdea 973e c5c0 c5be 2887 92be 1f9f b53e
00000140: fd39 91be cf33 783e 5449 2c3e ec4e 88be
00000150: 4233 75be a33c 9abe ec2f 7dbd 0e2b efbe
00000160: 7c25 703d 02e8 683e 22dd 20bf 43fe 19bf
00000170: 9efd f0bd 81b4 abbc b50b d13e 071c 99be
00000180: 0836 6ebc 2328 1d3f ab50 a5be 71b8 dabe
00000190: cf63 07bf b8a2 afbc df49 dabe c740 3cbe
000001a0: 660d c4be 3d0b 6b3c f973 0f3f 5107 ab3d
000001b0: e7df 0ebf 0ba1 febe 6228 35bf 34ce d53e
000001c0: 2e5d 733e 6be2 bbbe fbdc 12bf c0df 82be
000001d0: e837 6f3e 5b65 48be e7d6 9e3e 69f9 9d3e
000001e0: 0fea 78bd e3e8 fe3e 7ec4 8e3e f749 a2be
000001f0: 12f6 263f 90d4 243f b11d 9cbe 1b31 90be
00000200: 8925 23be 891a 1d3f 2f5f 5c3e ba2b 8b3e
00000210: 3ca5 353e de5a 513d 77e4 6dbe bd59 773e
00000220: 27ce 88be c900 ecbd 514b 43be 5fcc 96bd
00000230: a8f9 c43e 6fec c63e 6c4b 2f3a e787 23be
00000240: 6cb2 8bbe fcc6 c5be c05a fe3e 5d3f 9ebe
00000250: 9baa eb3c 74e2 8fbe e0de 423e 115d 4e3e
00000260: be25 863e 16ae e93d e82d aebd e021 8cbe
00000270: ed4d bebe d136 46be d8ee cabe 2dcb 243d
00000280: 544c ccbe bf07 9c3d 3ace 68be face 6a3d
00000290: ab10 8e3d fda7 90be 7020 cb3e a4c5 9abc
000002a0: fd8d c73e 24f8 d83e 891d 223e 14ca 99be
000002b0: 1159 a6be 11b9 2cbf fa2d e93e 9b9c cfbe
000002c0: 4cef 82bb 5c4e 293f 7622 41be 0b1d 843e
000002d0: 493b 3d3e b0e0 173e d4eb 4f3e 4bd6 893c
000002e0: ebfd 983d 6033 063d 41d7 a4be 81f0 03bf
000002f0: a80c 0bbd fa2d 04bf 10a6 6b3e a832 95be
00000300: ab44 b23e 583e e53d 4f9d 943e 015c 1dbe
00000310: 9478 14be 12fa 6d3e e4a5 94be 82fd 003e
00000320: 8e6b 203e c126 8b3e 4789 8dbe a8a7 0a3d
00000330: 009b 27bc 00a9 a4bb e05d 0e3e 3615 46be
00000340: f036 f1be 2efc 56be 2ead 0dbf 1bec d3be
00000350: 9fd4 07bf c08f d5be bf84 4b3e a2ec 703e
00000360: 3fbe 17bd 691a 173f fcd0 debe 8fd0 80bd
00000370: e486 563d 0720 093f a198 0dbf 199b b2be
00000380: d3b1 e53e 2183 e1be 8f37 12be e3d9 33be
00000390: 7a04 b03e f284 583e 75a0 ac3e 6050 873e
000003a0: f89a a3be 119e 1d3f 308e c3bd c1eb c93e
000003b0: 9e6b 643e 85e0 d1be 1afc 2c3e 0527 c73b
000003c0: 1979 f7bd d28c 7bbe 85ad d6be 9b54 51be
000003d0: e62a e13e ed4b 973e 2f52 6b3e e632 f2bd
000003e0: 8edc b5bd 964b a8be 771d 753e 674d 64be
000003f0: 7d23 b13d 4327 183e ecd6 c83e ae71 12be
0.31337592 0.33248174 0.016576774 0.32256082 0.1693635 -0.084194705 0.20363154 0.22226076
0.33133054 -0.24265 0.18818505 0.33933616 0.109993055 0.056134507 -0.31698155 0.060307793
-0.48466888 0.75144774 0.3424801 -0.079362705 0.11833969 -0.034982957 -0.5689186 -0.3086182
0.22534499 -0.39896077 -0.18181877 -0.71323824 0.17610998 0.20110653 0.09338469 -0.12489212
-0.42530903 0.40487826 0.13110675 0.2713699 -0.2509412 -0.15218508 -0.59435487 -0.37661085
-0.117470644 -0.25003403 -0.20101106 -0.35175404 -0.085779674 -0.47657543 -0.8283187 0.017851701
0.15675952 0.4608445 -0.2972677 0.21852972 0.14366904 0.020000553 -0.33620584 0.3183464
0.0969694 -0.40650734 0.24302389 0.44758248 0.27396095 -0.07044237 -0.4047545 0.14245547
0.5112405 -0.2640145 -1.3306339 -0.37078926 -0.43405095 0.578313 0.041468836 -0.5141299
-0.42206272 0.6536631 -0.87591755 -0.77970374 0.29671326 -0.38623634 -0.2861874 0.35472962
-0.28364554 0.24238513 0.16824847 -0.26622713 -0.23945335 -0.30124387 -0.06181328 -0.46712536
0.058629498 0.22744754 -0.6283742 -0.601536 -0.11767124 -0.020960094 0.40829244 -0.29904196
-0.014539249 0.6138937 -0.32288107 -0.42718843 -0.5288667 -0.021439895 -0.42634484 -0.18384086
-0.38291472 0.014345941 0.56036335 0.08351005 -0.558104 -0.4973224 -0.70764744 0.41758883
0.23766014 -0.3669618 -0.5736844 -0.25561333 0.2336117 -0.19569914 0.31023332 0.30854347
-0.06077009 0.49787053 0.27884287 -0.31697056 0.65219223 0.64386845 -0.30491403 -0.28162464
-0.15932287 0.61368614 0.21520685 0.27181798 0.17738813 0.05111205 -0.23231684 0.24155326
-0.26719782 -0.11523587 -0.190717 -0.073631994 0.38471723 0.3885226 0.0006686959 -0.15969811
-0.27284563 -0.38628376 0.49678612 -0.30907717 0.028767874 -0.28102458 0.19030333 0.2015269
0.2620067 0.114101574 -0.0850485 -0.27369595 -0.37168828 -0.19356848 -0.39635348 0.040232826
-0.39901984 0.07618665 -0.22734919 0.057326294 0.06936773 -0.28253165 0.39673185 -0.01889307
0.38975516 0.42376816 0.1583158 -0.30036986 -0.32489827 -0.6746989 0.4554289 -0.40549168
-0.0039958116 0.6613519 -0.18860802 0.25803408 0.18479647 0.14831805 0.20304805 0.016825816
0.07470306 0.03276384 -0.32195476 -0.51538855 -0.033947617 -0.51632655 0.23012567 -0.2914021
0.34818015 0.11193532 0.29026267 -0.15367128 -0.14499122 0.23239926 -0.29032815 0.12596706
0.15666029 0.27178004 -0.27643797 0.033851296 -0.010229826 -0.005025029 0.13902998 -0.19344029
-0.47112226 -0.20994636 -0.55342376 -0.41391072 -0.5305881 -0.41711235 0.19874857 0.23527768
-0.037046667 0.59024674 -0.43518817 -0.062897794 0.052374735 0.53564495 -0.5531102 -0.34883955
0.44862232 -0.44045356 -0.14279006 -0.17563586 0.34378415 0.21144465 0.3371617 0.2642851
-0.3195417 0.61569315 -0.095486045 0.39437678 0.22306678 -0.40991607 0.16893044 0.0060776495
-0.120836444 -0.24565437 -0.4192926 -0.2044243 0.4397804 0.29550114 0.2298057 -0.11826114
-0.08879958 -0.32870167 0.23937021 -0.22295152 0.08649347 0.14858727 0.39226472 -0.14301178
