Protection/model/AE_btc_part.pt (torch_old, 3372 bytes, 2 tensors)

gc1.weight f4 [6, 32]
-0.19810781 0.16660216 0.28202298 -0.96991146 -0.45291725 0.28705066 0.41678393 -0.009061217
0.20786595 0.17317188 -0.37617123 -0.8087944 0.26094317 0.23183388 -0.34206843 0.13862166
-0.117422424 -0.10594132 0.37080324 -0.0094072055 0.48389328 0.5302246 -0.4446468 0.6476312
0.49045825 0.37403518 -0.18698996 -0.27250957 -0.48551476 0.15019524 0.4635719 0.19684042
0.15518515 -0.048433337 0.095439434 0.26951987 -0.14021352 0.40168744 -0.08039594 0.34788105
0.8438007 -0.0626159 0.10266221 0.00560877 0.21871457 0.07330333 -0.22651917 -0.19114964
-0.19657911 0.27118328 -0.48493442 0.37814853 -0.5388473 -0.29597867 -0.23032747 0.19175367
0.60038507 -0.25017107 0.24025594 0.28877497 0.68962896 0.344422 -0.27816063 -0.22040968
0.17185353 0.27976674 0.36885056 0.6397811 0.50304246 -0.2893576 0.14720337 0.34952882
0.35960916 0.32082334 -0.27732253 -0.45192748 -0.023597166 -0.39411187 0.6345288 0.26813364
0.04631255 -0.22857568 -0.35004675 -0.19209136 0.66040415 -0.35515568 -0.2702991 0.441708
-0.40715328 0.3870023 -0.32573062 0.39002883 -0.15836658 0.2865839 0.07098131 0.31750983
-0.18937963 0.4130982 -0.07529652 0.6442452 0.51608145 -0.5818131 0.54908025 -0.6173672
0.110056266 -0.4320351 0.50479203 -0.211173 0.09183862 0.21322395 -0.43641213 0.067152984
0.3396204 0.01836684 0.26217613 0.23296972 0.42939824 -0.14409266 -0.27302602 -0.27561313
0.04429251 0.102331325 0.53405 -0.28643557 0.23805316 -0.35483202 -0.054869134 0.13724096
0.6111616 -0.21773477 0.112820074 -0.2623393 0.10790268 0.40360427 -0.6133848 -0.123402864
-0.42054275 0.2779439 0.6876829 0.70013213 0.36289847 0.46126378 0.11564846 -0.09329955
0.37773263 0.4641518 0.22706884 -0.05097664 -0.08380722 -0.17074749 -0.022918772 0.19468895
-0.18725744 -0.1411574 0.59679514 0.17743127 -0.14932841 0.068364464 0.4385048 -0.63351834
-0.10746081 0.20186047 -0.30551627 0.18677622 -0.19800894 0.42108443 -0.09567545 0.22149429
-0.505745 0.17866813 -0.29659492 -0.016848588 0.58290815 0.010561827 0.50149995 0.39188763
-0.14536145 -0.24290141 0.12632546 0.055587493 -0.41799414 0.5690319 0.038499113 -0.74810356
-0.24247602 -0.06277876 -0.47916958 -0.04240668 0.35195568 0.02905853 -0.23805152 -0.26699135
00000000: c6dc 4abe c299 2a3e 5165 903e 1e4c 78bf
00000010: c5e4 e7be 4ef8 923e b464 d53e 8075 14bc
00000020: d0da 543e f853 313e 8499 c0be 260d 4fbf
00000030: 589a 853e dc65 6d3e 9823 afbe d6f2 0d3e
00000040: 2b7b f0bd c3f7 d8bd ecd9 bd3e ae20 1abc
00000050: dcc0 f73e cdbc 073f bfa8 e3be 29cb 253f
00000060: 581d fb3e 8a81 bf3e 4c7a 3fbe 6086 8bbe
00000070: 6495 f8be c8cc 193e 4c59 ed3e 8990 493e
00000080: dbe8 1e3e 0962 46bd c075 c33d 82fe 893e
00000090: 2294 0fbe faa9 cd3e a0a6 a4bd 771d b23e
000000a0: 5303 583f c43c 80bd 9140 d23d c6c9 b73b
000000b0: b6f6 5f3e 0e20 963d a4f4 67be bbbc 43be
000000c0: 094c 49be 89d8 8a3e 5349 f8be af9c c13e
000000d0: e6f1 09bf 848a 97be f7da 6bbe 135b 443e
000000e0: d6b2 193f 6c16 80be a705 763e 50da 933e
000000f0: 868b 303f 1558 b03e 126b 8ebe 13b3 61be
00000100: 5ffa 2f3e 963d 8f3e fbd9 bc3e b2c8 233f
00000110: 64c7 003f ae26 94be 7bbc 163e 71f5 b23e
00000120: b11e b83e f542 a43e 38fd 8dbe 0a63 e7be
00000130: d84e c1bc 08c9 c9be 7b70 223f d048 893e
00000140: 3ab2 3d3d be0f 6abe 5439 b3be 99b3 44be
00000150: 3f10 293f f7d6 b5be a564 8abe 8d27 e23e
00000160: 6576 d0be 2a25 c63e 2ac6 a6be dcb1 c73e
00000170: d92a 22be 20bb 923e a65e 913d a690 a23e
00000180: bcec 41be 9b81 d33e 1035 9abd 41ed 243f
00000190: ea1d 043f b4f1 14bf 8690 0c3f c70b 1ebf
000001a0: 2e65 e13d b433 ddbe 0d3a 013f bc3d 58be
000001b0: e315 bc3d 6157 5a3e 6971 dfbe 8187 893d
000001c0: bae2 ad3e 0e76 963c f33b 863e 9d8f 6e3e
000001d0: 16da db3e 078d 13be 11ca 8bbe 2a1d 8dbe
000001e0: 106c 353d 1693 d13d 80b7 083f afa7 92be
000001f0: 35c4 733e 8bac b5be 75be 60bd e588 0c3e
00000200: 1675 1c3f ddf5 5ebe 360e e73d 5651 86be
00000210: 15fc dc3d 38a5 ce3e c906 1dbf a4ba fcbd
00000220: 6151 d7be aa4e 8e3e fd0b 303f dc3b 333f
00000230: d4cd b93e c42a ec3e 1ad9 ec3d d613 bfbd
00000240: 2c66 c13e 4ea5 ed3e bc84 683e e2cc 50bd
00000250: 1fa3 abbd 6ed8 2ebe 26c0 bbbc 8a5c 473e
00000260: 6ac0 3fbe 918b 10be 91c7 183f 8bb0 353e
00000270: 8ce9 18be ab02 8c3d b383 e03e 422e 22bf
00000280: 6a14 dcbd 83b4 4e3e a16c 9cbe 4442 3f3e
00000290: dbc2 4abe 6198 d73e 7ef1 c3bd 66cf 623e
000002a0: 8178 01bf c7f4 363e 4adb 97be 0d06 8abc
000002b0: 7839 153f 830b 2d3c 4d62 003f 7fa5 c83e
000002c0: a2d9 14be 26bb 78be 765b 013e b6af 633d
000002d0: 5403 d6be 13ac 113f 3fb1 1d3d b783 3fbf
000002e0: a24b 78be 2792 80bd b755 f5be a0b2 2dbd
000002f0: 8933 b43e 280c ee3c c7c3 73be 17b3 88be

gc2.weight f4 [32, 16]
0.24338786 0.0900785 -0.30356035 -0.6763811 0.38574445 0.07607767 0.5100176 -0.91613716
0.06998122 0.3131911 0.20135553 0.5302058 0.10039159 0.587663 -0.03252262 -0.20489022
-0.2705524 -0.082012616 0.33141086 0.2922317 -0.09992782 0.06494588 -0.09415903 0.19598505
0.14286414 0.25010264 -0.3280313 0.30868238 -0.22689131 -0.29120326 0.051447242 0.119970135
0.2588802 -0.040002316 0.22994651 -0.06718523 -0.32525554 0.27377483 -0.0317467 0.15684055
0.23944971 0.42712188 0.30998278 0.17631502 -0.2509304 0.13437101 0.32375953 -0.40868127
0.29508442 0.11207097 -0.105567046 0.41533446 0.14062923 -0.4059806 -0.22061364 0.52357626
-0.021103928 -0.35734907 -0.55094045 0.16337214 0.3347497 0.501795 0.29489854 0.15356125
0.31723025 0.31433028 -0.22595935 0.1119916 0.236746 -0.6241637 -0.7013413 0.5130411
0.240087 -0.42920452 -0.4697413 0.6206834 -0.09312165 0.45272958 0.15648222 0.27072683
0.14319988 -0.3654291 -0.0880958 -0.3559535 -0.44811624 0.48351896 0.3617738 -0.3111385
0.040472146 0.23084943 -0.123799175 -0.3687715 -0.32821923 -0.37552917 0.33874905 -0.13551307
-0.44192702 -0.2668583 0.6946424 0.53230035 -0.16448271 -0.4684992 -0.47511822 0.24998474
-0.02428078 0.22779234 -0.28718007 0.48910674 0.16633295 -0.45639342 -0.25103784 0.018198943
0.03886673 -0.34973577 -0.44014612 0.23048691 -0.16955255 0.5179207 0.3326871 0.28112194
-0.21941587 0.601545 -0.35597113 -0.6508881 -0.06712642 0.35730466 0.253166 -0.4553105
0.35555914 -0.34183326 0.21753386 0.67371595 -0.39582124 -0.18408543 0.45907322 0.28620705
-0.43523636 0.6805577 0.5589864 0.5151934 0.41839623 0.69773906 -0.8755794 0.09322469
0.07297763 0.104765356 -0.24503087 -0.5086456 0.18871361 0.18523325 0.15787475 -0.33002192
0.21185921 -0.27202344 -0.23174325 -0.43368217 -0.38228887 0.3606738 0.45669374 -0.39795634
0.5106496 0.5046455 -0.49282563 -0.3624278 0.27519053 0.066365935 -0.2875839 0.07131481
0.09216096 -0.39120176 0.4573933 0.18264204 0.44525236 -0.52670825 -0.4796859 0.24035944
-0.85633254 -1.03247 0.41997346 -1.0844086 1.1068864 -0.78608227 -0.9220583 -0.7248171
-0.5569408 1.10434 -0.34693477 0.5909677 0.17918204 0.5372679 -0.09419966 0.9335068
-0.34005868 0.08231934 -0.1795044 0.28404868 -0.26277375 0.11226193 0.09753721 0.23563346
0.06642544 -0.3615113 -0.29842144 -0.43165827 0.28972626 -0.5047878 0.15714522 0.21739778
-0.14265586 0.13426213 -0.12848607 -0.06393136 0.0665083 0.37624606 -0.23574889 -0.39034793
-0.17835787 -0.27119964 0.5014573 -0.1387755 -0.27507147 -0.46905223 -0.28304946 -0.24325635
-0.053328782 -0.13123935 -0.65874505 -0.34210014 0.21773455 0.1547769 0.20747527 -0.20696527
0.20652397 -0.18292731 -0.75093716 -0.5587255 -0.06833963 0.6181729 0.875393 -0.28573096
-0.39353883 0.08027776 0.35418844 0.012672627 0.2511245 -0.20144624 -0.3685076 -0.28307676
0.3268272 -0.19749565 -0.06999762 -0.36912203 -0.22229095 0.24893521 0.3708445 0.10586936
00000000: ab3a 793e 147b b83d 436c 9bbe 5027 2dbf
00000010: 4c80 c53e 9cce 9b3d 8390 023f f787 6abf
00000020: 5052 8f3d 955a a03e 2530 4e3e 91bb 073f
00000030: 1b9a cd3d 1571 163f 7036 05bd bece 51be
00000040: d885 8abe 3bf6 a7bd afae a93e 659f 953e
00000050: f5a6 ccbd 5802 853d 73d6 c0bd 4eb0 483e
00000060: fa4a 123e 740d 803e b8f3 a7be 9e0b 9e3e
00000070: 3256 68be 9818 95be 58ba 523d e7b2 f53d
00000080: f28b 843e 78d9 23bd 1977 6b3e 6998 89bd
00000090: e587 a6be 372c 8c3e d408 02bd cf9a 203e
000000a0: 4e32 753e b8af da3e 10b6 9e3e ed8b 343e
000000b0: f379 80be 8e98 093e cfc3 a53e ac3e d1be
000000c0: 4e15 973e 7785 e53d 8933 d8bd b8a6 d43e
000000d0: 1c01 103e b0dc cfbe 8be8 61be 1809 063f
000000e0: 25e2 acbc 75f6 b6be 6f0a 0dbf 074b 273e
000000f0: 5064 ab3e a375 003f f1fc 963e 293f 1d3e
00000100: 016c a23e e6ef a03e e361 67be da5b e53d
00000110: 8b6d 723e 31c9 1fbf 1a8b 33bf a956 033f
00000120: 5ed9 753e b2c0 dbbe ef81 f0be 1be5 1e3f
00000130: 90b6 bebd 2ccc e73e e03c 203e b59c 8a3e
00000140: fda2 123e 8619 bbbe 926b b4bd 8a3f b6be
00000150: 7e6f e5be cc8f f73e 6a3a b93e 8c4d 9fbe
00000160: 1fc6 253d cb63 6c3e 6c8a fdbd 9ecf bcbe
00000170: 5a0c a8be 5c45 c0be 8470 ad3e f0c3 0abe
00000180: 4244 e2be a7a1 88be 16d4 313f d644 083f
00000190: 286e 28be 21df efbe b242 f3be 00fc 7f3e
000001a0: 7de8 c6bc 6542 693e 4409 93be 336c fa3e
000001b0: 2f53 2a3e 66ac e9be 0888 80be f315 953c
000001c0: b832 1f3d 9110 b3be d55a e1be c304 6c3e
000001d0: 2f9f 2dbe 7396 043f f755 aa3e 37ef 8f3e
000001e0: 8eae 60be dafe 193f d941 b6be 9aa0 26bf
000001f0: 9479 89bd a3f0 b63e f99e 813e 751e e9be
00000200: d90b b63e c504 afbe 32c1 5e3e a678 2c3f
00000210: 15a9 cabe e480 3cbe a50b eb3e bb89 923e
00000220: 4dd7 debe 0839 2e3f bc19 0f3f b7e3 033f
00000230: 0838 d63e 079f 323f f925 60bf 96ec be3d
00000240: 4c75 953d 388f d63d 5fe9 7abe 9936 02bf
00000250: 243e 413e c9ad 3d3e eba9 213e a2f8 a8be
00000260: 9ff1 583e a846 8bbe 1a4e 6dbe 970b debe
00000270: 5ebb c3be 3caa b83e c3d3 e93e efc0 cbbe
00000280: efb9 023f 7330 013f a453 fcbe 2390 b9be
00000290: c6e5 8c3e ddea 873d 323e 93be 800d 923d
000002a0: e3be bc3d 994b c8be 742f ea3e 8406 3b3e
000002b0: 1ef8 e33e 5ad6 06bf 6499 f5be c920 763e
000002c0: 9c38 5bbf fa27 84bf c306 d73e e7cd 8abf
000002d0: 74ae 8d3f b03c 49bf 030c 6cbf 9d8d 39bf
000002e0: ac93 0ebf 035b 8d3f 6fa1 b1be a949 173f
000002f0: 7f7b 373e 648a 093f c0eb c0bd 4dfa 6e3f
00000300: 2c1c aebe 0b97 a83d 00d0 37be d46e 913e
00000310: 488a 86be 95e9 e53d 97c1 c73d e649 713e
00000320: 100a 883d 0218 b9be b2ca 98be 5002 ddbe
00000330: 0057 943e c639 01bf adea 203e 869d 5e3e
00000340: 6114 12be 037c 093e da91 03be 72ee 82bd
00000350: 8135 883d 53a3 c03e 2868 71be afdb c7be
00000360: 72a3 36be aeda 8abe 815f 003f 2a1b 0ebe
00000370: 2bd6 8cbe 9d27 f0be dceb 90be 3118 79be
00000380: 486f 5abd 9c63 06be 84a3 28bf c027 afbe
00000390: cef5 5e3e d67d 1e3e 6674 543e b4ee 53be
000003a0: 057b 533e 4c51 3bbe 6b3d 40bf a208 0fbf
000003b0: a6f5 8bbd 9440 1e3f c119 603f 544b 92be
000003c0: ec7d c9be ab68 a43d 3058 b53e daa0 4f3c
000003d0: 6493 803e ec47 4ebe 07ad bcbe 70ef 90be
000003e0: e555 a73e 4d3c 4abe ea5a 8fbd 90fd bcbe
000003f0: 3da0 63be dfe8 7e3e 55df bd3e 09d2 d83d
