Protection/model/AE_btc.pt (torch_old, 3372 bytes, 2 tensors)

gc1.weight f4 [6, 32]
00000000: 90bf 54be 3990 a63e c33e 22be db71 8fbe
00000010: cda7 0dbe b4b0 b13e 0b09 41be 80a6 f73e
00000020: 476f 90be 1d24 8cbe 3466 e9be a53f 923e
00000030: e484 853e 2d84 97be 5954 0c3f b3b3 173e
00000040: 1395 e0be c43b b4be b848 acbe 6791 a4bd
00000050: 9ea3 d9be 1951 e53e 63ea 773e 21eb bf3e
00000060: b5cf ed3e 01a3 023f 1121 113e 1dfd bbbe
00000070: cd48 a03e 091a c5be c63e 2abd 78d2 e8be
00000080: 5915 c83e f694 f23e aa29 a23e 0a2a 2abe
00000090: c1c2 9b3e 64d6 a53e 9d43 f5bd 8fd1 23bf
000000a0: ae98 f53e e200 123e 5f63 b03e 50c2 c6be
000000b0: ab48 fbbe ca2c 6b3e a0c3 04bf 4ed1 86be
000000c0: e17e a5be f505 27be eeb0 063f 8694 283e
000000d0: d0be 973e d9c8 b43e 3617 083f 6c5c eebc
000000e0: a3d0 01be ef34 89bd 0265 943e 4c3a c53d
000000f0: e066 26bd c8b3 83be 447b d0be fc9e cc3e
00000100: 1839 90bd 0599 2e3e 10b3 03bf 1fe1 15be
00000110: c5ae 1fbd 95e4 c23e 76fb 933e b242 e63e
00000120: 9c97 adbd 168b ae3e 9be4 ae3e 52c0 f7be
00000130: 426d 7ebe fd83 0e3e f657 093e b492 e43e
00000140: 15a4 42be e8c7 1c3f 55b3 7bbe 02c8 5c3e
00000150: 4c71 68be 5e5a 02bf bcfb 03bd 381e ac3e
00000160: 6e68 a23e 5be2 cdbd 4df9 abbe 2d13 4a3e
00000170: 4f8e 593e c80e 173f 6665 35be e894 213e
00000180: fe51 a53d 2906 f83d 228a ad3c 2d8b 903d
00000190: 5d32 e63e 6aa6 2c3e 7a2c fb3d 527c 3dbe
000001a0: 9b9d 753e d2eb 123f 1881 d93e 49fc 413e
000001b0: 99fc 013f 9492 893e 83c3 0e3f 6c0e 503d
000001c0: 1a18 c73e 4c08 73be 0763 83be 5c63 9c3c
000001d0: a245 733e 1bed 8d3e 009f ddbe 740f 0ebf
000001e0: 4488 8abe 0946 043d ddb0 e33e 6897 1ebe
000001f0: a827 903d bfe8 a63e 9344 bc3e 922f 5abf
00000200: f679 473e cade abbe abd1 5f3e a577 f63b
00000210: 135e 0dbf 5232 f7be 3553 b3be f59a fabe
00000220: 3f11 cebd 38a4 6ebe c372 94bc 8cbc 0a3f
00000230: 0be7 a43e 7017 d53e c7c4 d0be 8aa4 1ebe
00000240: 447d af3d df27 eb3e 7d2e 92be 4a03 a73e
00000250: 58c0 8c3e 1294 3a3c 70fb 6e3d 37e3 a73e
00000260: 3467 34be 5074 84be 8286 ec3d 3e5c 0d3f
00000270: 9c2b e63e 2f23 c8bd e673 893e 031c 0e3f
00000280: 29fd 0e3d 7dbf 26bf 9afe 693e 2f94 0f3f
00000290: 66d4 393e e3db d1be ba7f ef3e f678 fa3e
000002a0: 9436 a2bd ef1e 87be 582c 8dbe 4b15 543e
000002b0: ba88 273b f575 0bbf 99a8 98bd bd42 69bd
000002c0: 3c6e 0a3f e12a 34bc 455b 4e3f 778c 8f3e
000002d0: 3774 c9bd d781 b7be 8818 20bd 8a51 e1be
000002e0: f4cb bcbd 3988 a93e 7d67 6dbe a72e 6bbe
000002f0: b456 933d 4fa3 b43d c1e7 783e 8cf5 17bf
-0.207762 0.32531908 -0.15844254 -0.28016552 -0.13833542 0.34705126 -0.18851106 0.48369217
-0.28209898 -0.27371302 -0.45585787 0.28564182 0.2607795 -0.2959303 0.54816204 0.14814644
-0.43863735 -0.35201848 -0.3364923 -0.08035546 -0.42507643 0.44788435 0.24210505 0.37484077
0.4644753 0.51029974 0.1417277 -0.36716548 0.31305543 -0.38496426 -0.04156377 -0.45473075
0.39078787 0.47379273 0.31672412 -0.16617599 0.30422023 0.3239013 -0.11975787 -0.63991636
0.47968048 0.1425815 0.34450814 -0.38820124 -0.4907888 0.22966304 -0.51861 -0.26331562
-0.32323363 -0.16310866 0.52613723 0.16462907 0.29637766 0.35309485 0.5316042 -0.029096805
-0.12677245 -0.066995494 0.28983313 0.0963026 -0.040625453 -0.257231 -0.40719044 0.39965045
-0.0704214 0.1705056 -0.514451 -0.14636658 -0.038985033 0.3806502 0.28902787 0.4497276
-0.08476183 0.3409049 0.34158787 -0.48388916 -0.24846366 0.13917537 0.1341246 0.44643176
-0.19007905 0.6124253 -0.24580128 0.21560672 -0.2269947 -0.5091914 -0.032222494 0.33616805
0.317203 -0.100529395 -0.3358864 0.19733877 0.21245693 0.5900693 -0.17714462 0.1577946
0.080722794 0.1211055 0.02118403 0.07057796 0.449603 0.16860357 0.122643426 -0.18504456
0.23985903 0.57391083 0.42481303 0.18943895 0.5077606 0.26869643 0.5576708 0.050795004
0.38885576 -0.23733634 -0.2566149 0.019090347 0.23757032 0.2771996 -0.4328537 -0.5549233
-0.27057087 0.032293353 0.44470873 -0.15487444 0.07038814 0.32599446 0.36771068 -0.85228837
0.19480118 -0.33568412 0.21857326 0.007521587 -0.5522167 -0.4828058 -0.3502442 -0.48946348
-0.10061883 -0.23304832 -0.018121129 0.5419395 0.32207522 0.41619444 -0.4077513 -0.15492454
0.085688144 0.45928857 -0.28551093 0.32619697 0.27490497 0.011387842 0.05834526 0.3279054
-0.17617494 -0.2586999 0.11549093 0.55218875 0.44955146 -0.09772336 0.26846236 0.5551149
0.0349094 -0.6513594 0.22851029 0.56085485 0.1814743 -0.40988073 0.46777135 0.4892041
-0.07920566 -0.26390788 -0.27572894 0.20711248 0.0025563673 -0.54476863 -0.074540325 -0.056948412
0.54074454 -0.010996551 0.80608016 0.28036854 -0.09836619 -0.35841247 -0.039085895 -0.44007522
-0.092185885 0.33111742 -0.23184009 -0.22967015 0.07194272 0.08820211 0.24307157 -0.5935905

gc2.weight f4 [32, 16]
00000000: e275 0dbd 6670 e3be 9d5f b8bd 10a9 cf3e
00000010: d54d f53d 1e04 903e 3d18 903e 98e7 e5be
00000020: e042 1fbc 127a 71bd abfe 853e d22e 82bd
00000030: 34d7 473e e6c4 b13e 397d adbe 49ca 8ebe
00000040: ab9a 603e 6ff5 c53e b7df 46be d377 13bc
00000050: 7e73 eb3e e0a5 ccbe d9e2 8dbd f151 4d3e
00000060: 12da 82be fd3e fe3c 371b 063f b6ba 8a3d
00000070: 2a62 d6bd 7838 fabe 9923 d93e 020c cabe
00000080: 3ad6 3bbf c92c 58be e36b d63e 28d9 293f
00000090: 89ff 0fbe 7a95 d2bd ac54 743e a9f3 9fbe
000000a0: 6c3f 1a3f d4c7 9c3d d464 7ebe 4a1f 133f
000000b0: 27e1 8fbe ea7b 913e b442 e3be 2110 84be
000000c0: ee2b 2dbf 2898 793e c119 08bf 8ff2 56bd
000000d0: 2c63 d0be f7fa 6e3e fbf7 c83e 1bdf a63c
000000e0: 29ce 433e f6c8 283e 391f a1be 9d3a 543f
000000f0: 02bb f53e 6c5f 963e f496 c4bd 6190 e73e
00000100: 9094 5ebe 9106 b43e cd96 08bf 16de 093f
00000110: 7b0b 1bbf 22d6 973e 470f 20bf a7a2 0e3e
00000120: 2747 4bbd 15e7 473e 4186 fc3e 3dda 8b3e
00000130: 5a14 933d f0e8 e8be eecd 9a3e 33ad 813e
00000140: 2cf0 ec3d 5b67 5f3e bbf7 ef3d 2ee1 ae3e
00000150: 8c84 933e a9f5 5bbc 3248 bcbe c612 3a3e
00000160: 8c30 c6be 09e5 6abe f2aa 2c3e d7c3 b1be
00000170: bf4c bd3d 7bb8 06be 3a42 003f 933c 1fbe
00000180: 6cea 5c3e 89cd 593d efd9 62be fa5f 053f
00000190: 8694 02be 6bfe 583e 79b4 d3bd 87a3 0a3f
000001a0: 1581 5ebe 69ca 69bd 378d 3ebe ba1a 193e
000001b0: b98f dc3e 6521 d7bd 4bde a8be 6c73 323f
000001c0: f72d e0bd c075 b83e 8b7c cb3e 48fb c6be
000001d0: 9a15 97be 3d8b d73e e1ba bdbd 3659 023f
000001e0: 651c 283e ce79 2bbf c10f b73d 8be7 9c3e
000001f0: 3d09 4cbd e24e 383e a181 9e3e 80b4 ce3e
00000200: 894c 8bbe dcf8 46bd 80aa 03bf ac58 043f
00000210: cc74 febd 70ea 293d c06e a3be 5348 edbe
00000220: 3e06 9fbe 3afd 753e dcfb d53e f37e ef3d
00000230: db52 d83c 93be 9dbd ee89 b43d 6f43 b8be
00000240: dea1 b23d 5c2d d23e a01a dabe 64f6 123e
00000250: 0a19 0cbe 7b61 68bd 3a55 07bf c245 9bbe
00000260: caf9 d7bc 2419 193f 6ee7 003f b957 98be
00000270: 4935 a1be b527 a1bd 0a8f 6dbe b8c9 ac3e
00000280: eb7e eb3e 245e 86be b21b d4be f27c 843e
00000290: e821 193d b7ef e03d e555 0bbf 0a0b c3be
000002a0: 40f7 47be ce68 293f 237a d73e 178d 57bd
000002b0: 6dca 9abe d6d1 a7be e2be 57be ded3 e63e
000002c0: d014 e2be d193 7ebe fdac 923e 51df e5be
000002d0: 4e77 9dbe 0849 5a3e ea2a a33e 5a0f 3c3e
000002e0: 7f25 df3c 240c f73e 8d9c 6bbe 4654 15be
000002f0: e43f a9bd c589 e43d 15a1 cebe f2f4 14bf
00000300: cc96 c0be 75ca 38be b9ac 0dbe eb78 f2be
00000310: b94c febe 2925 8e3e 14ce 573d 611a da3e
00000320: e6c9 b73e d692 423f 9c73 9dbd 8056 e8be
00000330: 1f07 813e 3420 c03c 451f d2be 766a c3be
00000340: 9dbb 863e 3b0e 41be 456f c4bd 053a 00bf
00000350: fcd4 f23e f9db e6be fe54 adbe 5883 87be
00000360: 0732 873e f477 dc3e feee 55be c3d7 13bf
00000370: 3a77 53be 04fb 513e b450 c0bc 987c 183e
00000380: 2652 87bb 8e15 d03e bc8a ab3e 702f a7be
00000390: 6049 91be b0f1 1b3e 9e47 b1be 268e 253f
000003a0: d2ac 523e 4cca 2c3f aaf4 783e d483 c7be
000003b0: 2491 0a3e 2ee1 e6be 623b af3e 8abc 953d
000003c0: dda3 fe3d f00a ca3e dcb0 05be 5d9d a1be
000003d0: e93c 043e 39c1 aa3e 5a4f 4f3c 4b58 993e
000003e0: 6ace 53be 6d9e 6bbe c8c5 4f3d dd5a 59be
000003f0: e09c ae3d a692 2fbe d423 01be 1d47 153f
-0.03453625 -0.4442169 -0.09002612 0.40558672 0.11977736 0.2812814 0.28143492 -0.44903255
-0.009720534 -0.058954306 0.2617086 -0.063565865 0.19515687 0.34720534 -0.338846 -0.27888706
0.21934001 0.38663813 -0.19421278 -0.009000736 0.4598655 -0.39970303 -0.069280334 0.2005079
-0.25557 0.031035895 0.52385277 0.067738935 -0.10467942 -0.48871207 0.4240997 -0.39462286
-0.7337376 -0.21110834 0.41879186 0.6634698 -0.14062323 -0.10282417 0.23860425 -0.31240585
0.60253024 0.07655302 -0.2484315 0.5746962 -0.28101465 0.2841485 -0.44386828 -0.25793555
-0.67645156 0.24374449 -0.531643 -0.052477416 -0.40700662 0.23337923 0.39251694 0.020370057
0.19121613 0.1648291 -0.31469133 0.82901937 0.47994238 0.29369676 -0.095991045 0.4522734
-0.2173636 0.3516126 -0.53355104 0.538545 -0.6056439 0.29655558 -0.6252331 0.13929234
-0.049628403 0.19521745 0.49321178 0.2731494 0.07181616 -0.45490217 0.30235237 0.25327453
0.11569247 0.2181677 0.11717173 0.34156173 0.28812063 -0.013425269 -0.3677383 0.18171224
-0.38708913 -0.22938932 0.16862085 -0.34719726 0.09243154 -0.13156311 0.50101054 -0.15550451
0.215738 0.05317453 -0.22153448 0.52099574 -0.1275197 0.21190803 -0.10337157 0.5415577
-0.21728928 -0.0570778 -0.18608557 0.14951602 0.43078402 -0.105044164 -0.32982096 0.6970737
-0.10946267 0.36027336 0.39743456 -0.38863587 -0.29508668 0.42098418 -0.0926416 0.50917375
0.16417082 -0.66982734 0.08938552 0.30645403 -0.049813498 0.17998841 0.30958274 0.40372086
-0.2720683 -0.048577175 -0.5143204 0.516978 -0.12424621 0.041483343 -0.31920433 -0.46344241
-0.3105945 0.2402238 0.41793716 0.116941355 0.026406696 -0.07702365 0.088153705 -0.35988948
0.0872228 0.4105023 -0.42598438 0.14351803 -0.13681427 -0.05673359 -0.5286442 -0.30326658
-0.026364226 0.59803987 0.50353134 -0.29754427 -0.31485966 -0.07868902 -0.23199096 0.3374765
0.45995268 -0.262437 -0.4142738 0.25876576 0.03738585 0.10983222 -0.5442794 -0.3809436
-0.19527912 0.66175544 0.4208537 -0.052624788 -0.30232564 -0.3277728 -0.2106891 0.45083517
-0.44156504 -0.24861075 0.28647605 -0.4489694 -0.30755085 0.21316922 0.31868678 0.18365231
0.02723956 0.4825145 -0.23008938 -0.14582929 -0.08264139 0.1115909 -0.4035727 -0.58186257
-0.3761505 -0.18045981 -0.1383542 -0.47357878 -0.4966791 0.27762726 0.052686766 0.4259825
0.35896224 0.76005304 -0.07688066 -0.45378494 0.25200745 0.023452856 -0.41039482 -0.3816716
0.26315013 -0.18853085 -0.095915355 -0.5008853 0.4742812 -0.450897 -0.33853906 -0.26467395
0.26405355 0.43060267 -0.2089195 -0.577511 -0.2065095 0.20505911 -0.023475982 0.14891279
-0.004129666 0.40641445 0.33504283 -0.3265338 -0.28376293 0.15228915 -0.34624952 0.64670026
0.20573738 0.6749618 0.24312082 -0.38967764 0.13531929 -0.45093673 0.34224993 0.073113516
0.12433598 0.3946147 -0.13055748 -0.3156537 0.1291386 0.33350542 0.012653196 0.29950175
-0.2068421 -0.23009653 0.05072573 -0.21226068 0.08526015 -0.17145786 -0.12611324 0.58311635
