Protection/model/AVAE_btc_part.pt (torch_old, 5535 bytes, 3 tensors)

gc1.weight f4 [6, 32]
00000000: 310a 3e3e 1f21 90bd 213a e73d 4208 2a3e
00000010: 158b 3fbe 7713 2d3e 5b81 abbe 5169 a23e
00000020: 901a 1bbe d3cd 65be 6ad1 8dbe d160 a8bc
00000030: c83c 683e 36f0 0bbe 2696 9f3e ce2e 643c
00000040: b663 9a3e 74fc 9e3e 759f b73e da78 97be
00000050: 6876 573e 80ce 99bc 7f4e b73e 581e 163d
00000060: aa78 85be 8443 d1bd ad33 2bbe fcaf d3bd
00000070: efb8 1c3e fffd 943e f84e 643e 31f4 8cbe
00000080: 4edf e0be 4627 cfba 1ee3 b4be 7932 edbd
00000090: cc4f 8abe d814 103f 15fe 29be b262 33bd
000000a0: 3641 823c db6e 4c3e 64cf 4d3e 2fc3 8f3d
000000b0: 2042 d9be 8007 1dbe bf41 6fbe 52b5 8cbd
000000c0: 1727 8bbe 40af e3bd 9760 b43e 4dcc a33e
000000d0: ee8a d83e 0a7f 62be f88a 893e 3b0c 8f3e
000000e0: 2c54 a13e 88c7 98be bd66 27be 2081 7e3c
000000f0: 9831 783e 4915 1bbd f0e1 9fbe 2887 28bb
00000100: 24e6 d2be 4314 323e 4e86 1f3e d67d 823e
00000110: 5a34 843e 1aaa 883e 2ed0 debe e691 a33e
00000120: dc87 1fbd 9d01 4abe d61f 103d 83c7 813e
00000130: 1545 0e3e e1d8 dcbe 8f26 183d f6f5 8d3e
00000140: 8fe8 13bb b960 833e 8676 a5be a840 a83d
00000150: 0b27 7a3d 4816 26be aba4 e03c b656 933e
00000160: 6699 72be 77cc 39be 7e6b a13e 0072 72bd
00000170: c4fb aabe f876 71bd 8d05 a13e ad9f 963d
00000180: 83f7 eeba 70aa ae3e b918 083d 1a4d d53d
00000190: 507f 09be 5b92 173e 9377 463e 38a1 49be
000001a0: 0665 df3e 2412 b7be 671c dd3e 756e c63e
000001b0: f58f 1a3d ff92 7fbd a68f c2be 73e0 ea3e
000001c0: 3c80 98be a392 c43d a763 633e dbb3 8ebc
000001d0: 790e 133c a0a9 033c 163c ef3e 4d8b 6e3e
000001e0: b642 4ebe 25b1 52be 970a 9dbc 340b bebd
000001f0: c5fc c8be 3b20 48be 8708 dcbe 46fd 18bd
00000200: f330 733d fa4b 35be 0b13 913e bb10 3a3e
00000210: 5a20 03be afff d3bd a377 85be b9f6 c73e
00000220: 9020 033d b963 acbe b6a3 15be ef48 383e
00000230: f090 403e f417 b13d 665f ef3d 8016 9b3e
00000240: 6cac cebe 2acb dc3e 14aa cfbd 14b0 683e
00000250: 4fd3 a83c e403 9abe c0df 643e 607b d0be
00000260: 62be 8fbe a246 a7be ef0c 783e 6b78 b8be
00000270: f98d 32be 64eb c13c 6195 463e 4172 443d
00000280: d60e 35be f611 da3e feb0 223e 75d8 c2be
00000290: b843 56be 3a3a 043e b784 263e 8900 81be
000002a0: 6ce8 073f 6464 5fbe c4ae 44be ecdf 90be
000002b0: 1069 cbbd 4fde 22bd aed4 11be 1180 693e
000002c0: 59cd dd3d 3a27 5abe f972 cbbe 1e36 73be
000002d0: 441a 093e e777 37be 9622 22be 4c7c 4fbe
000002e0: aa1a 8a3e 3c55 a0be 27f0 f73e 7017 cfbc
000002f0: b9a9 37be 4e74 753e ab43 88bd 95ac da3e
0.18558575 -0.07037567 0.11290384 0.16604713 -0.187054 0.16901956 -0.33497128 0.31720975
-0.15146852 -0.22441797 -0.27698833 -0.020553978 0.22679436 -0.13665852 0.31169242 0.013927175
0.30154198 0.3105198 0.35863844 -0.2958439 0.21041262 -0.018775225 0.35802075 0.03665003
-0.26068622 -0.10217956 -0.16718931 -0.10336301 0.15304922 0.29100034 0.22295749 -0.27530053
-0.43920368 -0.0015804551 -0.35329527 -0.115818925 -0.27014005 0.56281805 -0.16600831 -0.043795295
0.015900236 0.19964163 0.20098644 0.0701965 -0.42433262 -0.15334892 -0.23364924 -0.068705216
-0.2717826 -0.11117411 0.35229942 0.31991807 0.42293495 -0.22118774 0.26863837 0.2793902
0.3150953 -0.2983973 -0.16347785 0.0155337155 0.24237669 -0.037862096 -0.31227064 -0.0025715325
-0.41191208 0.17390542 0.15578577 0.2548663 0.2582119 0.26692277 -0.43518203 0.3194725
-0.038947925 -0.19727178 0.03518661 0.25347528 0.1389354 -0.43134215 0.037146147 0.27726716
-0.0022569036 0.2565973 -0.3231699 0.08215457 0.06107239 -0.16219437 0.02742227 0.28777093
-0.2369133 -0.18144403 0.31527323 -0.05919075 -0.33395207 -0.058951348 0.31449547 0.073546745
-0.0018231723 0.34114408 0.033226702 0.104150966 -0.13427472 0.14801924 0.19381551 -0.19690406
0.43631762 -0.35756028 0.43185732 0.38756147 0.037734944 -0.062396046 -0.3800022 0.45874366
-0.29785335 0.09598281 0.22205983 -0.017419746 0.0089756185 0.008036047 0.4672553 0.23295327
-0.20142636 -0.20575388 -0.019170089 -0.092794806 -0.39255348 -0.19543545 -0.42975256 -0.037350915
0.059372853 -0.17704764 0.2833484 0.18170445 -0.1280531 -0.10351502 -0.26067838 0.39055422
0.032013476 -0.33669832 -0.14613232 0.17996572 0.1880529 0.08647147 0.11688118 0.30290604
-0.40365922 0.43123752 -0.10139862 0.22723418 0.020608572 -0.30081093 0.22350979 -0.40719128
-0.28074938 -0.32671076 0.24223684 -0.36029372 -0.17436971 0.023671813 0.19392921 0.047960524
-0.1768144 0.42591828 0.1588783 -0.3805577 -0.2092427 0.12912837 0.16261564 -0.2519572
0.5308902 -0.2181564 -0.19207293 -0.2829584 -0.099321485 -0.03976279 -0.14241287 0.2280276
0.108301826 -0.21304026 -0.39736155 -0.23751113 0.13388926 -0.17916833 -0.15833506 -0.20262259
0.26973468 -0.3131503 0.4842541 -0.02527973 -0.17935838 0.23970148 -0.06653532 0.42709795

gc2.weight f4 [32, 16]
00000000: fdfb 0bbd d5ae 8ebc 5d19 293d daf2 74be
00000010: 9653 11be 61ed c3bc 28a8 80bd a814 753e
00000020: 0289 a0bb 99c9 013e ce1a a0be afe8 213e
00000030: 4e1f 96be a122 083e 98f1 533d 6425 153e
00000040: ec96 7f3e 64a4 08bd 41c4 8abe 2526 8fbe
00000050: e587 9a3e ffda 20be 9cbb 463e a591 573e
00000060: ccd1 4fbe 9ad1 5bbe 90a1 853e 5c92 6a3e
00000070: 611e 963d 5e0d 333d ca31 d13b 289d 283e
00000080: 2928 babe 7656 743e c4b9 163e 4db3 41be
00000090: a7a6 ac3d e6a6 093d f02b 473d a95d db3c
000000a0: 868d edbd b559 c43d cdc7 513e e563 983e
000000b0: 0828 afbd 33ec 87bc b07c 423e 016f c03d
000000c0: e4a6 833e 9ce9 b3be 8ad2 533e 400e c0be
000000d0: e0ca 073d c683 aebe 7188 9abc 7ff3 9abe
000000e0: 2113 60be 4cf8 0cbd d1f5 0cbe f6b9 eb3c
000000f0: df4d 63bd 97b5 93be 2f3f 9dbe c7e1 e4bd
00000100: a08c 90be 8ea6 cdbd 0481 1dbd de25 253e
00000110: 4470 443b 2bbe 47be 0509 be3c 634e a63d
00000120: 2e3e 3b3e 8bae 09be e801 a3be 4dc8 56be
00000130: 0647 923e 6f8b 44be 2b29 853e 9dfc d2be
00000140: 361a 9ebb 6d8e 273e 2fca 713e 1c36 92bd
00000150: b804 c53d bc30 55be a2a7 ad3e 17ad 173d
00000160: 75dd dabd a498 26be 3abc 853e d967 143e
00000170: 69d6 9b3e fb7d 1fbe 89c5 a73e f943 b53d
00000180: 29ee 16be 9264 a43e 847a a8be d861 183e
00000190: 6d9c 73bd f2dc 1ebe 8adb a9be 932b bcbe
000001a0: 27c6 a3bd 276a 9b3e 0f25 ce3d 5f36 3a3e
000001b0: ac49 bf3d 6aad 9bbe 58f2 a3be dd7f 923e
000001c0: 7d0a acbe 5b5c babd 608e 6b3e 61a7 7ebe
000001d0: 8ebf cd3e 5f06 00be 901a 8fbe a282 43be
000001e0: 0700 403e b21d ac3d a095 a4be 7505 943e
000001f0: 18dc e83c 8f88 07bd d979 e6be 6636 243d
00000200: c35d e73d c57e a93e 32e9 29be 19ad 67bd
00000210: e753 be3d 6c5a 983e 624b 133e 4e16 f73e
00000220: 3a23 4d3c b92b 84bc b42c 98bd afc2 e1be
00000230: 9434 22be 25bc 35bd f391 97be b4af 283e
00000240: e1d1 80be 2178 f53d afc2 983e cf01 8dbc
00000250: 13c6 bcbe a279 5c3e 326a 393e 9691 ff3c
00000260: c00f 193e 9d33 403e cccc c7bd 47a6 88bd
00000270: 1cfc 1c3e 9075 03be 6bc5 703d 82b6 44be
00000280: 1b51 063f dc1d 19bf e081 613e 169e c83e
00000290: 72c6 1c3e e1b3 173d 6c69 0abe 0b1d 5e3e
000002a0: f279 b3be ef8c 48be fe8b babe cc67 01be
000002b0: 98a0 0ebe f7d8 003f b943 ca3b ceed a33e
000002c0: 563c a73d b257 81be c953 06be ae6c 843e
000002d0: 4740 84be 434e 33be 25f6 85bd 408d 96bd
000002e0: eab5 00bd e399 923d a5c6 aebd d4b8 7bbd
000002f0: bf72 11be b7c6 5b3e 6f52 053e 0c3e c63e
00000300: f541 8ebb b53e 123e 4d95 6d3c d5ee 8cbe
00000310: ce00 a1be 3016 97be 48b3 fd3d 9f03 4abe
00000320: 25e7 87bc 46c2 03bd 1d49 3c3e d7c8 54bd
00000330: 6b2b 223e 68aa 8cbe fcef ac3e 0027 b03d
00000340: b9b9 5abe d2e8 5e3e 7fe8 b9bd 9237 c9bd
00000350: a4ba 943e 19c8 c23d b522 9bbe 838e 863e
00000360: 0c89 15bd 6818 513e a87d 9abe c281 73be
00000370: 1ed3 4bbd 8d94 2bbe 316b ac3e 331c af3e
00000380: 93b7 2c3e 7b38 19be 482c 163e 3014 5a3d
00000390: 7dcb 6b3d 2739 843e ae89 823d b5a3 51be
000003a0: 3267 813e 449a e7bd ad3e 9e3e 9ed0 fabd
000003b0: 0765 83be 3a25 143e 0c9f 193e c110 6cbe
000003c0: effe 31bd 735a 5d3e aaa3 943e 1073 30bd
000003d0: dbcb 8dbe 898d 9d3d 28cf abbe cb2d 38be
000003e0: f2fb 803e 0139 e63d 620b 88be 1efa 78be
000003f0: b959 b6bd 20cf 86be c2f6 a03d 8135 873e
-0.03417586 -0.01741735 0.041283954 -0.23920766 -0.14192042 -0.023916902 -0.06282073 0.23933661
-0.004899145 0.1267456 -0.3127045 0.15811418 -0.2932076 0.1329446 0.051744074 0.14565045
0.24959916 -0.0333599 -0.27102855 -0.2795879 0.30181804 -0.1570854 0.19407505 0.21051653
-0.20294875 -0.21466675 0.26099825 0.22907394 0.07330013 0.04371392 0.006384109 0.164662
-0.36358765 0.23861107 0.14719301 -0.18916054 0.08430224 0.033606432 0.048625886 0.02677806
-0.11599259 0.09587423 0.20486374 0.29763713 -0.08552557 -0.01659212 0.18992877 0.09396172
0.25713265 -0.35139167 0.20685783 -0.37510872 0.03315246 -0.3408491 -0.018863888 -0.30263898
-0.21882297 -0.03441648 -0.13765647 0.028775197 -0.055494186 -0.2884948 -0.30712268 -0.11175876
-0.28232288 -0.100415334 -0.038453117 0.16127726 0.0029974142 -0.19506137 0.02319766 0.0812042
0.18285438 -0.13445489 -0.31837392 -0.20974846 0.28569812 -0.19193815 0.2600797 -0.41208354
-0.004824902 0.16362925 0.23612283 -0.07139227 0.09620041 -0.20819372 0.33916956 0.037030306
-0.10686771 -0.16269165 0.26120168 0.1449274 0.3043702 -0.15575401 0.32767895 0.088508554
-0.14739288 0.3210798 -0.32905972 0.14881074 -0.05947535 -0.15513971 -0.33175308 -0.36751994
-0.07996779 0.30354425 0.10065662 0.18184803 0.09340224 -0.30405742 -0.3202083 0.28613177
-0.33601752 -0.09099647 0.2300353 -0.24868537 0.40185207 -0.1250243 -0.27949953 -0.19092801
0.1875001 0.084041014 -0.32145405 0.28910413 0.028425261 -0.033089217 -0.45014837 0.04009094
0.112971805 0.3310453 -0.16592863 -0.056561563 0.09293347 0.29756486 0.14384225 0.48259205
0.012520606 -0.01613413 -0.074304014 -0.44093844 -0.1584037 -0.04436888 -0.29603538 0.16473275
-0.25160125 0.119858034 0.29836032 -0.017212776 -0.3686987 0.21530774 0.18106917 0.03119735
0.14947414 0.18769689 -0.09755859 -0.0667234 0.15330547 -0.12837815 0.058782022 -0.19210246
0.5246751 -0.59811187 0.220222 0.3918311 0.15310076 0.03703678 -0.13516778 0.21690767
-0.35053974 -0.19585012 -0.3643493 -0.12637252 -0.13928449 0.5033106 0.006172624 0.32017368
0.08165805 -0.2526222 -0.13117899 0.25864166 -0.2583029 -0.17510323 -0.06541089 -0.0735116
-0.031423487 0.07158258 -0.08533982 -0.061455563 -0.14203928 0.21462522 0.13019727 0.38719213
-0.004341359 0.14281733 0.014500928 -0.27525964 -0.31445926 -0.29509115 0.12387711 -0.19727944
-0.01658971 -0.032167695 0.18387266 -0.05194935 0.15836875 -0.2747376 0.33776844 0.08601189
-0.2135991 0.21768501 -0.09077548 -0.09825052 0.29048645 0.09510822 -0.30299917 0.26280603
-0.03650765 0.20419466 -0.30173993 -0.23779967 -0.049761884 -0.16755886 0.3367553 0.34201202
0.16866903 -0.14962952 0.1466533 0.05324191 0.05756711 0.25824854 0.063739166 -0.20472606
0.25274044 -0.11308721 0.30907193 -0.12246822 -0.25663015 0.14467326 0.15002078 -0.23053266
-0.043456014 0.21616535 0.29031116 -0.043078482 -0.27694592 0.07693011 -0.33556485 -0.17986219
0.2519222 0.112413414 -0.26571184 -0.24314162 -0.08903832 -0.263299 0.07859565 0.26408008

gc3.weight f4 [32, 16]
00000000: 792c 97be 0bf1 92be 6ac3 043e d929 60be
00000010: 7b72 6a3d c285 a2be eff4 ac3d f769 7dbe
00000020: 4ac9 233e af4c 4a3e 2e34 10be dc87 02be
00000030: 1fcf 2e3c 2957 603c 009e 15be dd04 5bbd
00000040: 904f e4bc c835 3dbe 646f 19bf ca9a d7be
00000050: e230 0ebf 504b b8be 215a 03bd c3be ffbb
00000060: 4adb 87bd 9d0d 08be 4870 8ebe a7f9 cb3c
00000070: 0d54 fdbe 9237 243e 789a b8be d6ec e0be
00000080: 6315 55be 108a ca3d 3253 463e 13ee bebe
00000090: ea91 0f3e 6a01 c6be e56e 7a3d 587e c8be
000000a0: f37c 08bf c2ca e43c 2f22 21bb 6a2c 01bf
000000b0: 80ac d9be 0a2a b4be 1c27 d8be 909c cbbe
000000c0: 8bff b3be b855 bcbe fb58 77be 6a83 5fbe
000000d0: 11dd 0ebe 83ba ecbd ca37 eebd 9c03 43bd
000000e0: eb6b 98be 72ef 8f3e b7b0 2dbd c0d9 1d3e
000000f0: 62ce 7cbe 6d53 6ebe 9744 02bf 6223 33bf
00000100: ce99 bdbd 4441 0d3e 96d0 d53d f6a7 84be
00000110: 5d93 7bbd 60f2 503e 173f aebe edc7 7e3d
00000120: 7751 18bd ce63 203d 1896 573e c667 92bd
00000130: dc80 cdbd 754b 6bbe 8d4b bdbe 31f4 b2be
00000140: 6e78 48be e545 08be 0050 f8be 9acf 3bbe
00000150: 25ef d9be 7d25 eabe 0c72 adbe 9acc d4be
00000160: 3004 cdbe 0767 63be d665 58be 32a4 19bf
00000170: 68d4 9c3b ac40 01bf 9e10 c03d bafd 29bf
00000180: e439 93be 4fa6 c1be 7a42 753b 06ec a7be
00000190: de09 54bd c85c b7be f471 9dbe c023 c5bd
000001a0: 2882 a8be 76d4 08bd 5d90 8cbe a515 e9bd
000001b0: 781b 243e d1e5 d9be 66ce aebe 5493 5fbe
000001c0: 6b66 0dbf e74a 89bd ca26 85be cedc 49bd
000001d0: 7382 c83d eca8 4ebe a162 89be 37e5 19bf
000001e0: bb10 12bf 289d d3be df0b 35bd 261a 87be
000001f0: 125b c9be b7bc 0dbf a3ea e0be 5650 ecbe
00000200: ad2c 02be 75bb 4bbe e9b2 51be 4dda 2d3e
00000210: 2910 49be 888f 1b3d 3220 99be 315c 5c3e
00000220: f621 3a3e b58b 40bf ca96 bfbe 56bc 183d
00000230: 2229 09be 368d 4b3d 7a4e 74bd b7fb 89bf
00000240: 6a64 59ba 8ee4 e2be 159d 75be f4b6 a33d
00000250: eb1c f0bd d337 35be 8e1a 343e e456 03be
00000260: ab3e c8bd 7e78 7d3e b322 173e 2b61 ac3c
00000270: 9647 09be ae46 87be b721 c63e ad44 1c3c
00000280: 6437 4dbd 7183 9a3d 8f65 8e3c fa70 0bbe
00000290: 1a6e 053e 2e0c f1be a4f8 07bf abec 04be
000002a0: ac8e 323d 0652 bcbe 153f 2abd 7fcd 07bf
000002b0: 659d 37be 5604 95be 6435 c7be 77f4 eebe
000002c0: ec58 32bc 9d02 e2bc 3f13 bdbe e39f 8cbe
000002d0: 10e5 1a3e d6f4 4f3d f012 e1be a91e e2be
000002e0: 3ad7 ddbe 8d0c 2cbc 23f1 cbbe 2434 0ebd
000002f0: b753 ecbb d0c6 413d a1d6 0ebf 9bbb 0fbf
00000300: 70b1 dfbe 8d88 04bf 8523 263e 74d5 8bbd
00000310: bd89 c1bd b4e6 52be fc09 62be 43f6 59be
00000320: e780 ef3d 5ffe 2b3d baf2 223d 4dd8 02be
00000330: 74d8 0abf 776b e5be 94c9 813c 8697 23be
00000340: 38c8 85be 8d3d 4e3e 779b 12be 5684 c2be
00000350: b1e6 acbd 8a0c a2bd 75a2 553e e399 5e3e
00000360: fcf0 d0be bce2 4a3e 51d5 38be e84b 98ba
00000370: 024f d6bd 77e1 853c a5dd 253e 02e7 a8bb
00000380: 4bf8 9d3c e22a db3d 03fc e6bd ce64 103c
00000390: 1c63 9e3d cddd 7cbe beda f3be 3789 d2be
000003a0: fcbf 79be e9d5 763e 40e0 51be 992f a6bd
000003b0: 32b6 02bf faa3 fabd e2fe b6bd bb18 dc3d
000003c0: 3a39 f9be 522a acbe ffce ebbe 5a0e f4be
000003d0: a03f 703d b0ee 01bf 77c0 1ebd 6495 84bd
000003e0: 4a5f c6be dfbf cfbc ad2f f5bd fc7e a0bb
000003f0: 311a 94be dccc c8be 84fa dfbe a8bb 60bf
-0.29526117 -0.28699526 0.1296517 -0.21890964 0.057238083 -0.31742674 0.08445155 -0.24747454
0.15994754 0.19755815 -0.14082405 -0.12747139 0.010669499 0.013692656 -0.14611053 -0.053471435
-0.02786997 -0.18477547 -0.59935594 -0.42110282 -0.5554334 -0.3599496 -0.032068375 -0.007804723
-0.06633623 -0.13286443 -0.2782004 0.024899317 -0.49478188 0.16036823 -0.3605535 -0.4393069
-0.2080894 0.098896146 0.19367674 -0.3729101 0.14020506 -0.38672954 0.061140914 -0.39158893
-0.5331566 0.027928714 -0.0024587025 -0.50458395 -0.4251442 -0.35188323 -0.42217338 -0.39767885
-0.351559 -0.36784148 -0.24155037 -0.21827474 -0.13951518 -0.11559012 -0.11631735 -0.047610864
-0.29769835 0.2811237 -0.042404857 0.15415096 -0.24688104 -0.23274012 -0.5088591 -0.69975865
-0.092578515 0.13794428 0.10440175 -0.25909394 -0.061419833 0.20404959 -0.3403251 0.062202383
-0.037187066 0.03915768 0.2105335 -0.071486995 -0.100343436 -0.22978003 -0.36971703 -0.34951928
-0.1957719 -0.13307913 -0.48498535 -0.18340912 -0.42565265 -0.45731726 -0.33876073 -0.4156235
-0.40042257 -0.2220727 -0.21132597 -0.6001617 0.004786063 -0.50489306 0.093781695 -0.6640278
-0.28755105 -0.37822196 0.0037423656 -0.3279726 -0.051767223 -0.35812974 -0.30751002 -0.096259594
-0.329118 -0.033405744 -0.2745389 -0.113810815 0.16026103 -0.42558149 -0.34141845 -0.21833545
-0.552344 -0.067037396 -0.26006156 -0.04928284 0.09790506 -0.20181626 -0.2683306 -0.6011538
-0.5705678 -0.41330838 -0.044200774 -0.26387137 -0.39327294 -0.5536608 -0.43929014 -0.4615504
-0.12712355 -0.19895728 -0.20478405 0.16977806 -0.19635071 0.03797868 -0.29907376 0.21519543
0.18177018 -0.75213176 -0.3741973 0.037288986 -0.13394597 0.049695216 -0.059645154 -1.0779942
-0.0008292856 -0.44314998 -0.23985703 0.0799388 -0.11724266 -0.17697076 0.17588255 -0.12826115
-0.09777578 0.24752995 0.1475933 0.021042427 -0.13406214 -0.26421112 0.38697597 0.009537858
-0.050101653 0.07544602 0.017382411 -0.13617316 0.13030282 -0.47079605 -0.5311377 -0.12980907
0.043593094 -0.3678133 -0.041564066 -0.5304794 -0.17931135 -0.2910487 -0.3890792 -0.46670887
-0.010885458 -0.027589137 -0.36928746 -0.27465734 0.15126443 0.050770603 -0.4395976 -0.44164017
-0.43328267 -0.010501039 -0.3983241 -0.034717694 -0.007212128 0.047308743 -0.5579625 -0.5614564
-0.43690062 -0.5177086 0.16224487 -0.06827822 -0.094500996 -0.20595819 -0.22074121 -0.21285348
0.11694508 0.041990634 0.039782263 -0.12777825 -0.5423653 -0.44808552 0.01584319 -0.1597577
-0.26129317 0.20140667 -0.14317118 -0.3799159 -0.084424384 -0.07912548 0.20862754 0.2173839
-0.40808856 0.19813055 -0.18050124 -0.0011619302 -0.10464288 0.016342862 0.16197832 -0.0051544914
0.019283434 0.107015386 -0.11278536 0.008813096 0.07733747 -0.24693985 -0.47627825 -0.41120312
-0.24389642 0.24105038 -0.20495701 -0.08114547 -0.5105926 -0.12238307 -0.08935334 0.107469045
-0.48676473 -0.33626038 -0.46056363 -0.476672 0.058654428 -0.50754833 -0.038757768 -0.064738065
-0.38744575 -0.025360046 -0.11971984 -0.00489795 -0.28926232 -0.39218795 -0.43745816 -0.8778634
