Protection/model/AVAE_btc.pt (torch_old, 5535 bytes, 3 tensors)

gc1.weight f4 [6, 32]
0	0xbf13c901	-0.5772858
1	0xbd1abe20	-0.037778974
2	0x3ea776ee	0.32707924
3	0x3f0fbaf6	0.56144655
4	0xbca76ede	-0.020438608
5	0xbf08cc43	-0.5343668
6	0xbf366d23	-0.7126028
7	0xbe11ca5a	-0.14237347
8	0x3d3ef517	0.046620455
9	0xbcf956cd	-0.030436898
10	0x3ebbcbd4	0.36678946
11	0x3e86f622	0.2635966
12	0xbe030970	-0.12796569
13	0x3dc1808a	0.09448345
14	0x3e9ef868	0.31048894
15	0x3eb506bc	0.353567
16	0x3e20f8ef	0.1571996
17	0xbebec902	-0.37262732
18	0x3e82968b	0.2550548
19	0xbedb1613	-0.4279028
20	0x3e896d7f	0.2684135
21	0xbec7d4e1	-0.390296
22	0xbe8adf76	-0.27123612
23	0x3e8bd9b9	0.27314547
24	0xbb832c6e	-0.004003099
25	0x3e86bfa5	0.26318088
26	0xbb4764a0	-0.0030424967
27	0x3f263e6a	0.64938986
28	0xbd4f8468	-0.05066338
29	0xbe0f9004	-0.14019781
30	0x3eaea84f	0.34112784
31	0x3e192fe4	0.14959675
32	0x3f20fbce	0.62884223
33	0xbe471c06	-0.19444284
34	0xbf00f890	-0.50379276
35	0x3e4f6076	0.2025164
36	0x3ea92133	0.33033141
37	0x3f1cfc10	0.61322117
38	0x3e30b9ea	0.1725842
39	0xbcfa2bd7	-0.030538483
40	0x3f176d6e	0.5915135
41	0x3d75bec7	0.059996393
42	0xbe70f263	-0.23529963
43	0x3e93b94f	0.28852317
44	0xbd8300c8	-0.063966334
45	0xbedbabdd	-0.4290456
46	0x3e9ef818	0.31048656
47	0xbdf889fe	-0.12135695
48	0xbdec78ee	-0.11546503
49	0xbf2879cf	-0.65810865
50	0x3f04baa4	0.5184729
51	0xbeb93158	-0.3617046
52	0x3e06fba0	0.13181925
53	0xbde65bee	-0.11248003
54	0xbe3df8d5	-0.18551953
55	0x3e609b51	0.21934249
56	0x3e9bd490	0.3043561
57	0xbf1075fc	-0.5643003
58	0x3ea492cc	0.32143247
59	0x3f1951e0	0.59890556
60	0xbdb7bb99	-0.08971328
61	0x3e5a96f3	0.21346645
62	0x3e1c7cd8	0.15281999
63	0xbd2047ee	-0.039131097
64	0x3e41d32b	0.1892821
65	0xbdb24ce8	-0.08706075
66	0x3ee1741e	0.44033903
67	0xbe141b9c	-0.14463657
68	0xbf056492	-0.52106583
69	0x3e2aafff	0.166687
70	0x3d433a6f	0.04766315
71	0x3d08bfc5	0.03338601
72	0xbde70490	-0.11280167
73	0xbe628b14	-0.22123367
74	0x3d8946a4	0.06702927
75	0xbeb7d961	-0.35908034
76	0xbe89bca7	-0.26901743
77	0xbe142544	-0.1446734
78	0x3eaeb045	0.34118858
79	0x3f0f9579	0.5608745
80	0x3e8fff11	0.28124288
81	0x3de35a3e	0.11101197
82	0x3e9a7dbd	0.30174056
83	0x3d820f20	0.06350541
84	0xbeb4941b	-0.35269246
85	0xbcd04c1c	-0.025426917
86	0x3f173613	0.59066886
87	0x3ece27d2	0.40264755
88	0x3e771108	0.2412759
89	0x3e722cc0	0.23649883
90	0x3d01bebf	0.03167605
91	0xbea35231	-0.31898645
92	0x3d3d72d4	0.046252087
93	0x3f1c5dd1	0.6108065
94	0xbe99ea8d	-0.3006176
95	0x3e251b25	0.16123636
96	0x3e8385eb	0.2568811
97	0xbe71ba34	-0.23606187
98	0xbeba2a60	-0.36360455
99	0x3e994c21	0.29940894
100	0x3e037881	0.12838937
101	0xbf457858	-0.77136755
102	0x3e78ae83	0.24285321
103	0x3dce4bf3	0.1007308
104	0x3ec57d1e	0.3857202
105	0x3e8f776b	0.28020796
106	0xbe99acd7	-0.3001468
107	0xbea03004	-0.31286633
108	0x3f6d1b8c	0.9262016
109	0x3ecc730f	0.39931533
110	0xbd49e7c7	-0.049293306
111	0x3f1affe1	0.6054669
112	0x3eae0b07	0.33992788
113	0x3d865eef	0.06561076
114	0xbbd3c262	-0.006462381
115	0x3ea5a394	0.32351363
116	0xbccad0ac	-0.024757706
117	0x3e728a36	0.23685536
118	0xbeff2923	-0.49836072
119	0xbe4888fc	-0.19583505
120	0xbd2cbbaf	-0.042171177
121	0x3ce996a5	0.028514216
122	0x3d317dac	0.04333274
123	0xbd20c414	-0.039249495
124	0xbc47ecc4	-0.012202445
125	0xbdb4f2fa	-0.088354066
126	0xbdfddb2c	-0.12395319
127	0xbe0cf822	-0.1376653
128	0x3e0a74f9	0.13521184
129	0xbe48c775	-0.19607337
130	0xbe89d395	-0.26919237
131	0x3e6885fd	0.22707362
132	0x3ea5ce0e	0.3238377
133	0xbdac543f	-0.08414506
134	0xbeb99443	-0.36245927
135	0x3f046abf	0.5172538
136	0xbf46df0b	-0.77684087
137	0x3eb5929e	0.35463423
138	0x3e810d07	0.25205252
139	0xbca1844d	-0.019716406
140	0xbdb6e44c	-0.08930263
141	0x3d929171	0.07156647
142	0x3e14af4a	0.14519992
143	0xbe35cd0d	-0.17754002
144	0x3e483125	0.19549997
145	0x3e524e9e	0.20537803
146	0x3d0644c4	0.032780424
147	0x3e5d0572	0.21584108
148	0x3e866d67	0.26255342
149	0xbe56ebde	-0.20988414
150	0x3e5e05e8	0.2168194
151	0xbe0d86d9	-0.13820972
152	0x3e62c3a9	0.22144951
153	0xbe5e0d76	-0.21684822
154	0xbe9f2191	-0.31080297
155	0xbe19b937	-0.1501206
156	0xbded43ac	-0.11585173
157	0x3ec5c89a	0.3862961
158	0x3ece7a66	0.40327758
159	0x3e9e0599	0.30863646
160	0xbf089a87	-0.5336079
161	0xbdc8df5c	-0.098082274
162	0x3e9f3dd3	0.31101856
163	0xbde02fde	-0.1094663
164	0xbe79c96f	-0.24393247
165	0x3f259f9e	0.6469668
166	0x3f071acb	0.5277526
167	0x3e927d2a	0.28611118
168	0xbd7817d2	-0.06056959
169	0x3ee99871	0.45624116
170	0x3ec37c92	0.38180977
171	0xbe753481	-0.2394581
172	0xbe5cd388	-0.21565068
173	0x3d109c70	0.03530544
174	0x3c109f36	0.008827021
175	0x3d976e04	0.07394031
176	0xbe9e5b97	-0.30929253
177	0x3f24c7fb	0.64367646
178	0xbdb5306d	-0.08847127
179	0x3ea7b2b5	0.3275353
180	0xbe8a3a05	-0.2699739
181	0xbcc3311f	-0.023827134
182	0x3d01c334	0.0316803
183	0xbe21659f	-0.15761422
184	0x3e9b8be6	0.30380172
185	0x3e7a682a	0.24453798
186	0xbea41701	-0.320488
187	0xbf31391c	-0.69227767
188	0xbe358ec4	-0.17730242
189	0x3e5b1499	0.21394576
190	0xbe33d5f1	-0.17562081
191	0x3f003cc0	0.500927

gc2.weight f4 [32, 16]
0	0x3d702494	0.058628634
1	0x3e2e2699	0.17006911
2	0x3ec89799	0.3917816
3	0x3d3042b0	0.04303235
4	0x3f5558c8	0.83338594
5	0xbe4df9b2	-0.20114782
6	0xbe09b784	-0.13448912
7	0xbf257bb4	-0.6464188
8	0xbf675482	-0.90363324
9	0x3f2e740d	0.6814583
10	0xbf2d116b	-0.676047
11	0x3eae708b	0.34070238
12	0xbeaf5fca	-0.3425277
13	0xbf5c1228	-0.85965204
14	0x3f732d6b	0.9499118
15	0x3eef7617	0.46769783
16	0xbe369c47	-0.17833053
17	0xbda2bf74	-0.07946673
18	0x3cb00420	0.021486342
19	0xbdb5aa74	-0.08870402
20	0x3d8e0d94	0.069361836
21	0xbd864368	-0.065558255
22	0x3ddcf9d4	0.107898384
23	0x3e1ba80e	0.15200827
24	0xbe943f51	-0.28954557
25	0xbc9cc840	-0.019138455
26	0x3e4e255e	0.20131442
27	0xbe8e4d21	-0.2779322
28	0xbe5e22d7	-0.21692978
29	0xbe203fa6	-0.1564928
30	0xbd46f2c0	-0.04857135
31	0xbe8434ad	-0.25821438
32	0xbe7a1a8b	-0.24424188
33	0xbe677484	-0.22603041
34	0xbf15fe6d	-0.5859135
35	0x3f141a4a	0.57852614
36	0x3f2abbef	0.66693014
37	0xbe93bc30	-0.28854513
38	0xbcf9a251	-0.030472906
39	0xbed4b49a	-0.41544038
40	0xbef0510f	-0.46936843
41	0xbf16c614	-0.58895993
42	0xbf839bd8	-1.0281935
43	0xbf288799	-0.65831906
44	0xbdc7cb5f	-0.09755587
45	0x3eb2c838	0.3491838
46	0x3f07f151	0.53102595
47	0xbf57e8e2	-0.84339726
48	0xbe2d98be	-0.16952798
49	0x3e916430	0.2839675
50	0xbef64462	-0.48099047
51	0xbdaba038	-0.08380169
52	0xbf372992	-0.71547806
53	0xbc1d176a	-0.009588102
54	0x3e39beee	0.1813924
55	0x3e8ce019	0.27514723
56	0x3e4d0070	0.20019698
57	0xbe8da755	-0.27666727
58	0x3e2af1bd	0.16693778
59	0xbd443629	-0.047903214
60	0x3e2011f9	0.15631856
61	0xbf343cc5	-0.70405227
62	0xbe806345	-0.25075737
63	0x3e8ab99f	0.27094743
64	0xbe101bc9	-0.14073099
65	0x3e9674bd	0.2938594
66	0x3e4d50fe	0.20050427
67	0x3d3d9dfe	0.04629325
68	0x3e4aa7a0	0.19790506
69	0xbec6a3ac	-0.38796747
70	0x3eb51482	0.3536721
71	0xbf1bb190	-0.60817814
72	0xbec1ebfa	-0.37875348
73	0xbe7aa088	-0.244753
74	0xbf09910c	-0.5373695
75	0x3f0b4686	0.54404485
76	0xbe10cb57	-0.14140068
77	0xbf31bf63	-0.6943266
78	0x3e36f8e9	0.17868389
79	0xbed3d770	-0.41375303
80	0x3e8aacfc	0.27085102
81	0x3c869d9f	0.016432581
82	0xbecc0bce	-0.39852756
83	0x3d9bc35b	0.076056205
84	0x3f5966fd	0.8492277
85	0x3eaad321	0.33364204
86	0xbe9bc9c8	-0.30427384
87	0xbf9434a0	-1.157856
88	0xbf332e70	-0.69992733
89	0x3e6560be	0.22400185
90	0xbf8825ed	-1.0636574
91	0x3f1c1a78	0.6097789
92	0x3e9908e5	0.29889598
93	0xbcd2c46e	-0.02572843
94	0xbdf9be24	-0.121944696
95	0x3e5a6488	0.21327412
96	0x3ed9267a	0.42412168
97	0x3e2d40be	0.16919228
98	0x3ea9b852	0.33148438
99	0x3e09c15f	0.13452671
100	0x3f52491f	0.82142824
101	0xbe880e2e	-0.26573318
102	0x3df68150	0.12036383
103	0xbf0e49b1	-0.55581194
104	0xbef85b03	-0.48506936
105	0xbeb0ea84	-0.3455392
106	0xbf026bea	-0.50945914
107	0xbd19d0c1	-0.0375526
108	0x3d17e6b6	0.037085257
109	0x3eafdf91	0.34350255
110	0xbd0894f5	-0.03334518
111	0x3dc05e5b	0.09392997
112	0xbeeac0be	-0.45850176
113	0x3e4ed0a4	0.20196778
114	0x3f283dd9	0.6571937
115	0x3ed2f6f3	0.41204032
116	0xbf1e19eb	-0.617583
117	0xbe47f9a4	-0.19528824
118	0x3e9a0349	0.3008063
119	0x3ee0de55	0.43919626
120	0xbe60ab67	-0.21940385
121	0x3f0d4b56	0.5519308
122	0x3e31319a	0.17304078
123	0x3ec2501e	0.3795175
124	0xbeb602b9	-0.35548952
125	0x3f027dfc	0.50973487
126	0x3e4cb9dc	0.19992775
127	0xbd8923a5	-0.06696252
128	0xbe5da120	-0.21643496
129	0xbf01379b	-0.5047547
130	0xbf426ddd	-0.7594889
131	0xbc3c57eb	-0.011495571
132	0x3f4b74cc	0.7947509
133	0x3f59c0a8	0.85059595
134	0x3db65605	0.08903126
135	0xbf8a79a3	-1.081837
136	0xbd8f982f	-0.070114486
137	0xbebb7fd3	-0.3662096
138	0xbd94d527	-0.07267218
139	0xbe423802	-0.18966678
140	0xbe33897e	-0.17532918
141	0xbdc219a1	-0.094775446
142	0xbee73e70	-0.45164824
143	0xbeced7c7	-0.40399
144	0x3ded6322	0.11591174
145	0x3e31fd1d	0.17381711
146	0x3e50ca18	0.20389593
147	0x3ecdbf22	0.40184885
148	0xbf428659	-0.7598625
149	0xbe610d5d	-0.21977754
150	0x3ef9d970	0.48798704
151	0xbdcb5835	-0.099289335
152	0x3d9c3773	0.076277636
153	0x3edf3398	0.4359405
154	0xbd4b246a	-0.049595274
155	0xbe98105c	-0.2969998
156	0x3e4f1335	0.2022217
157	0xbd5740f8	-0.052552193
158	0xbe5425b5	-0.20717509
159	0xbe921117	-0.28528664
160	0xbebed41d	-0.37271205
161	0xbea7cfb3	-0.3277565
162	0xbf00e8d8	-0.5035529
163	0xbe491bd0	-0.19639516
164	0xbe22b358	-0.15888727
165	0x3ec241ee	0.37940925
166	0x3b89b040	0.004201919
167	0x3ecdde00	0.40208435
168	0xbeda52f1	-0.42641404
169	0xbf23eb77	-0.64031166
170	0xbeee9689	-0.46599224
171	0xbea252d5	-0.3170382
172	0xbd899d7c	-0.06719491
173	0x3f1dc3a6	0.6162666
174	0xbd88d62f	-0.06681477
175	0xbe96b5f9	-0.2943571
176	0xbdbee7ec	-0.09321579
177	0xbc43871a	-0.011934066
178	0x3eda4d33	0.42637023
179	0x3ec609eb	0.38679442
180	0x3d5edb14	0.054408148
181	0xbd41a430	-0.047275722
182	0xbec267a1	-0.37969688
183	0xbe23b5f8	-0.15987384
184	0xbe6b448e	-0.2297537
185	0xbd924d8c	-0.07143697
186	0xbebd0cdf	-0.36923882
187	0x3e318299	0.17334975
188	0x3d4b8268	0.049684912
189	0xbac8dfb8	-0.0015325462
190	0x3dbfe414	0.09369674
191	0xbf29d4c5	-0.66340286
192	0x3e0634e3	0.13106112
193	0x3f09dce5	0.53852683
194	0x3f1b20a4	0.6059668
195	0x3e44f7c3	0.19235139
196	0x3e9ee68d	0.3103527
197	0x3cd32a9e	0.025777157
198	0x3ed19f48	0.40941834
199	0xbf8121b3	-1.0088409
200	0xbbfa38a1	-0.007636145
201	0xbf28a018	-0.65869284
202	0xbdd9f265	-0.10641936
203	0xbf2a58fd	-0.66542035
204	0x3d4ca613	0.04996307
205	0xbf2cffb5	-0.6757768
206	0x3ed6994a	0.41913825
207	0xbecbd0c5	-0.39807716
208	0xbddca9eb	-0.10774597
209	0xbe1eb2a6	-0.15497836
210	0x3e41701f	0.18890427
211	0x3f0b6b1e	0.5446032
212	0x3ef60647	0.48051664
213	0xbe5ad894	-0.2137168
214	0xbe842d64	-0.2581588
215	0xbeea2a9a	-0.45735627
216	0xbf25c4f5	-0.6475366
217	0xbf490d04	-0.78535485
218	0x3d540a35	0.051767547
219	0xbea31b1a	-0.31856614
220	0x3d8aad30	0.06771314
221	0xbde9b66a	-0.11411746
222	0x3cada922	0.021198813
223	0xbe7bac59	-0.24577464
224	0x3de159f2	0.11003484
225	0xbde02fdf	-0.10946631
226	0x3e90d329	0.28286102
227	0xbe416796	-0.18887171
228	0x3d881547	0.06644683
229	0xbd3c6d4f	-0.046002682
230	0xbdbc2b7b	-0.09187981
231	0x3e070f0e	0.13189337
232	0x3dbaba7c	0.091176
233	0x3e89283c	0.2678851
234	0xbdf4b206	-0.11948018
235	0x3e11cec7	0.14239036
236	0x3da0e853	0.07856812
237	0x3d181be5	0.037135977
238	0x3d56dd53	0.052457165
239	0x3b0a0f0c	0.0021066098
240	0x3edc926c	0.4308046
241	0xbdedd40d	-0.11612711
242	0x3e789917	0.24277149
243	0xbe91d96f	-0.284862
244	0xbcec5221	-0.028847756
245	0x3d4305ab	0.047612827
246	0xbd926102	-0.07147409
247	0x3e80821c	0.25099266
248	0x3f4ac0b5	0.792003
249	0xbe2dd1ee	-0.16974613
250	0x3f4a125d	0.7893427
251	0xbe957b27	-0.2919552
252	0x3e27ef66	0.16399917
253	0x3e9ac1c6	0.30225962
254	0xbeaf7df6	-0.34275788
255	0xbcb07fe2	-0.021545354

gc3.weight f4 [32, 16]
0	0x3e4c531c	0.19953579
1	0x3e6a9482	0.22908214
2	0x3e133b90	0.1437819
3	0x3dd4d6b8	0.10392517
4	0xbe759985	-0.23984344
5	0xbe56965a	-0.20955792
6	0xbebe1e0a	-0.37132293
7	0x3db78864	0.08961561
8	0x3dcea655	0.10090319
9	0xbed157fa	-0.40887433
10	0x3d9d03b2	0.076667204
11	0x3d369ce2	0.04458321
12	0xbdbbce0d	-0.091701604
13	0xbd70bb7b	-0.058772545
14	0xbecca1db	-0.39967236
15	0xbe72e884	-0.2372151
16	0xbdcd1ec0	-0.10015631
17	0xbe0b4b10	-0.13602853
18	0x3d20d020	0.039260983
19	0xbe8cbfa7	-0.2748997
20	0x3ea55af3	0.3229595
21	0xbdf2c738	-0.11854404
22	0xbd708c10	-0.058727324
23	0x3eaa8309	0.33303097
24	0x3e637e72	0.22216204
25	0x3cbd8b70	0.023137778
26	0x3e0b3162	0.13593057
27	0x3da5bc70	0.08092582
28	0x3daf8ac8	0.08571392
29	0xbe9c17f6	-0.3048703
30	0x3e3b6496	0.18300089
31	0x3e4a1896	0.19735941
32	0x3e03e953	0.12881975
33	0xbd752d01	-0.059857372
34	0x3e1ad4cd	0.1512024
35	0xbe657a55	-0.22409947
36	0xbebf8e1a	-0.37413102
37	0xbe84d1b0	-0.2594123
38	0xbe2bab1e	-0.16764495
39	0x3e27b86e	0.16378948
40	0x3c709fe0	0.014686555
41	0xbeb205aa	-0.34769946
42	0xbe28a747	-0.16470061
43	0xbc972fd7	-0.018455429
44	0xbca70b8e	-0.020391252
45	0xbe3cfd65	-0.18456037
46	0x3e5ee43c	0.21766752
47	0xbe67091d	-0.2256207
48	0xbe818a17	-0.25300667
49	0xbc873bb9	-0.01650797
50	0xbed7134b	-0.42006907
51	0x3d6b890b	0.05750374
52	0xbf0d043b	-0.5508458
53	0xbde78e06	-0.11306386
54	0x3ba84c18	0.005136024
55	0xbef733ac	-0.4828161
56	0xbe4b4ca9	-0.19853462
57	0x3e183033	0.14862137
58	0xbeb88c90	-0.3604474
59	0xbeb1c54c	-0.34720838
60	0x3df6d16d	0.120516635
61	0xbebdb0d0	-0.3704896
62	0xbe4a618c	-0.19763774
63	0xbe4ec971	-0.20194031
64	0xbe8c4fde	-0.27404684
65	0xbe6a6b75	-0.22892554
66	0xbcbf584e	-0.023357537
67	0xbe2fdec3	-0.1717482
68	0xbe4c8beb	-0.1997525
69	0x3e166831	0.14688183
70	0xbee2ca27	-0.44294855
71	0x3d200cf3	0.03907485
72	0xbd46e8df	-0.048561927
73	0xbd7a0cc0	-0.061047316
74	0x3cf0ea06	0.029408466
75	0xbe8e4c15	-0.2779242
76	0x3e0ed250	0.13947415
77	0xbc0d600f	-0.008628859
78	0xbd946933	-0.07246628
79	0xbbd26927	-0.0064212265
80	0xbe2d67b8	-0.16934097
81	0xbee2c6e6	-0.44292372
82	0xbd80dc45	-0.06292013
83	0x3e0b8ea1	0.13628627
84	0x3cb830b5	0.022484163
85	0xbd41b712	-0.04729373
86	0x3c4f7c89	0.012663969
87	0x3e2796f1	0.16366173
88	0xbda180bd	-0.07885883
89	0xbeb66363	-0.356227
90	0xbd8bce35	-0.0682644
91	0x3d17a0ff	0.037018772
92	0x3db28c2f	0.08718144
93	0xbf18e219	-0.5972
94	0x3db10d7e	0.086451516
95	0xbc6f6d8f	-0.014613523
96	0xbe76bf92	-0.24096516
97	0x3e065c2f	0.13121103
98	0xbeb21a7e	-0.34785837
99	0xbe176ff6	-0.14788803
100	0x3e95a164	0.29224694
101	0x3dc2a177	0.09503453
102	0xbe49fb1b	-0.19724695
103	0xbde74a0d	-0.11293421
104	0xbebba8f4	-0.36652339
105	0x3d7a2436	0.06106969
106	0xbe80a356	-0.25124615
107	0x3e4901cb	0.1962959
108	0x3d834ed1	0.064115174
109	0xbf0304d8	-0.51179266
110	0x3c581d6d	0.013190609
111	0xbe9f9dc1	-0.31175044
112	0xbe814739	-0.2524965
113	0x3e20bbfb	0.15696709
114	0x3e847597	0.25870964
115	0x3dfef877	0.12449735
116	0xbf032c05	-0.51239043
117	0x3e15538c	0.14582652
118	0x3c8da601	0.01729107
119	0xbf2292fa	-0.6350552
120	0x3d4d7997	0.050164785
121	0xbcb337eb	-0.02187725
122	0xbd9bf28c	-0.076146215
123	0xbe6cfe30	-0.2314384
124	0xbd570daa	-0.052503265
125	0xbe916e20	-0.2840433
126	0x3e2b0999	0.1670288
127	0xbe922fbe	-0.2855205
128	0xbeca4d0a	-0.395119
129	0x3c81f623	0.015864437
130	0xbeb8ffa9	-0.36132553
131	0x3c830e4e	0.015998032
132	0x3e93f44c	0.2889732
133	0xbde57c6b	-0.112053715
134	0x3de0cdda	0.10976763
135	0xbe809509	-0.25113705
136	0xbecceaed	-0.40022984
137	0xbe6ac742	-0.22927573
138	0xbe219201	-0.15778352
139	0xbe01a70f	-0.12661384
140	0xbd27370a	-0.040823974
141	0xbf467ba9	-0.7753244
142	0x3e71b539	0.23604287
143	0xbe920951	-0.28522733
144	0x3e29afd1	0.16570975
145	0xbd82434b	-0.06360491
146	0xbdcf4fa2	-0.10122611
147	0x3e2c0f22	0.16802648
148	0xbe955ec9	-0.29173878
149	0xbe01b7ad	-0.12667723
150	0xbe16bcb7	-0.14720426
151	0xbea7d63e	-0.3278064
152	0x3cacfcf0	0.021116704
153	0xbee1b463	-0.44082937
154	0xbe7d822f	-0.24756692
155	0xbd79a577	-0.060948815
156	0xbecafc80	-0.39645767
157	0xbef16630	-0.47148275
158	0xbda0d62c	-0.0785335
159	0xbec4a20d	-0.38404885
160	0xbe341157	-0.1758474
161	0x3aff5ca2	0.0019482563
162	0xbe77e85e	-0.24209735
163	0x3cc5b5f2	0.02413461
164	0xbf12d683	-0.5735857
165	0xbe73c736	-0.23806462
166	0xbe9ac4ae	-0.3022818
167	0xbedaee1a	-0.42759782
168	0xbec96dcd	-0.39341584
169	0x3dd6fc35	0.104973234
170	0xbee41d3b	-0.4455355
171	0x3cf277cb	0.029598137
172	0xbee27512	-0.44229943
173	0xbeda8b97	-0.42684624
174	0xbe6ff277	-0.23432337
175	0xbd5a33d5	-0.053272087
176	0x3d3a238a	0.04544405
177	0xbe69c6bf	-0.22829722
178	0xbdd6e1f2	-0.104923144
179	0x3dee6624	0.116405755
180	0x3d1c5c48	0.038173944
181	0xbe5a42c2	-0.21314529
182	0xbe0ae8c6	-0.13565359
183	0x3ddb1696	0.10697667
184	0xbe4fc891	-0.20291354
185	0xbdea2220	-0.1143229
186	0x3e030698	0.12795484
187	0xbee3194a	-0.44355232
188	0xbcda5a0e	-0.02665427
189	0x3c020cb4	0.007937599
190	0x3ded1ce6	0.115777776
191	0xbea750f6	-0.32678956
192	0xbea3b1a9	-0.3197148
193	0x3d4884df	0.04895484
194	0xbea511c3	-0.32240114
195	0xbe454020	-0.19262743
196	0xbe51c838	-0.20486534
197	0xbe1b4064	-0.15161282
198	0xbe139e8d	-0.14415951
199	0xbe24b436	-0.1608437
200	0xbc8cb983	-0.017178303
201	0xbe53d3ab	-0.20686214
202	0xbef75eed	-0.4831461
203	0xbeadd3a9	-0.33950546
204	0xbd374235	-0.044740874
205	0xbede4afb	-0.4341658
206	0xbea30d12	-0.3184591
207	0x3dc62e75	0.0967683
208	0xbd1e62eb	-0.038668554
209	0xbdec93aa	-0.11551602
210	0xbec2b242	-0.38026625
211	0xbe627cc8	-0.22117913
212	0xbd247f9c	-0.04016076
213	0xbe92ca33	-0.2866989
214	0xbeee0e26	-0.4649517
215	0xbedb162d	-0.42790356
216	0x3e37c29b	0.1794533
217	0xbe9f27e8	-0.31085134
218	0x3da8b3f0	0.08237445
219	0x3e0197dd	0.12655587
220	0xbe9c029f	-0.3047075
221	0xbd832ef9	-0.06405444
222	0x3e85a6f6	0.26103944
223	0xbd3bf2a1	-0.045885686
224	0x3b98a96a	0.0046588676
225	0x3e0a78fe	0.13522717
226	0x3e2bb50b	0.16768281
227	0x3dd0e814	0.102005154
228	0xbeee09d5	-0.46491876
229	0x3d4cd0ef	0.050003942
230	0xbdb184e2	-0.086679235
231	0xbebf3647	-0.37346098
232	0xbee68cad	-0.45029202
233	0x3de204cf	0.110360734
234	0xbe0c0225	-0.13672693
235	0x3d597721	0.053092126
236	0xbee043f3	-0.4380184
237	0xbeaa0284	-0.33205044
238	0x3d13869b	0.03601704
239	0xbe3af6bb	-0.18258183
240	0xbea4beb0	-0.32176733
241	0xbed8aff5	-0.42321745
242	0xbeb440a4	-0.35205567
243	0xbebc6631	-0.36796716
244	0xbe5681e6	-0.2094799
245	0xbe8b5f63	-0.27221212
246	0x3e0a3e29	0.13500275
247	0xbc47cb36	-0.012194445
248	0xbe03b3a8	-0.12861502
249	0xbec93ceb	-0.3930429
250	0xbd95867e	-0.07301043
251	0xbec39b3c	-0.38204372
252	0xbd9548da	-0.07289286
253	0xbeb25d0b	-0.3483661
254	0xbe0a7622	-0.13521627
255	0x3d466d14	0.04844387
