Protection/model/AVAE_tree.pt (torch_old, 5535 bytes, 3 tensors)

gc1.weight f4 [6, 32]
000000 bf 91 f7 3d cd 8c 71 3e 75 0f bf be 60 3b 23 bd
       0.12088346 0.23588867 -0.3731648 -0.039851546
000010 d7 ed 11 3f c9 15 20 bd a0 bf 98 3e 8e 25 6b 3e
       0.5700354 -0.039083276 0.29833698 0.22963545
000020 b6 91 5f 3d 0c 47 13 3e 82 21 06 3f db 6a 1e bd
       0.05458232 0.14382571 0.5239488 -0.038676124
000030 09 e4 63 be 78 89 4a be 79 53 93 3e 0c 7a 36 be
       -0.22254957 -0.19779003 0.28774622 -0.17819995
000040 70 cd 03 bf a7 c8 9f 3e 92 30 93 3b c8 33 61 bd
       -0.5148535 0.31207773 0.004491874 -0.054981023
000050 33 14 49 3e 60 71 52 bd d5 34 95 3e ea 27 4d be
       0.19636612 -0.051377654 0.2914187 -0.20034757
000060 22 14 21 be 51 58 96 3e 1d cc f3 bd eb 53 6d 3e
       -0.15730336 0.29364255 -0.11904166 0.23176543
000070 04 95 22 bf c1 b3 a2 be 36 ac a4 3d 9c 05 64 3e
       -0.6350863 -0.31777766 0.08040659 0.22267765
000080 3e ef 12 3f d0 d4 97 be 33 37 75 be 76 2a 4e 3e
       0.57396305 -0.2965455 -0.23946838 0.20133385
000090 29 07 5d be 34 ac 1d 3e c5 e4 f7 3e 11 84 f7 be
       -0.21584763 0.15397722 0.48416725 -0.48342946
0000a0 f5 42 c2 be 59 6a 79 be 0b 0a b3 3d 93 b7 38 3e
       -0.3794171 -0.24356975 0.0874215 0.18038778
0000b0 09 4c 55 be 2a 57 78 be 48 b7 87 3e 3c 2a 58 3d
       -0.20829786 -0.24252 0.2650702 0.052774653
0000c0 5b 7b fa 3e b1 62 93 be 33 d0 bf be 3e 5f 5d be
       0.48922238 -0.28786233 -0.3746353 -0.21618363
0000d0 9c 23 25 3e 26 ca 3e 3e 19 60 3c be 98 39 c4 be
       0.16126865 0.18631801 -0.18396033 -0.3832519
0000e0 5c 02 ba bd 9c ba ad bd f0 b4 19 3f 42 cd 1e 3e
       -0.09082481 -0.084828585 0.60041714 0.15507987
0000f0 d1 61 ee 3e bf cf bf 3d 46 3c 25 be f1 f4 af be
       0.46559003 0.09365796 -0.16136274 -0.34366563
000100 c5 20 55 be 9c 63 da 3d 85 a0 6d bd 58 ce e9 bd
       -0.20813282 0.1066353 -0.05801441 -0.1141631
000110 dc 60 ea 3e ab 99 e9 3d 3a 8d 86 3e da 3b 4f 3e
       0.45777023 0.11406263 0.26279622 0.20237675
000120 28 f8 8a 3e 33 9d e3 3e 80 dc 7f be 52 c7 ce be
       0.27142453 0.4445587 -0.24986458 -0.40386444
000130 24 5b 7e 3e e4 5c 8a 3e 9d 73 98 bd ed f9 c1 bd
       0.24839455 0.27023995 -0.074439265 -0.09471498
000140 5a d2 04 bf 27 56 b6 be 5b 1b a0 be c0 4c fd bd
       -0.5188347 -0.35612604 -0.3127087 -0.123681545
000150 09 49 40 be 7c 62 9c be b1 bc dc 3d 20 d1 2c 3d
       -0.1877786 -0.30543888 0.107781775 0.042191625
000160 09 d1 ca 3e 94 33 10 3f 6e e6 08 3f 4d 6e a8 be
       0.39612606 0.563287 0.5347661 -0.32896653
000170 1b 2d 31 3e f2 62 25 3c c8 77 00 3e 0b 24 3f bf
       0.17302363 0.010094391 0.12545693 -0.7466437
000180 60 0d c3 3e 67 fd b8 3e 6e 6a 1b 3e ba 38 71 be
       0.38096142 0.3613083 0.15177318 -0.23556796
000190 b7 b0 a7 bb 36 bd 8a 3e 13 e1 98 be 45 de 84 3e
       -0.0051175016 0.2709748 -0.29859218 0.25950828
0001a0 fb d2 d6 3d 4d 5d c3 be 86 d1 1a 3f 49 c6 c9 bd
       0.1048946 -0.3815712 0.6047596 -0.09852273
0001b0 cc d8 0c be 41 4e 1c be d9 af be be 60 25 5c be
       -0.13754576 -0.15264226 -0.37243536 -0.21498632
0001c0 55 f2 1d 3f a0 d2 a7 be c2 7b ac be a7 0a 69 be
       0.61697894 -0.32777882 -0.3368817 -0.2275797
0001d0 ae b2 ee 3c 53 07 5d be f8 e8 69 3d d0 01 ab 3d
       0.029137935 -0.21584825 0.057106942 0.08349955
0001e0 29 72 15 3e fc 6b 78 3e 61 e4 ab bd dc bb 54 3e
       0.1459433 0.24259943 -0.08393169 0.20774788
0001f0 b7 27 35 3f 1c 44 c6 be 74 02 8e be bb 5e 34 bd
       0.70763725 -0.38723838 -0.27736247 -0.044035655
000200 e7 3c 09 3e b6 9c e3 3e f7 24 4a bd eb 21 81 be
       0.13402139 0.44455498 -0.04935166 -0.2522119
000210 95 c9 8c 3e 90 b3 56 3e 03 73 dc 3d b7 d6 95 3e
       0.27497545 0.20966935 0.10764124 0.29265377
000220 4a 6e 8f 3d 2a bb bc 3e 75 15 9d be a5 97 18 3e
       0.07003458 0.36861545 -0.30680433 0.14901598
000230 32 f6 00 3f 04 f2 7c 3d 4a 3b f5 3d 13 4c 00 3d
       0.50375664 0.06175424 0.11974199 0.03132255
000240 f1 9f af be 19 cf 8e be 5d a6 54 be 2c 0b c7 bd
       -0.34301713 -0.27892378 -0.20766588 -0.09718928
000250 38 e0 df be df af 9d be 06 8f 7f be 55 cf 21 be
       -0.43725753 -0.30798241 -0.24956903 -0.15801747
000260 93 43 4c 3e a8 3f 11 3c fc be fa bc 85 dc 99 3e
       0.19947653 0.0088652745 -0.030608647 0.30051056
000270 1c a1 80 be e7 7a 67 3e dd 2e 79 3d 37 c2 25 3f
       -0.25122917 0.22605477 0.060835708 0.64749473
000280 6b f6 08 3e 67 9e 29 3d 62 35 9f be df b0 c1 be
       0.13375251 0.04141083 -0.31095415 -0.37830254
000290 f2 9a 10 3f 49 95 70 3e 24 6f 25 bb 0e a8 f4 be
       0.5648643 0.23494448 -0.0025243247 -0.47784466
0002a0 50 20 53 be 08 68 95 be 45 a8 5a 3d ed ca b9 3e
       -0.20617795 -0.29180932 0.05338313 0.36287633
0002b0 99 37 96 3e 35 62 6c bd ba 09 50 3e c0 b4 d3 bd
       0.29339293 -0.057710845 0.2031621 -0.1033721
0002c0 90 0b ad 3e 9c e5 5b be 15 a9 ae 3d f7 42 9b be
       0.33797884 -0.21474308 0.085283436 -0.30324528
0002d0 22 de 8f be 61 71 17 be 65 af 53 3e 6b 4a ab be
       -0.2809916 -0.14789344 0.20672376 -0.33455214
0002e0 ee e2 0d 3f c2 85 0d bd d3 5a 27 3e 29 84 da 3c
       0.5542439 -0.03455139 0.1634324 0.026674347
0002f0 8c 3f 92 be cf 80 a0 be 11 ec ad be a5 e0 a8 3e
       -0.28564107 -0.31348273 -0.33969167 0.3298389

gc2.weight f4 [32, 16]
000000 4e 5c df 3d bc b5 98 be c0 b3 0c bf 11 75 42 3e
       0.109062776 -0.29826152 -0.54961777 0.1898997
000010 65 7f 85 bd 7f ec 19 3e 13 b4 f8 bc b8 1c a4 3d
       -0.06518439 0.15031622 -0.030359304 0.0801329
000020 5f fc 84 3e 60 73 3f 3f b0 64 38 3e 5c ab 5e be
       0.25973794 0.74785423 0.18007159 -0.21745056
000030 90 a9 08 bf 83 fa 79 3e ed 6d 65 be c6 c4 d0 be
       -0.5338373 0.24411969 -0.22405215 -0.40775126
000040 71 03 94 3e f6 46 3a 3e be e4 d6 be 54 f8 ed be
       0.28908876 0.18191132 -0.4197139 -0.46478522
000050 63 a6 83 be 68 da 08 be 88 b7 02 3e 7e d4 ec be
       -0.2571288 -0.13364565 0.12765324 -0.4625587
000060 58 c7 97 bd c4 4f 52 be ab 36 fa 3d a9 0f b4 3e
       -0.07411069 -0.2053824 0.12217458 0.35168198
000070 54 66 99 3e de 97 70 3e 7a 21 99 3d 90 df c4 bd
       0.29960883 0.23495433 0.07477088 -0.09612954
000080 d1 34 eb 3c 60 3d df 3c ef c6 82 bd 9e 5d ff bd
       0.028711708 0.027250946 -0.063856 -0.12469028
000090 74 ce 8e 3e 0b ea 43 bc 6e 43 c6 be 86 43 cc 3c
       0.27891886 -0.011957656 -0.3872332 0.024934541
0000a0 f0 3a a4 bd 87 9c 04 bd 1c 74 d6 3e 75 ba 11 be
       -0.08019054 -0.03237584 0.4188546 -0.14231284
0000b0 0d d7 b5 3e 2b 8c 39 3e 2a 8e 18 3c c5 d8 1a be
       0.35515633 0.18119876 0.009311238 -0.15121754
0000c0 ec b6 06 be bd 0f 91 3e 72 59 66 be e8 c4 86 3d
       -0.13155717 0.2833232 -0.22495058 0.06580526
0000d0 d1 ae 60 be de 17 04 be 1c 4c a8 3d 5e 20 aa be
       -0.21941687 -0.1289973 0.08217642 -0.3322782
0000e0 60 0c e3 bc 7a a9 91 be b6 2a 7c 3e 97 71 9f 3e
       -0.027715862 -0.28449613 0.24625668 0.3114135
0000f0 b9 45 b0 3e 40 2b 9b bc 13 12 82 3e ea fc fe bd
       0.34428194 -0.018941522 0.25404415 -0.12450583
000100 d6 91 21 be fb 2b 07 be d4 60 60 3e 0d 62 26 be
       -0.15778288 -0.13200371 0.21911937 -0.16248341
000110 fb c6 71 be 71 05 24 bc 4c a9 3c 3e 39 ff 42 3e
       -0.23611061 -0.010011063 0.18423957 0.19042672
000120 86 05 dc be 1a b2 65 be f9 d1 2c be a3 f0 5c bc
       -0.42972964 -0.22431222 -0.16876973 -0.013485107
000130 07 20 6a 3d f2 b0 ae 3d f3 5f 71 bd f7 63 00 be
       0.05715945 0.085298434 -0.058929395 -0.12538134
000140 25 9e 3d 3e c0 e5 e7 3d 43 7d bf 3d 54 7d ff 3c
       0.18517359 0.11323118 0.09350064 0.03118769
000150 08 5a 6c be e0 22 86 be dd c1 bf 3e 37 bf a1 3d
       -0.23081219 -0.26198483 0.37452593 0.078977995
000160 86 ca 86 be aa 20 9f 3d 99 bc 94 be 6c 68 ac be
       -0.26326388 0.07769902 -0.2905014 -0.33673418
000170 85 c8 e5 bd 65 12 af be 5a e0 30 bc b2 40 1f 3e
       -0.11219887 -0.3419372 -0.010795677 0.15552023
000180 c2 14 81 be 3d 31 ed be b3 2c 81 bd ac 6b 8c 3e
       -0.2521115 -0.46326628 -0.06307354 0.27425897
000190 4f 24 ca 3e c3 c1 b1 3e 9e da 16 bf c0 d3 6c 3e
       0.39480826 0.3471814 -0.58927333 0.23127651
0001a0 b4 d0 0e bf 2b 86 4e be 06 ef 94 3e fa b1 da be
       -0.55787206 -0.20168369 0.2908861 -0.4271391
0001b0 b0 ee 2f bf 9d b7 05 3f 85 43 c6 be c6 d6 9f 3e
       -0.68723583 0.52233297 -0.38723388 0.31218547
0001c0 0a 39 d0 be 8b 98 42 3f 32 49 a4 be d9 4b 60 bf
       -0.40668517 0.7601401 -0.32087094 -0.87615734
0001d0 57 ce 3b be 01 c6 98 be b2 fe 13 bd ce 06 6c bf
       -0.18340431 -0.29838565 -0.03613157 -0.92197883
0001e0 2c 98 d4 3e 52 4d 1d bf e5 9f 03 bd 8e 9f 23 3f
       0.41522348 -0.61446106 -0.03213491 0.63915336
0001f0 b8 f7 c1 3c 04 9c 08 bf 2b 10 46 3e 18 95 19 3f
       0.023677692 -0.5336306 0.19342105 0.59993124
000200 fc 62 bd 3d 45 86 a8 3d 33 2b d4 bd 0e 12 99 3d
       0.092473954 0.08228735 -0.10359802 0.07474147
000210 3e e5 78 3e 01 ba 18 3f b6 48 4c bd 24 5a 51 3c
       0.24306199 0.5965882 -0.04987403 0.012777839
000220 a6 4b 2c 3f d8 69 87 3d 45 95 8f bd bf 01 93 3e
       0.6730293 0.06611985 -0.07010893 0.2871227
000230 65 f8 8b 3c 5b 3f 8f bd 84 06 ac be 54 4c f5 3d
       0.017086217 -0.06994506 -0.3359872 0.11977449
000240 68 7e 99 be 91 e0 65 3f 9c e9 20 3e 5d 9d c5 3e
       -0.29979253 0.89795786 0.15714115 0.3859662
000250 3f a5 28 3f ae da 49 3d 03 b3 ba 3e 54 1e d7 be
       0.65877146 0.049280815 0.364647 -0.42015326
000260 a2 54 69 3f 82 8e fe bc 2a 66 b0 bd 89 20 99 3e
       0.91144764 -0.031073812 -0.08613236 0.29907635
000270 a6 a6 5d 3e 9b 54 14 bf 80 81 2d be 4a df 9d 3d
       0.21645603 -0.579416 -0.16943932 0.07708605
000280 06 4d 20 3e 57 50 d6 3e fc 19 9d be 54 fc c1 be
       0.15654382 0.4185817 -0.30683887 -0.37887824
000290 48 1e af be bb 72 80 3e 68 8c b5 3d 74 99 20 3f
       -0.3420279 0.25087532 0.08864671 0.6273415
0002a0 c4 41 8a 3c 58 58 6a 3e 9e ff 04 3f 71 53 7d 3e
       0.016877063 0.22885263 0.5195254 0.24738862
0002b0 6a 69 82 be 0d 94 ef be ec 1d ca 3e a3 5a 5b 3e
       -0.2547105 -0.4679264 0.39475954 0.21421294
0002c0 7d 12 51 be 9d 98 0b bf df b1 d5 be 72 f9 18 3e
       -0.20417209 -0.54529744 -0.41737267 0.14938906
0002d0 8f 91 b1 3e 7f 8f 28 3f d3 a3 b9 3d 9f b7 85 be
       0.34681365 0.6584396 0.0906445 -0.26116654
0002e0 23 c0 0a 3f e4 64 b0 3e 88 e1 8f 3e 02 d2 de be
       0.5419943 0.34451973 0.28101754 -0.43519598
0002f0 07 a2 f3 3e 83 f0 f0 3e 83 be 85 3e 83 a1 05 bf
       0.47584555 0.47058496 0.2612191 -0.5219957
000300 ca fe 8b 3e 78 9d c6 bc 94 5e eb 3e 8e 48 60 3e
       0.27342826 -0.024245009 0.45970595 0.21902677
000310 86 ba f4 3d 7a d9 90 3d 7d 9a 9b 3e e0 93 3e bf
       0.11949639 0.0707273 0.30391303 -0.7444439
000320 02 c5 90 be f3 b6 a7 be 76 c6 c9 be 07 62 fd be
       -0.28275305 -0.32756767 -0.39409226 -0.4948885
000330 ad 2c 32 3f c9 19 0f 3e e2 2a 62 3e 42 68 39 3e
       0.6959942 0.1397468 0.22086671 0.18106177
000340 21 8c 9d be cd 81 8e 3e e7 88 62 3e 41 3c 82 3e
       -0.30770972 0.27833405 0.22122537 0.25436595
000350 f5 6e 71 3e a2 72 85 3e 02 b5 93 bd 69 b8 d0 be
       0.23577483 0.2606402 -0.07212259 -0.40765694
000360 fd 88 8a bd 9c 35 6a b9 89 71 76 be 6d f5 6d 3e
       -0.0676441 -0.0002233595 -0.24066748 0.23238154
000370 7f 74 64 be b6 3f 0e be ca 02 c2 be 2b ad 69 3e
       -0.22310065 -0.13891491 -0.37892753 0.22819965
000380 d6 bc 02 be 0a 5b 08 bf f6 e8 a0 bd f0 8f 5e be
       -0.12767348 -0.53263915 -0.07856934 -0.21734595
000390 75 82 0b 3e c4 33 7f 3d 2f 65 e4 bd 7c 73 4b be
       0.13623984 0.062305227 -0.11152112 -0.19868273
0003a0 1d d4 b7 be 3e 2b 93 3d 47 cf ed 3c 9f 44 11 be
       -0.35904017 0.07185982 0.029029502 -0.14186333
0003b0 35 22 5d bc e3 09 01 3f 25 ae 61 be 4c e9 cb bc
       -0.013496925 0.5040571 -0.22039087 -0.024891518
0003c0 9a a5 51 be f3 cd 31 3e f8 e2 d3 be df e3 a9 3c
       -0.20473328 0.1736372 -0.413841 0.02073854
0003d0 f0 d9 c8 bc 38 de 18 3e c8 67 4a bd f7 12 d5 be
       -0.024517983 0.1492852 -0.04941538 -0.41616032
0003e0 7c 86 a6 be 6d 46 95 3d d7 b8 3b 3e bd 61 2b 3e
       -0.32524478 0.07288823 0.1833223 0.16736503
0003f0 8e 44 87 be 0b 19 80 be e5 3c 5c 3e a3 e9 9a bd
       -0.2641949 -0.25019106 0.21507604 -0.07564094

gc3.weight f4 [32, 16]
000000 de 69 96 be 20 df d9 be 39 bf 2d 3d 38 b9 c4 bd
       -0.29377645 -0.42553043 0.042418692 -0.0960564
000010 ea 6b 41 be 31 f5 a7 be a8 fe e6 3c c3 42 3f bd
       -0.18888822 -0.32804254 0.028197601 -0.04669453
000020 b7 39 13 bf 33 0d d5 be 6a 2a 0c bf 30 8a 9c be
       -0.5750994 -0.41611633 -0.5475222 -0.3057418
000030 b8 f5 f3 b9 64 cb d9 be 9d 24 3f 3c b1 7a e0 be
       -0.00046531647 -0.42537987 0.011666444 -0.43843606
000040 a4 82 a2 bc 6c f2 b8 bc ea ab 6d be 19 2a 14 be
       -0.019837685 -0.022576533 -0.23210111 -0.14469184
000050 a3 11 98 be 11 b5 e9 bc dc 56 c4 ba eb cf e6 bd
       -0.29700956 -0.028528722 -0.0014979499 -0.11270126
000060 a2 83 9b be bf 38 98 be 40 2e cd be fd 5e 10 3e
       -0.30373865 -0.29730794 -0.40074348 0.14098735
000070 ce 3e f8 3d 86 07 c1 bd 9e ad 87 be 23 64 af be
       0.12121354 -0.09425263 -0.26499647 -0.34256086
000080 e8 a4 fb 3c fc d6 b5 bd e1 cc 4e 3e 21 c0 5f 3d
       0.030718282 -0.08878896 0.20195343 0.054626588
000090 9e 81 f0 3d bb a9 39 be a7 77 77 3e c7 d0 ea be
       0.117434725 -0.18131153 0.24166737 -0.4586241
0000a0 14 b2 74 bc 20 e9 dd be 5a f8 c9 3d a3 73 f8 3d
       -0.014935035 -0.43341923 0.098618224 0.12131431
0000b0 38 d3 3a be ee e0 9d 3e f7 65 8b be 64 62 01 3c
       -0.18244636 0.3083567 -0.2722623 0.007896993
0000c0 a5 77 9c 3e 9d 56 b2 be a1 ba 9f 3e 70 4d 68 3d
       0.30560032 -0.34831706 0.31197074 0.056714475
0000d0 c2 d7 37 be d4 65 c0 3d 8a c7 3c 3e c0 71 51 bd
       -0.17953399 0.09394422 0.18435493 -0.05113387
0000e0 aa a1 0e 3e 47 92 8f be 56 9a 2f 3e b4 7b f3 3d
       0.13928857 -0.28041288 0.17148718 0.11888829
0000f0 32 64 45 3e ee 1c 93 be e5 41 93 3e f4 4e 9d be
       0.19276503 -0.2873301 0.2876121 -0.307243
000100 ac 1d 08 bf b1 31 f1 be 18 eb bb be 58 19 4c be
       -0.53170276 -0.47108224 -0.367028 -0.19931543
000110 74 37 b5 3d f5 7f 3f bd 18 fd 5a bd 4c 25 a6 be
       0.088484675 -0.04675289 -0.053464025 -0.3245033
000120 73 ed 4c be e7 43 fd bd e9 bd 8d be f8 68 ea be
       -0.20012455 -0.12366467 -0.27683952 -0.4578321
000130 93 ed b8 be 57 85 0d bf 44 99 8e be 19 31 24 be
       -0.36118755 -0.55281585 -0.27851307 -0.16034354
000140 e5 2e ad 3c 31 78 5f be a7 89 8e bd 1e ca df be
       0.021140525 -0.21823193 -0.06959849 -0.4370889
000150 2b 48 9d 3c ce 1b e3 be 59 79 ee 3d 7b 4d f1 be
       0.019199451 -0.4435715 0.11644239 -0.47129425
000160 03 80 eb be 89 21 fb bd 26 99 03 bf cb 9d 08 be
       -0.45996103 -0.12262256 -0.5140556 -0.13341443
000170 5c 71 83 be 7f 67 f0 be 72 80 36 be 92 23 c9 be
       -0.25672424 -0.4695396 -0.17822435 -0.3928495
000180 4f 6b 70 be 48 c1 e9 be 87 f5 e7 be b9 d2 0c bf
       -0.23478435 -0.45655274 -0.4530451 -0.5500904
000190 de 6f c6 be 3b 74 7d bd 2c 14 09 3e 6d 01 9e be
       -0.38757223 -0.061878424 0.13386601 -0.30860463
0001a0 90 93 9f be b2 99 83 3d 9a 5d 3d bd ea 61 d9 be
       -0.3116727 0.064257994 -0.046231844 -0.42457515
0001b0 f1 56 ae bd ee 32 07 3e 4c e9 58 be 45 e0 c2 be
       -0.085126765 0.13203022 -0.21182746 -0.3806173
0001c0 32 5c 05 be 39 02 fa 3d b5 db 34 be a0 ee 0e bf
       -0.13023451 0.12207455 -0.17661937 -0.5583286
0001d0 78 fc 26 bd 34 ea ed 3d 39 d8 2b 3e c3 c5 f0 3b
       -0.040768117 0.11616936 0.16781701 0.007347794
0001e0 4a a9 cd be 65 a0 16 3e 85 bf ac bd 45 2e 9c be
       -0.4016822 0.14709623 -0.08434967 -0.3050405
0001f0 af ec c5 be 12 2f a7 be 5c 72 cb bd 56 e6 a6 be
       -0.38657138 -0.326531 -0.09933922 -0.32597607
000200 52 50 f3 be e6 75 42 be f5 9a e9 be bc 21 12 3d
       -0.47522217 -0.18990287 -0.45626035 0.035676703
000210 29 5d 71 3d d2 a8 ec 3d 93 f2 19 be 76 d7 b2 bd
       0.058926735 0.115556374 -0.15033941 -0.08732502
000220 70 82 71 bd 39 9a a4 bd 1a 62 01 3e f1 cd cf be
       -0.058962286 -0.08037228 0.12635079 -0.40586808
000230 a0 48 2a bd eb 9e b1 be 9a 41 8a bd 2c 99 4c 3d
       -0.041573167 -0.34691557 -0.06750794 0.049950764
000240 2d c4 d1 bd 3c 18 e5 3b c3 80 b5 be 44 d7 09 3d
       -0.10242496 0.0069914144 -0.354498 0.03365256
000250 f9 8a fd be 89 29 0e be 5b 3a d4 bc 5c 6d 66 3e
       -0.4952009 -0.13883032 -0.025906732 0.22502655
000260 d8 4c 34 3e 4a 06 a2 3d 4d 2e 2b 3d 5c 75 df bd
       0.17607439 0.07911356 0.041792203 -0.109110564
000270 76 5e 0a be f3 b9 ad 3d 28 43 b1 be fa 67 12 3e
       -0.13512596 0.084827326 -0.3462155 0.14297476
000280 54 40 00 bf 8b 1d 00 bf 1f 72 1e 3d 98 a5 b4 be
       -0.50098157 -0.5004508 0.038683053 -0.35282588
000290 49 19 d1 3d 0a 9f 80 be c3 8c 8d be a1 0a 08 be
       0.10209901 -0.25121337 -0.27646455 -0.13285305
0002a0 41 ee a1 be bf 8f ea be d8 ab 16 be 0c 41 7e be
       -0.31627086 -0.45812795 -0.1471399 -0.24829501
0002b0 b8 a2 b6 be 5d 81 5f be 9d 1f 2b 3c 93 24 07 3e
       -0.3567102 -0.21826692 0.010444549 0.13197546
0002c0 87 d0 c4 bd f4 24 cc be 24 74 3d 3e 0f 4b e6 be
       -0.09610086 -0.39871943 0.18501335 -0.4497914
0002d0 bd 9c 38 be ce 12 51 3e be e7 98 be 7a 0a 6c 3e
       -0.18028541 0.2041733 -0.29864305 0.23050871
0002e0 fe 14 89 be f3 d7 fc be 8b d5 3b be ec f0 d3 bd
       -0.26773828 -0.49383506 -0.18343179 -0.103486866
0002f0 5d b8 a2 bd 6c c0 a1 be 6a 0a d2 be 67 60 2a be
       -0.07945321 -0.3159212 -0.4102357 -0.16638337
000300 fb 40 c5 be 89 85 0c be 43 f5 5b bc 71 39 a3 be
       -0.3852614 -0.13722815 -0.013425174 -0.31879762
000310 fe 78 9b bd b3 79 0a be ae f4 05 bf 73 13 df 3d
       -0.07591437 -0.13522987 -0.52326477 0.108923815
000320 7e ef 8c be c5 b5 b4 be 32 6c 45 bd ee e1 89 bd
       -0.27526468 -0.3529493 -0.048198886 -0.06732546
000330 8f 31 db be b0 63 a3 bd 3b 8d 64 3e b5 72 fb bd
       -0.42811248 -0.07977998 0.223195 -0.12277738
000340 94 35 fa bd 16 36 73 bd 48 35 1d 3e df 5b 33 3e
       -0.122172505 -0.059377752 0.15352356 0.17515515
000350 2b 1c 9e bd e1 d8 87 3b 76 fb 75 be e0 a4 2f be
       -0.07720216 0.004145727 -0.24021706 -0.17152739
000360 f0 9f 75 bc f0 47 36 3e 0c 29 92 be 68 e3 b9 be
       -0.014991745 0.1780088 -0.2854694 -0.3630631
000370 7b a1 5e 3e 46 7a 9c 3d 85 b3 f6 3d 8f 4d 8c bd
       0.21741287 0.07640509 0.120459594 -0.06850731
000380 4c 96 d6 3d d1 99 e2 bd 30 ee 32 be 0e 85 84 be
       0.104778856 -0.110644944 -0.17473674 -0.25882763
000390 6a c8 9a be 2f 3b 8c 3d 89 34 1d 3d 76 36 82 bd
       -0.3023103 0.06847226 0.03838018 -0.06358044
0003a0 f9 22 43 bd 9b 3b 3b be 99 57 dc 3d 82 85 00 bf
       -0.047640774 -0.18284456 0.107588954 -0.50203717
0003b0 96 bd 92 3d 3b 58 ea be e9 3d ab be ed 16 e1 be
       0.07165067 -0.4577044 -0.3344567 -0.43962803
0003c0 be 8b d1 3b 79 68 98 3d 8a f0 0f 3e fc 81 10 3e
       0.0063948324 0.074418016 0.14056602 0.14112085
0003d0 a6 5d 35 be b5 dc b4 be 83 28 bb be 59 53 7b 3d
       -0.17711505 -0.35324636 -0.36554345 0.061358783
0003e0 21 cd 03 be bf cd 88 bd 84 56 25 3e da bc dd 3d
       -0.12871219 -0.06679868 0.16146284 0.10827036
0003f0 26 19 8d 3e a2 4d e7 bb 59 52 7d be ca ce eb bc
       0.2755825 -0.007058815 -0.24738444 -0.028785128
