Protection/model/GAT_btc.pt (torch_old, 3984 bytes, 4 tensors)

gc1.W f4 [6, 32]
00000000: b702 173e e769 cebe 8010 623e 45b3 2e3e
00000010: 70fa e33e 54a6 e7be fc48 1abe 5672 9b3e
00000020: 1968 01be f604 093f 32be 2c3e 7f31 cebe
00000030: 0d9c 4ebe 33e4 27bc ec39 a7be 27b4 47be
00000040: 468f 68be 200f f9be 6116 08bf 2a47 76be
00000050: 6585 863e a6d6 383f 6eef 1abf ca9d c43d
00000060: f97c 02bf a55f 1fbf 7b23 343e efa3 04be
00000070: b5bf 003f eecc be3e 515b 333e f9b4 cf3e
00000080: 441d f23d 39ab 023f 8ef7 adbe d231 15bf
00000090: 7127 3ebe df05 733d 9873 d9be cec1 1ebe
000000a0: 2c8b 05bf 23c8 1d3f 2b47 d0be fc80 77be
000000b0: 4033 0d3f 062f bfbe ec9c 17bf 9c8c c73e
000000c0: c3c0 d63e c628 a5bc 81eb de3e 43da 5a3d
000000d0: ab7d dc3e 0bb7 c2be de2f 94be 93ad ae3d
000000e0: 06e8 0d3e 1d24 c8be 9685 aebe 52c9 86bc
000000f0: 6a4c d43e ad6e dfbe 893d 72be b2d2 cebe
00000100: b5b3 5ebe 39a2 ab3d 2fa7 f63d 32b9 0a3e
00000110: 09c1 aa3e e067 98bb a4d5 923d 2c3d 2fbf
00000120: 62e2 bfbe 8999 8ebe dd62 91bc 8e66 e5be
00000130: e528 23bd 3025 89bd 398c bb3e d397 293f
00000140: 2bce fabc e1ae 12bf 04ca 0f3f 8ec9 0e3f
00000150: d167 efbd 788e bcbe 6278 05bf a984 eabd
00000160: d751 2cbe 659b 273f 39b8 59be c8c5 fd3e
00000170: 2b54 11bf 743e 953e 67a0 39bf 744e 083f
00000180: 2770 27be b3c3 1f3f a5a6 18be 5ef9 2d3f
00000190: 7de8 ef3e fd05 4e3e 4726 f33b 710d 5bbd
000001a0: 9e01 abbd 7d9d efbc 8821 58bd 36b3 893e
000001b0: 6c6d b13e 24d2 bbbe 6024 2cbe e97c d8bd
000001c0: a72c efbe c2e0 01be 3842 d9bd b605 0b3f
000001d0: ec01 513d 8393 00bf 3cd4 1a3f a7a2 eebe
000001e0: 6512 89be 3061 fa3d 7103 6abe 0f11 d2be
000001f0: 87f0 143e c3aa ef3e 730d 0d3f b022 e5be
00000200: b997 24bf edd6 bdbe 1a15 1e3d f89c 0abe
00000210: e3fe b7be 9f17 20bf cffc 14bf 72f8 833e
00000220: ab92 f43e 35be 0d3e 0f17 6fbe 2926 3f3f
00000230: 9334 55bf db3e 1d3f a497 a939 2717 4fbe
00000240: b817 3fbe 3d43 343f d666 2c3d 75be 96bc
00000250: 6e89 d2be 58c3 07bf 282e dc3e 4825 0a3f
00000260: b8ea 123f 37aa c3bd 1a6e 643e 0a27 853d
00000270: 6349 ee3e ae73 f8be c113 fa3e 2d97 203f
00000280: 7877 b8be afa5 1d3e 9564 ce3e 18cd 8b3e
00000290: 616a 0bbf 5c4e 093e 7178 b13d cbe6 8cbc
000002a0: dc9c 083f b806 813e 41a3 c23e eefd a5be
000002b0: 5375 633e ad4d 143e 1c60 09bf a94c 803e
000002c0: a55d 113f 3b7a bb3e 8830 aebe 4ea0 23be
000002d0: ee53 81be 26e3 863e 528d 863e e0cb 20be
000002e0: 463a ccbe 5d6f cb3e d23f ea3e 272d f1bd
000002f0: 14d7 d9be 2550 e03e 5a05 b9be 7f3e ffbe
0.1474713 -0.40315172 0.22076607 0.17060573 0.44527006 -0.45244086 -0.15066904 0.3036067
-0.12637366 0.53523195 0.16869429 -0.40272138 -0.20176716 -0.010247278 -0.32661378 -0.19502316
-0.22710904 -0.48644352 -0.5315915 -0.24050584 0.26273647 0.7220253 -0.6052159 0.096004084
-0.50971943 -0.62255317 0.1759166 -0.1295316 0.5029252 0.37265724 0.17515303 0.4056776
0.11821988 0.51042515 -0.33977932 -0.58279145 -0.18569733 0.05933177 -0.42471004 -0.15503618
-0.52165484 0.6163351 -0.40679297 -0.24170297 0.55156326 -0.37340564 -0.5922382 0.38974464
0.4194394 -0.020161044 0.4353905 0.053430807 0.43064627 -0.38030276 -0.2894277 0.085292004
0.13858041 -0.39090052 -0.34086293 -0.016453419 0.4146455 -0.43639126 -0.23656286 -0.40395123
-0.2174824 0.08380551 0.120436065 0.13547209 0.333504 -0.0046510547 0.07169655 -0.68452716
-0.37477404 -0.27851513 -0.017747337 -0.44804806 -0.039833922 -0.06696546 0.3663042 0.6624729
-0.030615887 -0.57298094 0.56167626 0.557763 -0.11689723 -0.36827445 -0.52136815 -0.11451084
-0.16828094 0.6547149 -0.21261682 0.49564958 -0.56769055 0.2914921 -0.7251038 0.5324471
-0.16351376 0.6240799 -0.1490732 0.6795863 0.46857062 0.20119472 0.0074203345 -0.053479616
-0.08349918 -0.029249901 -0.052766353 0.2689454 0.34653795 -0.36683762 -0.16810751 -0.105707
-0.46713755 -0.12683395 -0.10608333 0.5430559 0.051027223 -0.50225085 0.60480094 -0.4660847
-0.26771846 0.12225568 -0.22852875 -0.4102864 0.14544879 0.46809968 0.55098647 -0.44753027
-0.6429401 -0.37078038 0.038594343 -0.13536441 -0.3593665 -0.6253604 -0.58198255 0.25775486
0.4776815 0.1384209 -0.2334864 0.746676 -0.83283347 0.61424035 0.00032347173 -0.20223676
-0.18661392 0.704151 0.04209026 -0.018401364 -0.41120476 -0.53032446 0.43003964 0.53963137
0.573894 -0.0955395 0.22307625 0.06501587 0.46540365 -0.48525757 0.48843196 0.62730676
-0.36028647 0.15395235 0.40311113 0.27304912 -0.54459196 0.13408798 0.086655505 -0.017199894
0.5336435 0.25200438 0.38015178 -0.32420295 0.22212724 0.14482756 -0.53662276 0.25058487
0.56783515 0.36616692 -0.340214 -0.1597912 -0.25259346 0.26345176 0.26279694 -0.15702772
-0.3988821 0.397334 0.45751816 -0.1177619 -0.42546904 0.43811145 -0.36136895 -0.49852368

gc1.a f4 [64, 1]
00000000: 71d2 a6be 6714 573d 8456 103f f477 a73e
00000010: eb07 32be f987 9abe 99c2 14bc a305 da3d
00000020: 1618 983e e028 1b3f ac1e 9fbe a4d1 03bf
00000030: b06f dd3d 7496 4dbe 57e6 f13d 2e5a 82bb
00000040: 9aef 3d3e 17be a43d de0d d63d 276f 8b3e
00000050: c898 93be f452 8cbe dcf9 3bbe 130a c63e
00000060: 6daa 53be 0c3e cb3d e6d3 bb3c d0ed 1ebc
00000070: 2e61 2d3e d4f7 ae3d eb1c 83bc 4044 8f3d
00000080: fa7f ef3e 51f1 f73e 9b54 e73e 5d62 373f
00000090: bd4a f13e f03d 0a3f 5adf 9c3e 02f3 7bbf
000000a0: 646e 49bf e0ad cc3d 2eb9 433f 5603 40bf
000000b0: 900d 433f 5742 28bf 1fbd 9bbe fc9f 5f3f
000000c0: 2be4 173f 8312 5abf 897c fa3e 17a7 3d3f
000000d0: b3a9 433f b49a 0c3f 7c41 bebe 489f 3abf
000000e0: d372 59bf 8b6e cd3e 5133 8dbe 17d1 b33e
000000f0: ceb4 02bf 15cd 763e c176 7cbe c323 babe
-0.3258243 0.05250969 0.5638201 0.32708704 -0.17385833 -0.30181864 -0.009079599 0.10645606
0.29705876 0.60609245 -0.31078088 -0.5149176 0.10812318 -0.20076925 0.11811512 -0.0039780354
0.18548432 0.08044069 0.10451864 0.2723324 -0.288275 -0.27407038 -0.18357033 0.3867956
-0.20670481 0.09923944 0.02292819 -0.009700254 0.16931602 0.08543363 -0.016005 0.069954395
0.46777326 0.48426297 0.45181736 0.71634465 0.47127333 0.5400076 0.30639154 -0.98417675
-0.7868407 0.099941015 0.76454437 -0.7500509 0.7619257 -0.65726227 -0.30417725 0.8735349
0.5933253 -0.85184497 0.48923138 0.74083084 0.76430815 0.5492356 -0.37159336 -0.72899294
-0.8494083 0.401234 -0.27578214 0.3512046 -0.51057136 0.2410167 -0.24654676 -0.3635541

gc2.W f4 [32, 16]
00000000: d33f 19be 2a91 ed3d 4d7c d13e 2d2d 7ebe
00000010: 01af f43e f6d1 4d3e f8cc f63e 27e1 a63d
00000020: e463 af3e 4a25 40be 79b8 d63e ecf4 dcbe
00000030: be21 8f3e de35 463e 90b1 8d3e 178a 633e
00000040: a41c d5bd e30c 32bf 7995 87be 04b0 ba3e
00000050: 7e4f 983e 6e46 dabe eee5 cfbe c6fc 69be
00000060: 7127 bb3e bfb8 09bf d216 06bf da21 8fba
00000070: 3f19 cfbe 94d9 8a3e c56d e2bb 7bdb 44be
00000080: 56d4 35bf ea02 ea3e 4482 b23e 576d 05bf
00000090: e77e 693e c975 93be 5c09 28bf bd10 b2be
000000a0: 3307 dcbe 711d f93e 51ed 82be e2ef 073e
000000b0: cc77 5f3d ec78 5ebe d49e 123f 52a9 d73e
000000c0: a050 d2be 5acf fabe 6715 08be cb4e aabe
000000d0: 710e 05be a0ab 17be efc6 c2be 9960 1c3f
000000e0: 9b8f 11be 202f c33d ad30 dd3d 9a1f dd3e
000000f0: 4c76 bdbe e54e 23bf 124c 693e f4c9 183f
00000100: 699b bebe 1375 ca3e dd74 b2be 657d 203f
00000110: e594 933e 8b2e d7bd 0b32 bd3d 0916 2ebe
00000120: e2e9 25bf 142c 6fbe 5767 543f f1a1 573e
00000130: 0c6e acbe 6194 13bf 63e4 f3be e6c3 fbbe
00000140: 1f47 8f3e 44e3 763d 30ad 13be b2c5 013f
00000150: 32ea 8c3d 8eda eb3e c4fc af3d db41 c4bd
00000160: f282 c73e 4276 a53d 8bc9 3abe 0b4d 703e
00000170: 08dc 183e 1a9f 123e 8a67 2f3e 6b4b 163f
00000180: ad7c d6be 8846 1bbe 6589 e13c 92f6 9e3e
00000190: 9383 8cbe 0b65 e93d 6727 96be 48bf ab3e
000001a0: 3144 c63d 578f 4abd 6259 8a3e 2eab c53e
000001b0: 1ba0 193e 99da 45be 0bba 323e b8eb bc3e
000001c0: f004 ce3e f4bd b3be ecdc 033f df31 06be
000001d0: 670d 013f 6542 cebe 6b80 23be a487 d6be
000001e0: 515d d93e 510e fe3e a52a 603d c95c 1a3e
000001f0: d78b 643d c4d6 0bbe d08e de3c 9753 46bd
00000200: e1d2 cf3e 813f 313e 3ff0 173e cb46 0e3e
00000210: 681d 143f a5f5 6dbe 2450 c63d e7f0 593e
00000220: bc1c c53e 65c0 143f 915a 4ebf 7c8c 053e
00000230: 41ce 523e deae 5c3e e38c 073f 63bf da3e
00000240: dbf5 003f 08b2 093d 658d ac3e 61f5 8cbe
00000250: b925 f6bd edb8 e8be 4ba3 90be 1b55 0abf
00000260: 325c 3d3e eba5 8cbe 6679 073f 401b 16bf
00000270: 9c43 833e 7646 a5be f29a 9e3d cd07 dd3b
00000280: 1e41 6e3e e068 1cbd e4d8 8ebe 410f a9be
00000290: 9c59 283f 5a25 e0bd a7b4 e0be 4d1c b8bd
000002a0: 36e2 da3c 7889 9a3d 131c e33e 5f21 f1be
000002b0: ed0d bdbc 1eca 363e fdd9 15be f6e7 553e
000002c0: 4a5e ec3e 1fe7 87be f9bb d0be ff01 d73e
000002d0: 38bd 3d3e 948e 643d 64e7 c43e 17bb 28bd
000002e0: a83f 64be 750d 8cbe 754a d6be b629 d3bd
000002f0: c009 5abe 44a8 7e3e 6b6a 97bd 6df2 51bd
00000300: 91b2 b13e 0d5c b6be f205 d53d 5632 163f
00000310: 684a 0bbf eab8 e33d 4352 8fbe 7473 c63d
00000320: 8454 31bd fa16 5bbe baf2 903d 50cc b73e
00000330: 53ff 1f3e d997 f93e df2f 51be 8b98 533f
00000340: 00d2 07bf b2d6 ef3e c547 c4be f3d6 eebc
00000350: 77de 7d3e 76d2 efbe 9274 453e 5cc6 423d
00000360: 7bb7 dcbb ac0b d63e 74e8 02bf 8bdc a0bd
00000370: 1b26 c33c 8cfd 073f a7e4 0f3f 96ec e9bd
00000380: e403 603e b5c6 3a3e 9adf d7be 9769 e73e
00000390: 63df 6b3d 5117 6c3d 2ff9 0cbe 4779 d43e
000003a0: 4cb9 fdbe 593f e13e 9ae3 c13e 9a69 2c3d
000003b0: ab10 73be be3b b5bc c342 c23e af56 a43e
000003c0: d96f eebe 99b7 a03e c6b9 abbd 1f0e 993e
000003d0: 0a34 cebe 97a2 193f b117 a83e 144d a23e
000003e0: 24de aa3e bd6b 3a3e a66d 04bf 3dfb 30bd
000003f0: c65e bb3d 54fc e43e e71a e23e 8b5b 31be
-0.14965753 0.115999535 0.40915146 -0.2482192 0.47789767 0.20099625 0.48203254 0.08148413
0.34255898 -0.18764225 0.41937616 -0.4315561 0.2795543 0.19356486 0.27674532 0.22220646
-0.104058534 -0.69550914 -0.26481226 0.36462414 0.29748148 -0.4263186 -0.4060511 -0.22850332
0.3655353 -0.53797525 -0.5237857 -0.0010920123 -0.4044895 0.27119124 -0.006910058 -0.1922435
-0.71027124 0.45705348 0.3486501 -0.52119964 0.22802316 -0.288008 -0.6563928 -0.34778395
-0.42974243 0.48655275 -0.25571683 0.13275102 0.054557607 -0.21725816 0.572736 0.4212137
-0.41077137 -0.48986322 -0.13289414 -0.3326324 -0.1299379 -0.14811563 -0.380424 0.61084896
-0.14214937 0.09530473 0.108003 0.43188173 -0.37004316 -0.6379226 0.22782925 0.59683156
-0.37227944 0.39542446 -0.34854785 0.62691337 0.28824535 -0.10506924 0.092380606 -0.17000593
-0.6481 -0.23356658 0.82970184 0.2105787 -0.3367771 -0.57648283 -0.47635183 -0.49172896
0.2798395 0.06027533 -0.14421535 0.50692284 0.06880607 0.46065181 0.08593133 -0.095828734
0.3896709 0.080791965 -0.18240945 0.2346689 0.14927685 0.14318505 0.17129341 0.5870883
-0.41891995 -0.15163624 0.027531335 0.31047493 -0.27444133 0.113962255 -0.29326937 0.33544374
0.09680975 -0.049453106 0.2702132 0.38607162 0.15002482 -0.1932167 0.17453782 0.3689859
0.40238142 -0.3510586 0.51508975 -0.13104962 0.50411075 -0.4028503 -0.15966956 -0.4190036
0.42454007 0.49620298 0.05472817 0.15074457 0.055797424 -0.13656145 0.027167708 -0.04841956
0.40590575 0.17309381 0.1483774 0.13894193 0.5785737 -0.23238237 0.09683254 0.21283303
0.38498485 0.5810607 -0.80606943 0.13041872 0.20586492 0.21551082 0.5294935 0.4272414
0.50375146 0.03361705 0.33701625 -0.2753096 -0.12018914 -0.45453587 -0.28249583 -0.5403611
0.18492201 -0.27470335 0.52919614 -0.5863533 0.2563752 -0.3228032 0.07744397 0.0067453147
0.23267028 -0.038185954 -0.2789985 -0.3301945 0.65761733 -0.10944624 -0.43887827 -0.08989773
0.026719194 0.07545751 0.44357356 -0.47095773 -0.02307793 0.17850539 -0.14633937 0.20889267
0.46165687 -0.2654352 -0.40768412 0.4199371 0.18529212 0.055800036 0.38457787 -0.041194048
-0.22289908 -0.27354017 -0.4185368 -0.1031069 -0.21292782 0.24868876 -0.073933445 -0.051256586
0.34706548 -0.35617104 0.104015246 0.58670557 -0.5441041 0.11119254 -0.27992448 0.0968999
-0.04329349 -0.21395484 0.070775464 0.35898066 0.15624742 0.48748663 -0.20428418 0.8265464
-0.5305481 0.46843487 -0.38336006 -0.02915523 0.24791895 -0.46840256 0.1928275 0.04755245
-0.0067357398 0.4180578 -0.51135945 -0.07854565 0.023821881 0.53121257 0.5620827 -0.11422078
0.21876484 0.18239863 -0.42162782 0.45197746 0.057586085 0.057639424 -0.13766931 0.41498777
-0.49555433 0.43993643 0.3786896 0.042092897 -0.23736827 -0.022123214 0.3794156 0.32097384
-0.46569708 0.31390074 -0.08385043 0.29893586 -0.40274078 0.6001372 0.32830575 0.3169943
0.33372605 0.18205161 -0.5172981 -0.04320835 0.09148936 0.4472376 0.4416115 -0.17320077

gc2.a f4 [32, 1]
00000000: d840 65be 17da 6abe a724 45bf 2dc4 1abe
00000010: 0054 65bf f7a0 97be a641 fd3d 9439 1bbd
00000020: 91e3 9a3c 3bb0 aa3e 807b 89bf 655a 80be
00000030: cd52 aabe 591b 0ebf ca08 e8be b1f0 c6be
00000040: 8d3b fdbe 4c84 bcbe 0b45 efbe 8efc 203f
00000050: c16e 23bf d4a4 483f bf2d 40bf f950 863f
00000060: b70b 26bf 6368 0abf d63f 073e 62ad 0b3e
00000070: 0523 033f fa4f 733e 1867 17bf 6882 7a3e
-0.22388017 -0.22934757 -0.7700905 -0.15113898 -0.895813 -0.29614994 0.12366037 -0.037896708
0.01890734 0.33337578 -1.0740814 -0.25068966 -0.33266297 -0.5551048 -0.45319206 -0.38855508
-0.49459496 -0.36819685 -0.46732363 0.6288537 -0.6384087 0.7837651 -0.75069803 1.0493461
-0.64861625 -0.5406553 0.13207945 0.13640359 0.5122531 0.23760977 -0.59141684 0.24463809
