Protection/model/GAT_btc_part.pt (torch_old, 3984 bytes, 4 tensors)

gc1.W f4 [6, 32]
-0.43802172 -0.09559017 -0.22938131 -0.29171893 -0.2629406 0.6079027 -0.17441015 0.618052
-0.02988912 0.20044558 -0.5929374 -0.40487966 -0.704711 -0.4132547 0.00096556504 0.47053516
-0.5330883 -0.37179267 0.54406464 -0.19116136 0.26236543 -0.25190237 0.12330227 0.6016586
0.27616993 0.8644309 -0.26680303 0.2424254 0.2847475 0.6684905 0.4115318 0.3706154
-0.30048507 -0.33419472 0.106785394 0.18676543 0.47501284 0.4588561 0.36846834 -0.24864101
-0.044225026 0.211896 0.086056426 0.1458328 0.73683137 -0.15716973 -0.51379275 0.0021413544
0.2584523 0.032318164 0.3482124 -0.079965554 -0.699877 -0.043267507 -0.10736299 -0.27000457
-0.102514125 -0.16476531 -0.0066530006 -0.5688757 -0.15553059 0.7803615 0.3652199 0.16026713
-0.46944708 0.62883556 -0.40488973 0.58409274 -0.20029949 0.07220674 -0.61040634 -0.27231333
0.32674345 0.35961044 -0.26166034 -0.033275872 0.028605107 0.03706511 -0.036014676 -0.18630038
0.21236601 0.30011055 0.19209407 0.3176042 0.5760457 0.30380297 -0.42181513 0.5559962
-0.6146468 -0.43306404 -0.04549997 0.078411244 0.48072225 -0.635875 -0.13800228 -0.62057805
-0.3080833 0.0018697552 -0.5692303 0.48538 0.15658563 0.29084995 0.30997443 0.034565043
-0.5817653 -0.09558703 0.30066603 -0.4088402 0.1916613 0.2541487 -0.044691965 0.36708495
0.29674962 -0.107592754 -0.2537848 -0.4693502 0.31751534 -0.017202584 0.22440703 -0.3439635
0.50175184 -0.3794302 -0.42754602 0.06437602 0.46704897 -0.7909294 0.11124555 0.19527987
-0.41950732 -0.22812538 0.54941887 -0.018720949 -0.22486405 0.15234214 0.032349937 0.53767496
0.2220006 -0.098580964 0.17280227 0.23775586 -0.18873714 -0.3452381 0.3558841 -0.49356112
-0.23122363 -0.013462629 0.09022657 0.31646338 -0.49773148 -0.0017438537 -0.20377895 0.02477459
-0.110470265 0.24550149 -0.32292104 0.026521478 0.4620414 -0.5954711 -0.24058725 0.09911883
0.71181256 0.5006736 0.47449216 -0.3965485 -0.37133616 -0.28913137 0.30150804 -0.39587736
-0.5911168 -0.5677713 0.34749618 0.6631104 -0.25606292 0.65576994 0.43336484 -0.16066217
-0.06736915 0.35960945 -0.47078082 0.45239976 0.6474875 0.06775148 -0.048405603 -0.28666556
0.37504473 0.020813065 -0.17519364 -0.33859587 -0.40364802 0.47290072 -0.2541305 -0.22386207
00000000: 6244 e0be c7c4 c3bd efe2 6abe 2f5c 95be
00000010: 26a0 86be 839f 1b3f 9398 32be a838 1e3f
00000020: 07da f4bc 9b41 4d3e bfca 17bf 634c cfbe
00000030: f167 34bf 1f96 d3be f91d 7d3a fce9 f03e
00000040: 7a78 08bf 9c5b bebe d247 0b3f cebf 43be
00000050: c354 863e 59f9 80be e785 fc3d 4c06 1a3f
00000060: 2566 8d3e 584b 5d3f 689a 88be 5d3e 783e
00000070: 6dca 913e 3222 2b3f 4cb4 d23e 4dc1 bd3e
00000080: 2ed9 99be 921b abbe 4db2 da3d 703f 3f3e
00000090: e234 f33e 30ef ea3e e2a7 bc3e c09b 7ebe
000000a0: 4d25 35bd 44fb 583e 5a3e b03d 3255 153e
000000b0: fba0 3c3f 1af1 20be ec87 03bf f755 0c3b
000000c0: dc53 843e 0d60 043d e548 b23e fbc4 a3bd
000000d0: 242b 33bf 4539 31bd 21e1 dbbd 0a3e 8abe
000000e0: edf2 d1bd 3db8 28be 6a01 dabb d6a1 11bf
000000f0: 6943 1fbe c5c5 473f 1afe ba3e 111d 243e
00000100: 5e5b f0be 5efb 203f b54d cfbe 1a87 153f
00000110: 4f1b 4dbe 21e1 933d 9743 1cbf a76c 8bbe
00000120: eb4a a73e dc1e b83e 58f8 85be 484c 08bd
00000130: 4255 ea3c 96d1 173d 2084 13bd 87c5 3ebe
00000140: 7a76 593e 17a8 993e 4fb4 443e 059d a23e
00000150: bb77 133f 108c 9b3e 27f8 d7be c455 0e3f
00000160: 7e59 1dbf 92ba ddbe 2d5e 3abd 1396 a03d
00000170: 3a21 f63e b4c8 22bf 7850 0dbe 34de 1ebf
00000180: 18bd 9dbe 9312 f53a 14b9 11bf ba83 f83e
00000190: fc57 203e 49ea 943e f8b4 9e3e 1394 0d3d
000001a0: 92ee 14bf 22c3 c3bd e6f0 993e 8153 d1be
000001b0: dc42 443e c71f 823e ec0e 37bd 8ff2 bb3e
000001c0: 91ef 973e 9759 dcbd 15f0 81be ab4e f0be
000001d0: 5f91 a23e 6fec 8cbc f5ca 653e fc1b b0be
000001e0: cf72 003f ad44 c2be 50e7 dabe 93d7 833d
000001f0: 0b21 ef3e 597a 4abf b5d4 e33d 72f7 473e
00000200: aac9 d6be b399 69be b7a6 0c3f ad5c 99bc
00000210: c342 66be 94ff 1b3e 5e81 043d 11a5 093f
00000220: 2054 633e d1e4 c9bd 14f3 303e 4676 733e
00000230: 4f44 41be 0cc3 b0be 7136 b63e 0bb4 fcbe
00000240: e3c5 6cbe 5c92 5cbc b5c8 b83d 7d07 a23e
00000250: a9d6 febe 0592 e4ba 6eab 50be 15f4 ca3c
00000260: 3c3e e2bd be64 7b3e e855 a5be 9243 d93c
00000270: b190 ec3e cb70 18bf 815c 76be d0fe ca3d
00000280: 5939 363f 252c 003f a3f0 f23e 6808 cbbe
00000290: c61f bebe 0709 94be 435f 9a3e 70b0 cabe
000002a0: 6e53 17bf 7659 11bf 05eb b13e 9ac1 293f
000002b0: ae1a 83be 8ae0 273f ffe1 dd3e a084 24be
000002c0: d6f8 89bd bb1e b83e 2f0a f1be f1a0 e73e
000002d0: bec1 253f 4ac1 8a3d f444 46bd d4c5 92be
000002e0: dd05 c03e 2980 aa3c f665 33be 705c adbe
000002f0: f4aa cebe 0b20 f23e 651d 82be 193c 65be

gc1.a f4 [64, 1]
-0.32267827 0.57833666 -0.6620207 -0.006319609 -0.25997332 0.07898116 -0.40394828 0.32842466
0.12481377 0.36956897 0.10750077 -0.14745909 -0.6744375 0.31373993 0.43105996 0.043392792
-0.3309096 -0.034431435 -0.24541871 -0.3926605 0.7563223 0.096239366 0.06552837 0.33084998
0.023046257 0.23078129 0.2594361 0.49326894 0.32779902 -0.3996225 -0.045204643 -0.61829185
0.07404924 -0.88650125 0.50116307 0.16825023 0.557993 -0.29890877 0.47675282 -0.3374097
-0.21944277 -0.41569993 -0.16032317 0.6593566 0.565934 -0.28472078 -0.38705647 -0.1981056
0.2783376 0.029777484 -0.08591974 0.18017203 -0.5522459 0.33803168 0.34724283 -0.3826135
-0.18053703 0.35995084 0.15744844 -0.72123325 0.123720616 0.449496 0.35606545 0.25744945
00000000: 1636 a5be df0d 143f 307a 29bf b914 cfbb
00000010: 391b 85be e0c0 a13d 4fd2 cebe 4727 a83e
00000020: 5d9e ff3d 2538 bd3e 5d29 dc3d 84ff 16be
00000030: f0a7 2cbf 85a2 a03e e4b3 dc3e a4bc 313d
00000040: fc6c a9be fa07 0dbd 0b4f 7bbe cc0a c9be
00000050: 579e 413f 2519 c53d bd33 863d 2b65 a93e
00000060: 81cb bc3c ee51 6c3e cfd4 843e bf8d fc3e
00000070: 46d5 a73e 529b ccbe 8128 39bd 6048 1ebf
00000080: 21a7 973d bff1 62bf 394c 003f ca49 2c3e
00000090: a1d8 0e3f 920a 99be f218 f43e f7c0 acbe
000000a0: 9bb5 60be 9fd6 d4be c22b 24be 98cb 283f
000000b0: 0de1 103f ecc6 91be 442c c6be 32dc 4abe
000000c0: 4482 8e3e e9ef f33c b0f6 afbd 047f 383e
000000d0: fd5f 0dbf 7d12 ad3e d0c9 b13e ebe5 c3be
000000e0: b3de 38be 7a4b b83e 2a3a 213e bea2 38bf
000000f0: 3c61 fd3d 5724 e63e 364e b63e 6ad0 833e

gc2.W f4 [32, 16]
-0.19105817 0.47352147 0.014525179 0.07810982 -0.23018591 0.51342726 0.45840418 0.31198803
-0.17602724 0.10508128 -0.26412234 0.21277514 0.2541437 0.35485283 -0.064751364 -0.3910198
0.4221808 0.47555843 0.38788953 -0.15891719 -0.6069019 -0.76327014 0.47035608 -0.7563191
0.18518278 0.32760042 -1.0932131 -0.31539375 -0.66023 0.60692513 -0.0020723036 0.30359113
-0.16349117 0.10026417 0.02505767 -0.32535636 0.49191308 0.14747456 -0.40382174 -0.69608486
0.350569 0.001985617 1.0296552 0.9382805 -0.29427597 -0.18015276 -0.16429052 0.32177332
0.23939867 -0.012572183 -0.21142662 0.45324406 0.2630356 -0.6203148 -0.22390547 0.29253173
-0.29495364 0.33138314 0.061953016 -0.41415098 -0.21485607 0.28420278 -0.042919014 -0.12298948
-0.08199348 0.0021543603 -0.40763053 -0.2239204 0.26230583 0.14308564 -0.28578827 0.48404267
-0.23025027 0.54903793 0.2032229 0.17805505 -0.2478698 0.3773558 0.31744328 0.07822774
-0.36881083 -0.28084937 -0.38989657 -0.15045531 -0.31936368 0.1752759 0.35807383 -0.18463825
-0.44138193 0.3027227 0.056707017 -0.46087646 0.5492929 -0.39900118 -0.10000843 -0.51946414
-0.34553722 -0.25440082 0.18979958 0.417806 0.02141266 0.6578359 -0.50081044 0.75978684
-0.28283244 -0.29933468 -0.09046626 0.4991588 -0.3963287 -0.2008399 0.28883678 -0.2280179
0.07292849 -0.019447042 0.35587472 0.19220477 0.00060789863 0.060242176 -0.04611346 -0.33303767
-0.13797781 0.5075134 0.613933 0.14727442 0.035759054 -0.39837766 0.08242166 -0.16234793
0.35384735 0.2790311 0.48897198 0.23327656 0.6014064 -0.2966178 0.17037389 -0.32459894
-0.40614527 -0.33366686 0.5420608 -0.4503674 0.23076096 -0.545013 -0.18237296 0.5410053
0.62268114 -0.22934988 -0.056422286 0.192704 0.38865936 -0.61515725 -0.07423097 -0.14164805
0.3616292 -0.4917622 0.36746088 -0.21248649 -0.0953341 -0.18263349 0.42903835 0.12572783
0.30143437 0.0835556 0.012871938 0.14728007 -0.16740073 -0.13854393 0.24697468 0.24392495
-0.43233326 -0.1702177 0.6549626 0.5463701 -0.44725686 0.046475504 -0.42922723 0.09436874
0.062397122 0.082026295 0.5963209 -0.1797887 0.024068853 0.12832119 0.17138329 -0.7204505
0.0007079623 -0.81648654 0.30706972 0.8489422 -0.52497053 0.17221436 -0.50561005 0.55902165
0.36704323 -0.30625334 -0.8274284 -0.30810633 0.47576302 -0.43867692 0.33669245 0.93593794
-0.6813016 0.0715727 0.12922709 0.4240925 0.3335127 0.57571197 0.57333255 0.4679132
-0.35859525 -0.30972642 0.011623764 0.2539246 -0.34279874 -0.07589219 0.13212554 -0.26029214
0.17373545 0.03232986 -0.31776324 -0.062403582 0.14047147 0.49642336 0.090309985 -0.296463
0.3058105 0.6188767 0.2599543 -0.3900914 -0.33381867 0.45982862 -0.32155374 -0.03308035
-0.24031311 -0.015289718 -0.5246556 0.13239577 -0.5856524 -0.56147593 -0.3796722 0.53661704
-0.30999222 -0.19906622 -0.19369487 -0.00934933 -0.18420535 -0.072047904 -0.021416744 0.4545579
0.542237 0.47422403 -0.6416145 0.30052018 -0.1885177 -0.039581917 0.07766211 -0.23953146
00000000: c1a4 43be 6871 f23e 04fb 6d3c 0bf8 9f3d
00000010: dbb5 6bbe f86f 033f f4b3 ea3e e5bc 9f3e
00000020: 7c40 34be db34 d73d 0b3b 87be bae1 593e
00000030: 1f1f 823e 45af b53e 5d9c 84bd bf33 c8be
00000040: 1528 d83e 657c f33e 7599 c63e 30bb 22be
00000050: ec5d 1bbf ac65 43bf 83d2 f03e 219e 41bf
00000060: 8ea0 3d3e 3ebb a73e 68ee 8bbf 4a7b a1be
00000070: d504 29bf 725f 1b3f 7ccf 07bb 4c70 9b3e
00000080: 3b6a 27be 4d57 cd3d be45 cd3c 1c95 a6be
00000090: 08dc fb3e 9203 173e b9c1 cebe 9e32 32bf
000000a0: c87d b33e 2021 023b becb 833f 2733 703f
000000b0: 57ab 96be f779 38be c63b 28be 79bf a43e
000000c0: ed24 753e 8ffb 4dbc 3880 58be 9b0f e83e
000000d0: 9aac 863e f3cc 1ebf 7a47 65be b8c6 953e
000000e0: 2a04 97be 0dab a93e 72c2 7d3d 990b d4be
000000f0: 3b03 5cbe 0783 913e d9cb 2fbd e9e1 fbbd
00000100: 33ec a7bd 2b30 0d3b f3b4 d0be 644b 65be
00000110: f34c 863e 0b85 123e d752 92be 71d4 f73e
00000120: bac6 6bbe c08d 0c3f aa19 503e 1054 363e
00000130: 95d1 7dbe c834 c13e ed87 a23e de35 a03d
00000140: c6d4 bcbe 7dcb 8fbe 86a0 c7be f510 1abe
00000150: a383 a3be 877b 333e 7455 b73e cf11 3dbe
00000160: d0fc e1be 78fe 9a3e 9e45 683d 00f8 ebbe
00000170: 769e 0c3f e249 ccbe 38d1 ccbd 9afb 04bf
00000180: 41ea b0be d340 82be d25a 423e abea d53e
00000190: 9a69 af3c ef67 283f 1d35 00bf 6481 423f
000001a0: 6acf 90be 6542 99be 6046 b9bd be91 ff3e
000001b0: 98eb cabe faa8 4dbe 6ae2 933e 867d 69be
000001c0: 885b 953d 674f 9fbc 3635 b63e 54d1 443e
000001d0: 635b 1f3a 80c0 763d 78e1 3cbd ea83 aabe
000001e0: 0e4a 0dbe 66ec 013f b72a 1d3f 1bcf 163e
000001f0: 1678 123d 28f8 cbbe b0cc a83d 893e 26be
00000200: 7b2b b53e 2add 8e3e 895a fa3e 0de0 6e3e
00000210: c5f5 193f 4ade 97be 7e76 2e3e d531 a6be
00000220: 46f2 cfbe 62d6 aabe 7fc4 0a3f 8e96 e6be
00000230: 9a4c 6c3e f985 0bbf fabf 3abe 537f 0a3f
00000240: 0868 1f3f b2da 6abe 0e1b 67bd 3354 453e
00000250: 5cfe c63e f27a 1dbf 6806 98bd 300c 11be
00000260: 7627 b93e 41c8 fbbe d523 bc3e 0f96 59be
00000270: 863e c3bd 4604 3bbe eaaa db3e ccbe 003e
00000280: 9b55 9a3e 331f ab3d d2e4 523c 96d0 163e
00000290: 196b 2bbe 76de 0dbe eee6 7c3e 76c7 793e
000002a0: c95a ddbe 8c4d 2ebe a1ab 273f e9de 0b3f
000002b0: dafe e4be 195d 3e3d acc3 dbbe 6644 c13d
000002c0: 2094 7f3d 67fd a73d 7da8 183f 871a 38be
000002d0: 0b2c c53c a166 033e 1a7f 2f3e 726f 38bf
000002e0: 8c96 393a 4305 51bf 3e38 9d3e 4754 593f
000002f0: 7864 06bf f658 303e a96f 01bf 0b1c 0f3f
00000300: 17ed bb3e 3dcd 9cbe 59d2 53bf 1dc0 9dbe
00000310: 3697 f33e 439a e0be f462 ac3e a199 6f3f
00000320: c869 2ebf b594 923d 1b54 043e a722 d93e
00000330: 2dc2 aa3e dc61 133f ecc5 123f 5292 ef3e
00000340: cc99 b7be 7694 9ebe 9a71 3e3c 6802 823e
00000350: 5183 afbe 5d6d 9bbd eb4b 073e 0345 85be
00000360: b5e7 313e 516c 043d ddb1 a2be e69a 7fbd
00000370: c1d7 0f3e 342b fe3e 71f4 b83d 00ca 97be
00000380: 3293 9c3e b46e 1e3f bb18 853e 0fba c7be
00000390: 48ea aabe a86e eb3e b1a2 a4be 437f 07bd
000003a0: a414 76be ba81 7abc d44f 06bf c292 073e
000003b0: 51ed 15bf e3bc 0fbf 6564 c2be bc5f 093f
000003c0: 4db7 9ebe 04d8 4bbe f357 46be ef2d 19bc
000003d0: 54a0 3cbe da8d 93bd 2b72 afbc d0bb e83e
000003e0: 0bd0 0a3f 7ecd f23e d940 24bf c8dd 993e
000003f0: c90a 41be a620 22bd 500d 9f3d bc47 75be

gc2.a f4 [32, 1]
0.778514 0.14322263 -1.1780468 3.274635e-05 -0.034972124 0.35185456 -0.7104077 0.69686896
-0.5171642 -0.057557195 0.84082633 0.284313 -0.24918018 -0.20667325 -0.25632602 0.015578724
-0.25043133 0.20512328 -0.30505744 -0.19457218 -0.2945031 0.2697104 -0.25994873 0.48983267
-0.51896787 -0.45359468 1.1132678 0.27641547 -0.5247421 0.5345822 -0.3405945 0.049589667
00000000: b24c 473f f4a8 123e 3dca 96bf 2059 0938
00000010: ee3e 0fbd 4826 b43e 47dd 35bf 0166 323f
00000020: df64 04bf 18c1 6bbd 6540 573f 7991 913e
00000030: 1729 7fbe 27a2 53be 2a3d 83be e83d 7f3c
00000040: 8938 80be d60b 523e 7d30 9cbe ee3d 47be
00000050: 1cc9 96be 7b17 8a3e 0018 85be 59cb fa3e
00000060: 14db 04bf 903d e8be 8f7f 8e3f 5486 8d3e
00000070: 8055 06bf 61da 083f 6762 aebe 891e 4b3d
