Protection/model/VAE_tree.pt (torch_old, 5535 bytes, 3 tensors)

gc1.weight f4 [6, 32]
0.22756527 0.5878983 -0.038457572 -0.016322123 0.08151312 0.03850314 0.079552226 -0.39132333
0.10785644 0.38186306 0.077983566 0.013518485 -0.41239816 -0.037422184 -0.097916335 0.19357105
0.2554337 0.17655832 -0.075878024 -0.39753523 0.102207445 -0.28754768 0.5022473 -0.20250142
-0.39500916 0.5097018 -0.041415125 0.15260082 -0.20008208 0.2740537 -0.31326267 -0.45525566
-0.014493056 0.08192934 -0.2086053 0.11188298 0.47562325 0.0639456 0.07526447 -0.050769154
0.31705412 0.3369894 -0.24266994 0.09919514 0.6093421 0.49673793 0.15844226 0.22661658
-0.4574354 0.49859187 -0.18055643 0.20754294 -0.20985022 0.2323187 -0.118941106 0.05931947
0.28409535 0.09755423 0.09412739 -0.5614069 0.03809841 0.10786393 0.348422 0.04711095
0.47170806 0.36998293 -0.13663906 -0.22341226 -0.13664271 0.17463924 0.52403206 -0.18335113
0.3214261 0.34378088 0.024391491 -0.083366655 -0.553213 -0.3289436 0.4633555 -0.48195502
-0.24921057 0.4746581 0.04219649 0.14622216 -0.31776357 0.12494135 -0.3941674 -0.08146986
0.81450975 -0.12614284 -0.05317056 0.15816681 0.14863949 -0.43882692 0.08573549 0.49893725
0.30981246 0.47435248 -0.2997597 -0.041064736 0.11071148 0.36982238 -0.48050165 0.11087232
-0.41087267 0.23041892 -0.14209475 0.08128503 0.58438313 0.076356284 0.37617496 0.35159746
0.025952075 -0.04322017 0.1301138 -0.28349072 0.0048095826 0.20218256 0.33045638 -0.086833775
0.06362159 0.09807514 -0.39477804 -0.37737432 0.07889252 0.0870689 -0.39811677 0.13762943
-0.035266005 -0.12488661 -0.092835516 0.026696727 -0.11935978 0.51716167 0.09379318 -0.10033276
0.07052455 0.35588238 0.26687285 0.16261384 0.2992568 0.40286863 0.51766986 -0.30550426
0.30773836 0.37770367 -0.048103206 0.05532756 0.2198799 -0.36552683 -0.60362417 -0.25578117
-0.29564232 -0.32130742 -0.3417758 0.37072104 -0.3661039 0.125003 -0.43140972 0.31324717
-0.4246346 0.20476036 -0.1807794 -0.25576976 0.48363084 -0.12237254 -0.23883313 -0.0020352732
-0.11781737 -0.087807424 0.18475193 0.29356515 -0.28787097 -0.40260893 0.37751505 -0.04294599
0.26861578 0.17834678 -0.44529232 -0.33531362 0.31485635 0.18991627 0.37766004 -0.30940658
-0.13918418 -0.12713267 -0.32203978 0.5533877 -0.16508977 0.020538528 0.30326942 -0.49501458
00000000: df06 693e 8180 163f b085 1dbd f9b5 85bc
00000010: 5af0 a63d 78b5 1d3d 47ec a23d 885b c8be
00000020: d6e3 dc3d 8e83 c33e d9b5 9f3d a37c 5d3c
00000030: da25 d3be 0148 19bd 5c88 c8bd 7d37 463e
00000040: 35c8 823e b4cb 343e f065 9bbd bd89 cbbe
00000050: 2352 d13d 7339 93be 4793 003f 885c 4fbe
00000060: a43e cabe d17b 023f e8a2 29bd 6443 1c3e
00000070: 51e2 4cbe c450 8c3e f763 a0be 4517 e9be
00000080: 4874 6dbc 92ca a73d a19c 55be e722 e53d
00000090: e484 f33e e9f5 823d 4224 9a3d 51f3 4fbd
000000a0: eb54 a23e e089 ac3e 787e 78be d226 cb3d
000000b0: d8fd 1b3f 6f54 fe3e b03e 223e 2d0e 683e
000000c0: f934 eabe 6f47 ff3e c9e3 38be 2386 543e
000000d0: fae2 56be f4e4 6d3e 6597 f3bd f9f8 723d
000000e0: f274 913e 83ca c73d dcc5 c03d 5db8 0fbf
000000f0: 140d 1c3d c4e7 dc3d 5e64 b23e 69f7 403d
00000100: b883 f13e 676e bd3e 1ceb 0bbe 2fc6 64be
00000110: 11ec 0bbe a1d4 323e f726 063f 66c0 3bbe
00000120: f691 a43e 0c04 b03e aad0 c73c 23bc aabd
00000130: 5e9f 0dbf 4c6b a8be ef3c ed3e cfc2 f6be
00000140: 0e31 7fbe 6306 f33e 3ad6 2c3d 43bb 153e
00000150: e8b1 a2be 40e1 ff3d 4fd0 c9be acd9 a6bd
00000160: b683 503f 972b 01be 60c9 59bd 7bf6 213e
00000170: f334 183e ecad e0be 1796 af3d b474 ff3e
00000180: bd9f 9e3e 54de f23e 1a7a 99be 7f33 28bd
00000190: b3bc e23d 5c59 bd3e 5004 f6be 0711 e33d
000001a0: e75d d2be f0f2 6b3e 4981 11be c478 a63d
000001b0: 229a 153f af60 9c3d 019a c03e 9504 b43e
000001c0: 7299 d43c a207 31bd 8d3c 053e b225 91be
000001d0: b499 9d3b f208 4f3e 9431 a93e e8d5 b1bd
000001e0: 094c 823d 9edb c83d 5920 cabe 3537 c1be
000001f0: 6792 a13d 2e51 b23d f6d5 cbbe bbee 0c3e
00000200: 1673 10bd 8dc4 ffbd 8c20 bebd 18b3 da3c
00000210: e672 f4bd b564 043f a416 c03d 437b cdbd
00000220: 2d6f 903d 3736 b63e 8fa3 883e 3e84 263e
00000230: 3038 993e cc44 ce3e 0386 043f 0e6b 9cbe
00000240: e28f 9d3e 6062 c13e de07 45bd 279f 623d
00000250: 3228 613e 5526 bbbe 1d87 1abf c0f5 82be
00000260: 6e5e 97be 6882 a4be 3dfd aebe 26cf bd3e
00000270: f871 bbbe c900 003e bce1 dcbe ef61 a03e
00000280: b569 d9be b3ac 513e 3c1e 39be 41f4 82be
00000290: 769e f73e 749e fabd ac90 74be 3862 05bb
000002a0: 3c4a f1bd 61d4 b3bd 9c2f 3d3e 2c4e 963e
000002b0: d363 93be c222 cebe a749 c13e 22e8 2fbd
000002c0: 0288 893e 8aa0 363e 5bfd e3be 3aae abbe
000002d0: da34 a13e 6979 423e a85c c13e 8a6a 9ebe
000002e0: 4c86 0ebe 112f 02be 66e2 a4be d1aa 0d3f
000002f0: 4b0d 29be 6a40 a83c 2146 9b3e 8d72 fdbe

gc2.weight f4 [32, 16]
0.29489797 0.85522324 0.099794894 0.039686073 0.03512211 0.096607976 -0.35565177 -0.31980377
0.11335149 -0.6041718 0.2199428 0.35308132 -0.48144552 -0.69349515 0.037923664 -0.43309388
-0.48233798 -0.26525193 -0.0414424 0.19858716 0.55484676 -0.28433338 -0.027868534 -0.25114158
-0.23522152 -0.19747087 -0.3127548 0.386865 -0.023024907 0.06127227 0.16187198 -0.32447493
0.30849698 -0.051100552 0.20161411 0.30753556 -0.1316467 0.14727065 0.2823389 0.12316355
0.17339829 -0.18739904 -0.31420925 -0.20245562 0.26767913 0.0075159967 0.16269639 0.022029608
-0.037310205 0.19759539 -0.12195843 0.20733379 -0.16953254 -0.022395357 -0.28924587 0.29706112
0.5132436 -0.37909195 0.17209156 0.1916152 -0.18597874 0.16899516 -0.010598657 0.1121489
-0.4542855 -0.23284948 -0.14376023 0.19873132 0.16605149 0.5398838 -0.22605759 0.19814213
-0.50290203 0.862494 -0.11863677 0.264019 0.001580919 0.06112792 0.06298555 0.26820529
0.5678101 0.36914736 -0.017170878 -0.17228197 -0.123412475 -0.19187438 0.03712354 0.23668475
-0.22704233 -0.14615828 -0.2161073 -0.0009937405 -0.27851844 0.017047856 -0.21342725 -0.31857195
-0.027357442 -1.0350419 0.0073120506 -0.27018595 0.1634865 0.33816245 0.340402 0.055186905
1.471935 -0.72798616 -0.00042672642 -0.4530879 -0.63147885 -0.14161865 -0.39479262 0.4689782
0.09356625 0.069651425 0.23948102 0.13524197 0.21872102 -0.19170648 0.21002387 -0.33206946
0.47964397 -0.3055187 -0.10413001 0.0937075 -0.18176112 0.13795435 0.20453781 0.18874313
0.0208194 0.4080903 -0.12414653 -0.05981016 0.13072975 0.016764896 0.2807551 -0.07577366
-0.103121705 0.13235371 -0.16317949 -0.36780503 0.07569125 -0.09667987 0.26340657 0.16803405
0.15979272 0.2937473 -0.021375066 0.024595622 -0.28313196 -0.16679583 -0.07196144 -0.10593545
-0.060751885 0.25238657 -0.13578184 -0.040656827 0.39724317 -0.096086465 0.25719264 0.18805462
0.46278068 -0.46397954 0.19687168 0.026646117 -0.62074375 -0.10966986 0.3548373 0.09442006
0.11860913 -0.6427956 -0.055537973 -0.3397147 0.2621768 -0.0030270168 -0.057367247 -0.059551172
0.03813063 -0.11017774 0.32438207 -0.2786759 0.0334157 0.43439952 0.07942377 0.2393465
-0.08588979 0.10061417 0.32916093 -0.029514017 0.45135507 0.33021158 0.012381386 -0.098976076
0.050912328 -0.35764724 0.36295554 -0.18489282 -0.6560791 0.66207755 -0.39562482 0.75334233
1.2022152 0.7810397 0.83932465 -0.15720764 -0.63657737 -0.32197088 0.3149831 -0.29367408
-0.32420108 0.0018349969 -0.26764604 -0.18166454 -0.73984057 -0.090759985 0.069851 0.60906917
0.6458954 0.44262275 0.17864652 -0.3093852 -0.07694336 -0.6033329 0.30447447 0.056865025
0.15243225 0.1192197 0.014513664 0.09101214 -0.38157523 -0.22410274 -0.093316615 -0.09673497
-0.3405197 -0.19550398 0.33696902 -0.14898087 0.40172717 0.19353244 -0.15899266 -0.016483607
-0.7738157 -0.5257472 -0.2356793 0.167826 0.37671596 0.77780205 0.15923862 -0.46122125
1.2253729 -0.12644231 0.32601354 -0.2622144 -0.55525845 -0.15460053 0.1334875 0.18020877
00000000: defc 963e e9ef 5a3f 4461 cc3d dd8d 223d
00000010: 34dc 0f3d 67da c53d fd17 b6be 52bd a3be
00000020: d324 e83d 01ab 1abf af38 613e 13c7 b43e
00000030: 0780 f6be e688 31bf d855 1b3d 7bbe ddbe
00000040: 01f5 f6be 1acf 87be 82bf 29bd 6f5a 4b3e
00000050: 700a 0e3f 2594 91be 8d4c e4bc a195 80be
00000060: e9dd 70be ce35 4abe 6621 a0be 2b13 c63e
00000070: bb9e bcbc a2f8 7a3d c5c1 253e 9421 a6be
00000080: 51f3 9d3e d04e 51bd ee73 4e3e 4d75 9d3e
00000090: 64ce 06be 1ece 163e b98e 903e 2c3d fc3d
000000a0: 528f 313e 89e5 3fbe 09e0 a0be 8750 4fbe
000000b0: 3d0d 893e c048 f63b e299 263e 7077 b43c
000000c0: 96d2 18bd 7256 4a3e 57c5 f9bd 4f4f 543e
000000d0: f099 2dbe 7876 b7bc 0918 94be 6518 983e
000000e0: ef63 033f 5718 c2be c538 303e c636 443e
000000f0: 3671 3ebe 110d 2d3e fda5 2dbc 53ae e53d
00000100: 1c98 e8be 1870 6ebe e235 13be 3980 4b3e
00000110: 6709 2a3e d335 0a3f a47b 67be c5e5 4a3e
00000120: 30be 00bf 68cc 5c3f d6f7 f2bd 802d 873e
00000130: d736 cf3a 4561 7a3d 91fe 803d 3452 893e
00000140: 015c 113f e200 bd3e f1a9 8cbc af6a 30be
00000150: aebf fcbd b87a 44be da0e 183d 7d5d 723e
00000160: c97d 68be 84aa 15be 3b4b 5dbe 6640 82ba
00000170: f899 8ebe f2a7 8b3c ac8c 5abe dd1b a3be
00000180: b71c e0bc 417c 84bf ed99 ef3b d055 8abe
00000190: 0169 273e a123 ad3e 2c49 ae3e aa0b 623d
000001a0: 5e68 bc3f 4d5d 3abf 40ba dfb9 23fb e7be
000001b0: 99a8 21bf 7b04 11be 4222 cabe e91d f03e
000001c0: a99f bf3d 68a5 8e3d 833a 753e df7c 0a3e
000001d0: 67f8 5f3e b44e 44be 7f10 573e 0205 aabe
000001e0: e593 f53e f26c 9cbe 1d42 d5bd b8e9 bf3d
000001f0: 961f 3abe e843 0d3e 5c72 513e e145 413e
00000200: 728d aa3c 36f1 d03e 8940 febd 80fb 74bd
00000210: 05de 053e 8956 893c 22bf 8f3e 382f 9bbd
00000220: 7931 d3bd bb87 073e 8618 27be f150 bcbe
00000230: 0404 9b3d 1800 c6bd 3add 863e 1e11 2c3e
00000240: b4a0 233e 0c66 963e c31a afbc c27c c93c
00000250: acf6 90be 87cc 2abe 8560 93bd aff4 d8bd
00000260: f8d6 78bd d038 813e 650a 0bbe c687 26bd
00000270: 7563 cb3e fbc8 c4bd c1ae 833e 6491 403e
00000280: 97f1 ec3e ba8e edbe bb98 493e f548 da3c
00000290: 10e9 1ebf 979a e0bd 3cad b53e 4e5f c13d
000002a0: 58e9 f23d 418e 24bf c97b 63bd 16ef adbe
000002b0: 0a3c 863e ea60 46bb ebf9 6abd eeeb 73bd
000002c0: dd2e 1c3d dea4 e1bd 6815 a63e 9cae 8ebe
000002d0: e7de 083d 9d69 de3e eea8 a23d 4017 753e
000002e0: fce6 afbd cd0e ce3d c887 a83e 61c7 f1bc
000002f0: 0318 e73e 7e11 a93e 4cdb 4a3c f8b3 cabd
00000300: 7289 503d 8a1d b7be 4fd5 b93e 8b54 3dbe
00000310: cdf4 27bf ea7d 293f 568f cabe 0bdb 403f
00000320: 30e2 993f 38f2 473f fbdd 563f 0afb 20be
00000330: bcf6 22bf 5ed9 a4be 7745 a13e 735c 96be
00000340: affd a5be 4784 f03a e708 89be 4506 3abe
00000350: 3166 3dbf 5fe0 b9bd 0b0e 8f3d f5eb 1b3f
00000360: 6759 253f 739f e23e 1def 363e bd67 9ebe
00000370: 7b94 9dbd 0674 1abf 14e4 9b3e 4deb 683d
00000380: 3317 1c3e 7529 f43d b8ca 6d3c 9364 ba3d
00000390: d45d c3be 307b 65be c81c bfbd fc1c c6bd
000003a0: 9958 aebe 3232 48be 3487 ac3e 718e 18be
000003b0: 2faf cd3e 5e2d 463e f9ce 22be a108 87bc
000003c0: c918 46bf 5e97 06bf ea55 71be 94da 2b3e
000003d0: eae0 c03e 091e 473f 730f 233e 3125 ecbe
000003e0: 05d9 9c3f 187a 01be 3feb a63e f740 86be
000003f0: 6b25 0ebf 9a4f 1ebe f2b0 083e a688 383e

gc3.weight f4 [32, 16]
-0.3414445 0.056527182 -0.30861458 0.053504474 -0.47259593 -0.039763924 -0.31736013 0.106953874
-0.5076092 -0.30183595 -0.5052176 -0.3669609 -0.09992147 0.049522895 0.09948529 -0.37110835
-0.28567234 -0.52214646 -0.25903958 -0.032947157 0.08269885 -0.52118164 -0.2957049 -0.22947869
-0.5883104 -0.46386746 -0.24902564 -0.0789158 -0.3424005 -0.4653285 -0.27306488 -0.2985916
0.2617611 -0.106150046 0.26197407 -0.07203448 0.32401988 0.22210428 -0.037293166 0.28989556
0.3511972 0.09701201 0.0112787485 -0.2783785 0.34133604 0.011452138 -0.18834466 -0.20478973
0.02648111 0.18449514 0.25195998 -0.06508951 -0.12729664 -0.3894749 -0.04585106 0.055518955
0.2146639 7.3007446e-05 -0.45408776 -0.27122054 -0.14490236 -0.35390887 -0.022074806 -0.30529785
0.01683369 -0.33559808 -0.0069597205 -0.39363882 -0.4011522 -0.20134383 -0.30007038 -0.031536546
-0.1483985 -0.44602343 -0.11262519 -0.19507131 0.019968925 -0.15011589 -0.023276484 -0.41259223
-0.4427904 -0.51978767 -0.124068215 -0.33436736 0.1877271 -0.21427314 -0.28527227 -0.17388985
-0.10166787 0.065648235 -0.037942965 -0.53566545 -0.3429367 -0.014926545 -0.18895176 -0.37984952
-0.02190023 0.054849133 -0.12953557 0.032307133 -0.37955555 -0.01795252 -0.39799824 -0.21170287
0.40748698 -0.052020747 -0.3072209 0.21295135 0.16002232 0.11414455 -0.14864014 -0.26199317
0.05177426 -0.057083685 0.111634456 0.02139492 0.070173845 -0.100667804 -0.20372677 -0.16556716
0.19706088 0.1341735 -0.2978231 -0.018957037 -0.41132239 -0.2988139 -0.21388337 0.2377753
-0.38091394 -0.37279826 0.054929197 0.018406224 0.08627916 0.09824824 -0.22920549 -0.06587071
-0.45169428 -0.1997088 -0.19892785 -0.29886827 -0.32640734 0.06704299 -0.26522607 -0.26121286
-0.40196773 -0.32797825 0.16834797 -0.14827894 -0.47930133 -0.3522261 -0.32093063 -0.24562122
-0.377413 -0.28614503 -0.2847565 -0.18389073 0.08422938 -0.24769315 -0.43152234 0.10572756
-0.506318 0.028480602 0.078152984 -0.03968126 0.144796 -0.13615362 0.08762163 -0.093496725
-0.42718834 -0.0028520012 0.058692057 0.02375732 -0.16634229 -0.3633985 0.029075203 -0.49358574
-0.038596995 -0.20592256 -0.3344846 0.16993478 -0.3075888 -0.12415458 0.013994066 0.1420635
-0.2933765 0.020550506 -0.529453 -0.46103728 -0.32198736 -0.25820222 -0.38341397 -0.12996928
-0.19276713 -0.25355998 0.07380766 -0.21473423 -0.30384082 -0.15789977 0.17068845 -0.2163257
-0.21476105 -0.5192289 0.04657371 0.12718481 -0.3469837 -0.09155151 -0.06466634 0.25561824
-0.08043705 -0.28142473 -0.0986224 -0.15943278 -0.3655741 0.010279558 -0.065578565 -0.049326617
-0.5589179 -0.36891127 -0.16709958 -0.3211109 0.16570249 0.10538572 0.3775917 0.2789874
-0.1585287 -0.433254 -0.2651996 -0.2763653 -0.39879254 0.07834569 -0.041378293 0.053966764
-0.29268244 0.035272256 -0.19562964 -0.1389679 -0.43120944 -0.42603576 -0.016969943 -0.22912826
-0.06403545 0.10204143 0.21329011 -0.054609817 -0.30029637 0.11271844 -0.31584287 -0.30203232
0.01959715 -0.2579457 -0.29445735 -0.3738398 -0.47577327 -0.05706197 0.17861174 -0.4838746
00000000: d0d1 aebe 0c89 673d bb02 9ebe 8227 5b3d
00000010: 18f8 f1be 7fdf 22bd 077d a2be a20a db3d
00000020: adf2 01bf 3e8a 9abe f155 01bf 4de2 bbbe
00000030: a1a3 ccbd 85d8 4a3d f2be cb3d ea01 bebe
00000040: a543 92be 64ab 05bf d6a0 84be 99f3 06bd
00000050: 045e a93d 296c 05bf a266 97be 76fc 6abe
00000060: 839b 16bf 0980 edbe 9400 7fbe 9b9e a1bd
00000070: 1e4f afbe 8a3f eebe 29cf 8bbe 00e1 98be
00000080: 8d05 863e 3265 d9bd 7721 863e d086 93bd
00000090: efe5 a53e 4e6f 633e b8c0 18bd 316d 943e
000000a0: 1fd0 b33e 3cae c63d 80ca 383c a087 8ebe
000000b0: 99c3 ae3e c0a1 3b3c 6cdd 40be 66b4 51be
000000c0: eaee d83c 4bec 3c3e e600 813e a64d 85bd
000000d0: 0d5a 02be 4169 c7be 52ce 3bbd d867 633d
000000e0: dad0 5b3e 931b 9938 317e e8be 6bdd 8abe
000000f0: 4961 14be 8b33 b5be 39d6 b4bc 0050 9cbe
00000100: cfe6 893c 83d3 abbe 5e0e e4bb 078b c9be
00000110: d263 cdbe 142d 4ebe d3a2 99be 772c 01bd
00000120: c7f5 17be 2f5d e4be 09a8 e6bd c6c0 47be
00000130: df95 a33c fbb7 19be 53ae bebc 4a3f d3be
00000140: 6cb5 e2be ce10 05bf 7a17 febd 3332 abbe
00000150: 883b 403e 6b6a 5bbe 350f 92be 2e10 32be
00000160: 3f37 d0bd 9572 863d 156a 1bbd 5f21 09bf
00000170: 6695 afbe 788e 74bc 927c 41be a37b c2be
00000180: 1c68 b3bc 7ca9 603d f9a4 04be 7c54 043d
00000190: 1b55 c2be 2a11 93bc 6dc6 cbbe a3c8 58be
000001a0: 22a2 d03e b513 55bd 0f4c 9dbe eb0f 5a3e
000001b0: e4dc 233e 9ec4 e93d 1f35 18be f823 86be
000001c0: 3f11 543d 95d0 69bd 9ba0 e43d 6644 af3c
000001d0: 4eb7 8f3d ec2a cebd c09d 50be 708a 29be
000001e0: 54ca 493e c764 093e 457c 98be ca4b 9bbc
000001f0: d998 d2be 23fe 98be 3e04 5bbe 5e7b 733e
00000200: 2707 c3be 6adf bebe 70fd 603d a6c8 963c
00000210: 21b3 b03d 6036 c93d d8b4 6abe 39e7 86bd
00000220: 7944 e7be 7780 4cbe beb3 4bbe 4305 99be
00000230: dd1e a7be d64d 893d b6cb 87be b1bd 85be
00000240: b7ce cdbe c4ec a7be 6963 2c3e 6fd6 17be
00000250: fc66 f5be fb56 b4be 0551 a4be 2184 7bbe
00000260: 473c c1be 9a81 92be 9bcb 91be da4d 3cbe
00000270: 7480 ac3d 46a3 7dbe 7ff0 dcbe b187 d83d
00000280: 0e9e 01bf 2750 e93c ac0e a03d d188 22bd
00000290: 6745 143e db6b 0bbe f872 b33d 367b bfbd
000002a0: 6eb8 dabe a4e8 3abb 1567 703d b69e c23c
000002b0: a255 2abe 5e0f babe 1f2f ee3c 45b7 fcbe
000002c0: e217 1ebd 5ddd 52be 9141 abbe 6203 2e3e
000002d0: 477c 9dbe c244 febd 5e47 653c 1879 113e
000002e0: 7235 96be 8959 a83c 3b8a 07bf 140d ecbe
000002f0: 87db a4be 1533 84be d64e c4be ab16 05be
00000300: bf64 45be 9dd2 81be 7828 973d 4ae3 5bbe
00000310: 0691 9bbe 7ab0 21be f4c8 2e3e 7c84 5dbe
00000320: 52ea 5bbe 2fec 04bf 13c4 3e3d bc3c 023e
00000330: d9a7 b1be 5c7f bbbd c96f 84bd 65e0 823e
00000340: 2ebc a4bd e716 90be 8afa c9bd 5942 23be
00000350: 872c bbbe 976b 283c 0e4e 86bd b50a 4abd
00000360: 3e15 0fbf f0e1 bcbe 271c 2bbe a668 a4be
00000370: eaad 293e 78d4 d73d b353 c13e 70d7 8e3e
00000380: 5955 22be 78d3 ddbe 3ec8 87be c17f 8dbe
00000390: 892e ccbe b573 a03d 497c 29bd 410c 5d3d
000003a0: 79da 95be a479 103d 2353 48be 9a4d 0ebe
000003b0: 7cc7 dcbe 5c21 dabe 8d04 8bbc 99a0 6abe
000003c0: 0525 83bd 19fb d03d b968 5a3e 8bae 5fbd
000003d0: 72c0 99be edd8 e63d 28b6 a1be fba3 9abe
000003e0: 348a a03c 7511 84be 1dc3 96be ee67 bfbe
000003f0: 8e98 f3be d0b9 69bd ffe5 363e 69be f7be
