Protection/model/VAE_btc.pt (torch_old, 5535 bytes, 3 tensors)

gc1.weight f4 [6, 32]
0	0x3e192c1f	0.14958237
1	0x3e102b32	0.14078978
2	0xbe782bc8	-0.24235451
3	0x3eab7a16	0.33491582
4	0x3e891764	0.26775658
5	0x3ee6857c	0.45023715
6	0x3e00f9f7	0.12595354
7	0xbf23e96c	-0.6402805
8	0xbeee8447	-0.46585295
9	0x3ca4ee3a	0.020133127
10	0xbcdb4866	-0.02676792
11	0xbe707d0d	-0.23485203
12	0x3df69de3	0.12041833
13	0x3e491337	0.19636236
14	0x3ef7432a	0.4829343
15	0x3d01bbe6	0.031673335
16	0x3dda560e	0.10660945
17	0xbed3d7ad	-0.41375485
18	0xbd27459a	-0.04083786
19	0x3d75206e	0.05984538
20	0x3e0508c6	0.12991628
21	0xbd635493	-0.055500578
22	0xbd3d1454	-0.046161965
23	0x3dc94399	0.09827346
24	0x3ee1399c	0.43989265
25	0xbeb8b5ef	-0.36076304
26	0xbdeaa958	-0.11458081
27	0xbe942df0	-0.28941298
28	0xbe6dad92	-0.23210743
29	0x3c0c8b11	0.008578078
30	0x3e17d1f6	0.14826187
31	0x3cae94a0	0.021311104
32	0x3d8fb411	0.07016767
33	0x3dd49f14	0.10381904
34	0x3f110909	0.5665441
35	0x3e14a136	0.14514622
36	0xbe507db0	-0.20360446
37	0xbf1fb369	-0.62383133
38	0xbce3df6a	-0.027816493
39	0x3f0359b8	0.51308775
40	0xbdc3a6e3	-0.095533155
41	0x3e1cba16	0.15305361
42	0xbe715894	-0.23568946
43	0xbe5ed725	-0.21761759
44	0xbe82a1a4	-0.25513947
45	0x3e949e6a	0.2902711
46	0x3f083be3	0.5321638
47	0xbe6a30ea	-0.22870222
48	0x3ea3a51d	0.3196191
49	0x3e448b49	0.19193758
50	0x3db971e8	0.09054929
51	0xbe4d90e1	-0.20074798
52	0x3cfdd1ce	0.030983832
53	0x3d9011ca	0.07034643
54	0xbefe7235	-0.49696508
55	0xbe37fbd5	-0.1796716
56	0xbe75462e	-0.23952553
57	0xbe18a7ad	-0.14907713
58	0xbf331513	-0.6995403
59	0xbd3ac730	-0.045600116
60	0xbe87aa9a	-0.26497346
61	0xbe7f58fc	-0.24936289
62	0x3ebb697a	0.3660391
63	0xbe5fa550	-0.21840405
64	0xbd1b1060	-0.037857413
65	0x3dbb5254	0.09146562
66	0xbdd23d03	-0.10265543
67	0xbe88ae79	-0.26695612
68	0x3c89ee3e	0.016837236
69	0x3e3a3b92	0.18186787
70	0x3d81f005	0.06344608
71	0xbe63a253	-0.2222989
72	0xbf0a0a52	-0.53922
73	0xbe8292e2	-0.25502688
74	0xbebfcacf	-0.37459418
75	0xbe3c5c48	-0.18394578
76	0x3df43118	0.119234264
77	0x3e4b97d1	0.19882132
78	0xbeec6eb7	-0.4617822
79	0xbe8d2644	-0.27568257
80	0xbde2462d	-0.11048541
81	0x3ee62cb3	0.44955978
82	0x3ec48cb3	0.38388595
83	0x3f2fb49d	0.6863497
84	0xbda3cc60	-0.07997966
85	0x3f12a2cb	0.5727965
86	0xbdf59af0	-0.119924426
87	0x3ea5c3b8	0.32375884
88	0xbeb71f12	-0.35765892
89	0xbe7df6c4	-0.24801165
90	0xbe491682	-0.19637492
91	0x3ddf21f4	0.10895148
92	0xbec248ad	-0.37946072
93	0xbe0346da	-0.12819996
94	0x3f00a34c	0.5024917
95	0xbcd4ce70	-0.025977343
96	0x3e4ad4a0	0.19807673
97	0x3e800570	0.25004148
98	0x3dd7449c	0.10511133
99	0x3f2c5db7	0.673305
100	0x3e7cb7ed	0.24679537
101	0x3f4e12bb	0.8049733
102	0xbe815a0c	-0.25264013
103	0x3ebe8673	0.37211952
104	0x3eb99076	0.36243027
105	0x3d908474	0.070565134
106	0xbd2c1621	-0.04201329
107	0xbd880d80	-0.066432
108	0x3e262715	0.16225846
109	0xbe0514e7	-0.12996255
110	0xbecaef3e	-0.39635652
111	0xbea3fab4	-0.3202721
112	0x3ec0afd5	0.3763415
113	0x3ee3a97f	0.44465253
114	0x3c192902	0.009348156
115	0xbd74ae1d	-0.05973636
116	0xbf135028	-0.57544184
117	0x3d2112ea	0.03932468
118	0xbee172c9	-0.44032887
119	0xbe9afba6	-0.30270118
120	0xbe0467ab	-0.12930171
121	0x3e0c68ba	0.13711825
122	0x3e9dddc7	0.30833265
123	0xbeb41740	-0.35173988
124	0x3e4cd599	0.20003356
125	0xbf002e4a	-0.5007063
126	0x3f0a4f3f	0.5402717
127	0xbe73a0f5	-0.23791869
128	0x3e7a0119	0.24414481
129	0x3d2a7230	0.041612804
130	0xbea6344b	-0.3246177
131	0x3e964515	0.2934958
132	0xbcac8ea0	-0.021064103
133	0xbf3bc232	-0.73343194
134	0x3e413e4f	0.18871425
135	0xbd556bf3	-0.0521049
136	0x3f003d29	0.50093323
137	0xbb5598ed	-0.0032592372
138	0xbd199201	-0.037492756
139	0x3da82e38	0.082119405
140	0x3eccdccf	0.40012214
141	0x3e461cf8	0.19346988
142	0x3f0dff86	0.5546802
143	0x3c2dfa41	0.010618747
144	0x3e9bd84d	0.30438462
145	0x3e84c111	0.25928548
146	0x3f11ba91	0.569253
147	0x3eb42fea	0.35192806
148	0x3ed1a563	0.40946493
149	0xbe709c96	-0.23497233
150	0x3dc1d074	0.094635874
151	0xbecd2472	-0.40066868
152	0x3eba85a9	0.364301
153	0xbd2f6ada	-0.04282651
154	0xbd323ee2	-0.043517
155	0xbe4ce398	-0.20008695
156	0xbef715c2	-0.48258787
157	0xbeb6cb10	-0.357018
158	0x3c6085bc	0.01370376
159	0xbdc688dc	-0.096940726
160	0xbf1329b8	-0.5748553
161	0xbf108074	-0.56446004
162	0x3e03378c	0.12814158
163	0xbdfae729	-0.122511216
164	0xbe91c114	-0.2846762
165	0xbe5c1943	-0.21494012
166	0x3ef4cc7c	0.4781226
167	0x3c985f28	0.018600062
168	0x3eb0f96f	0.34565303
169	0xbc23c4b2	-0.009995626
170	0xbedf22df	-0.43581292
171	0xbea86994	-0.3289305
172	0x3efd57df	0.49481103
173	0xbecbe2ab	-0.3982137
174	0x3c37209b	0.011177207
175	0xbee756d7	-0.4518344
176	0x3ec0675b	0.37578854
177	0xbdff6c20	-0.12471795
178	0x3e56de64	0.20983273
179	0x3eadfaf1	0.33980516
180	0x3e0c5491	0.13704135
181	0xbeb2b7bb	-0.349058
182	0xbe6ea38f	-0.2330458
183	0x3f031e34	0.5121796
184	0xbb58fab1	-0.0033108408
185	0xbe584ff9	-0.21124257
186	0x3f3978dc	0.7245004
187	0xbe7bf4db	-0.24605124
188	0xbde3d93b	-0.11125418
189	0x3cc5cd68	0.024145797
190	0x3efece9a	0.49767
191	0xbe853fa1	-0.26025108

gc2.weight f4 [32, 16]
0	0x3e108910	0.14114785
1	0xbe94a770	-0.29033995
2	0x3e60a588	0.21938145
3	0xbde26ed8	-0.11056298
4	0x3e20b9c2	0.15695861
5	0xbd25412c	-0.040345356
6	0xbed3aba2	-0.41341883
7	0x3d933e4f	0.07189619
8	0xbd82547f	-0.063637726
9	0xbda6aaab	-0.08138021
10	0x3ed48ec8	0.41515183
11	0xbf018f2d	-0.50609094
12	0x3f4fe985	0.812157
13	0xbc16d289	-0.009205469
14	0xbf6e5bf0	-0.93109035
15	0x3db52b69	0.088461705
16	0x3eabc273	0.3354679
17	0x3c91bfd0	0.017791659
18	0xbe146467	-0.14491425
19	0xbf220871	-0.6329413
20	0x3e6a8356	0.22901663
21	0xbf0b42c7	-0.5439877
22	0xbeddb31b	-0.4330071
23	0x3ecd83b7	0.40139553
24	0xbcf84744	-0.03030742
25	0xbd9faf8a	-0.07797153
26	0x3e358098	0.17724836
27	0xbe9eb5da	-0.30998117
28	0x3f5c9864	0.8617003
29	0x3e63da17	0.22251163
30	0xbf5cf9f3	-0.8631889
31	0xbf1c4761	-0.61046416
32	0x3f0a7ed9	0.54099804
33	0xbe07136c	-0.13191003
34	0xbee831c9	-0.45350483
35	0x3edc1c31	0.42990258
36	0x3e7718c1	0.24130537
37	0x3e853165	0.26014248
38	0x3e19a340	0.15003681
39	0xbed3573c	-0.41277492
40	0x3f439974	0.76406026
41	0x3f3a6a44	0.728184
42	0xbe0d16fe	-0.13778302
43	0xbc850ce6	-0.016241502
44	0x3e751a7f	0.23935889
45	0x3e132b5d	0.1437201
46	0xbf4c2d46	-0.7975658
47	0xbef3a496	-0.47586507
48	0xbeeb5b41	-0.4596806
49	0x3e586ea2	0.21135953
50	0x3e243158	0.16034448
51	0x3f056f08	0.52122545
52	0xbec9a0e8	-0.39380574
53	0x3dc8b072	0.09799279
54	0xbf6da5a0	-0.9283085
55	0x3ed27556	0.41105145
56	0xbe4b0181	-0.19824792
57	0x3f0c4d05	0.5480502
58	0xbe98ff55	-0.29882303
59	0xbd9760e9	-0.07391531
60	0x3e1a9f6a	0.15099874
61	0xbe0686df	-0.13137387
62	0x3f2dbd2a	0.67866766
63	0xbe97936d	-0.29604664
64	0xbded7514	-0.115945965
65	0xb9dae6c8	-0.00041752146
66	0xbe5352a3	-0.20636992
67	0xbeac2ea4	-0.33629334
68	0xbe1d5082	-0.15362743
69	0xbe9ba3c5	-0.30398384
70	0x3e038c84	0.12846571
71	0xbda45780	-0.08024502
72	0x3ed4280f	0.41436812
73	0x3e4dd702	0.2010155
74	0x3e72f1f2	0.23725107
75	0xbec118c9	-0.37714222
76	0x3f2849b4	0.6573746
77	0x3e4b569f	0.19857262
78	0xbec90b9f	-0.3926668
79	0xbef7761e	-0.48332304
80	0xbee99d9e	-0.45628065
81	0xbece3c38	-0.40280318
82	0x3e8def35	0.27721563
83	0xbf2e9f10	-0.6821146
84	0x3d4ba3dd	0.04971682
85	0xbf3dc2e2	-0.7412549
86	0x3eedb534	0.4642731
87	0x3edae0c1	0.427496
88	0x3e8cd4e0	0.2750616
89	0x3e19b97b	0.15012161
90	0xbf33f603	-0.7029726
91	0xbca30e03	-0.019904142
92	0x3f7325ab	0.9497935
93	0x3e21d579	0.1580409
94	0xbf0443e3	-0.51666087
95	0xbf70a594	-0.9400265
96	0x3ea7b18f	0.32752654
97	0xbe70fe85	-0.23534591
98	0xbf087aab	-0.53312176
99	0xbe8f5902	-0.27997595
100	0xbec8db79	-0.39229944
101	0xbe8aae2d	-0.2708601
102	0x3e1f8e71	0.15581681
103	0xbe40aff3	-0.1881712
104	0xbdeb5a3f	-0.114918225
105	0x3d840d2e	0.06447826
106	0xbe80e2a0	-0.251729
107	0xbc09ed94	-0.008418459
108	0xbed028ce	-0.40656132
109	0xbd964b94	-0.07338634
110	0x3e552b33	0.2081726
111	0x3e878b6c	0.26473558
112	0x3f23e9c9	0.640286
113	0xbe2f8edb	-0.17144339
114	0x3e72db12	0.23716381
115	0xbf1c2167	-0.6098847
116	0x3e80ad65	0.2513229
117	0xbe0cad74	-0.13738042
118	0x3f74b446	0.95587575
119	0xbf0794db	-0.5296151
120	0x3f00b949	0.5028272
121	0x3f1d9f0f	0.6157083
122	0xbe89e7aa	-0.26934558
123	0xbe58c59f	-0.21169136
124	0x3dc53ab7	0.096303396
125	0x3df401fb	0.1191444
126	0xbf850556	-1.0392253
127	0xbec9a260	-0.39381695
128	0x3ed05ad8	0.40694308
129	0xbe963114	-0.2933432
130	0x3f83b2d0	1.0288944
131	0xbe0d33fd	-0.13789363
132	0xbc20c779	-0.009813183
133	0xbd2060a3	-0.03915466
134	0x3ee51b2c	0.44747293
135	0xbebaa16f	-0.3645129
136	0xbf082cf8	-0.53193617
137	0x3f928ab6	1.1448581
138	0xbee14556	-0.43998212
139	0xbf4769eb	-0.77895993
140	0x3f07ad65	0.52998954
141	0x3e088137	0.13330542
142	0xbf2707fb	-0.6524655
143	0x3d8a7f15	0.0676252
144	0x3e92e0ff	0.28687283
145	0x3e4b755d	0.1986899
146	0xbeaa60c1	-0.33276942
147	0xbd82709b	-0.06369134
148	0x3e05f9c3	0.13083558
149	0xbe5f83d1	-0.21827628
150	0xbcaffba0	-0.021482289
151	0xbe059342	-0.13044456
152	0x3e9fe83e	0.31231874
153	0xbc8b65c6	-0.017016303
154	0xbf0a6d1e	-0.5407275
155	0xbed07591	-0.40714696
156	0x3e5d9e54	0.21642429
157	0x3d8f6be1	0.07002998
158	0xbdcff8f0	-0.10154903
159	0xbe1bba6e	-0.15207836
160	0x3ef2910d	0.4737629
161	0xbeaf3466	-0.34219664
162	0x3d54a225	0.051912446
163	0xbefa532c	-0.4889158
164	0xbe4f5af6	-0.20249543
165	0xbde605d9	-0.11231584
166	0x3e49c2de	0.19703242
167	0xbe9c3c73	-0.3051487
168	0xbbe081d9	-0.0068514165
169	0x3ee26dd9	0.44224432
170	0xbca3fd19	-0.020018147
171	0xbb6990bf	-0.0035639254
172	0xbe335d7c	-0.1751613
173	0x3d3345ff	0.043767925
174	0x3e16a3ae	0.14710876
175	0x3e43b1d0	0.19110799
176	0xbdb1b068	-0.08676225
177	0x3eb15c3f	0.3464069
178	0xbe4eeff1	-0.20208718
179	0x3d00a310	0.03140551
180	0x3dfd57a4	0.12370232
181	0xbeb04555	-0.34427896
182	0xbd36bcd0	-0.04461366
183	0x3e3e03d2	0.18556145
184	0x3d0818f8	0.033226937
185	0xbeadde6f	-0.33958766
186	0x3da07e04	0.078365356
187	0xbd43e718	-0.04782781
188	0xbe817a97	-0.2528884
189	0xbe4588b8	-0.19290435
190	0xbde7eb62	-0.113241926
191	0xbe1b151e	-0.15144774
192	0xbed55225	-0.41664234
193	0x3d32f614	0.04369171
194	0xbe17fc34	-0.14842302
195	0xbea3aa86	-0.31966037
196	0x3dfd05ca	0.1235462
197	0x3ee7211b	0.45142445
198	0x3e89dddc	0.26927078
199	0xbe9c5fd6	-0.30541867
200	0xbeb23e7c	-0.34813297
201	0xbde82743	-0.113356136
202	0xbf09a736	-0.5377077
203	0xbeb46651	-0.3523431
204	0xbeb77359	-0.3583019
205	0x3e0a281b	0.13491862
206	0xbba22bc0	-0.004949063
207	0x3da4a004	0.08038333
208	0x3c0bbe96	0.008529326
209	0x3ea0c103	0.31397256
210	0xbed2019d	-0.41016856
211	0xbdc97713	-0.09837165
212	0x3e83d1d1	0.25746015
213	0xbe2de69a	-0.16982499
214	0xbe7f6c79	-0.24943723
215	0xba569806	-0.00081861054
216	0x3cd85e70	0.026412219
217	0xbf161ec8	-0.5864072
218	0x3f78ad00	0.9713898
219	0x3ed15efb	0.40892777
220	0x3dc323da	0.095283225
221	0x3c875866	0.016521644
222	0xbf209e2b	-0.62741345
223	0x3e9cd30a	0.3062976
224	0x3e59e337	0.21278082
225	0x3b60638d	0.0034239024
226	0xbf2d1d1f	-0.6762256
227	0xbece779d	-0.40325633
228	0xbd209e4e	-0.03921347
229	0x3decec13	0.11568465
230	0xbf42b806	-0.7606205
231	0xbebeefec	-0.3729242
232	0xbe4cf9fe	-0.2001724
233	0x3f1ae515	0.605058
234	0x3ef2fdbe	0.47459215
235	0x3dd1521a	0.10220738
236	0x3d6c10bd	0.05763315
237	0xbea46223	-0.32106122
238	0xbe1d3a8f	-0.1535437
239	0x3eef7a82	0.46773154
240	0x3e603da4	0.21898514
241	0x3b5ea46c	0.0033972515
242	0x3e9f83da	0.31155282
243	0xbe233f76	-0.15942177
244	0x3e84ae89	0.2591441
245	0xbe4998f2	-0.1968725
246	0x3eb34e04	0.3502046
247	0xbdecb7ed	-0.115585186
248	0x3db0065e	0.085949644
249	0x3e4ff243	0.2030726
250	0x3d0fd2e6	0.035113238
251	0xbd8e93ea	-0.06961806
252	0x3e3025d1	0.17201926
253	0xbdfdb721	-0.12388445
254	0xbdb70ee1	-0.08938385
255	0x3d2626a1	0.040564183

gc3.weight f4 [32, 16]
0	0xbdf7b51d	-0.120950915
1	0xbd3ad026	-0.045608662
2	0xbea4c71e	-0.32183164
3	0x3d1c1f6b	0.0381159
4	0xbecfc746	-0.4058172
5	0x3de6c241	0.1126752
6	0xbe2bad83	-0.16765408
7	0xbd97de69	-0.07415468
8	0xbe6d7dd2	-0.23192528
9	0x3dec5852	0.11540283
10	0xbe50b5e4	-0.20381886
11	0x3e329f21	0.17443515
12	0xbe3ec0df	-0.18628262
13	0xbe1b69d7	-0.15177093
14	0xbe21e969	-0.15811695
15	0xbe2405d9	-0.16017856
16	0x3de5d772	0.112227336
17	0xbda4756c	-0.08030209
18	0xbebf1770	-0.3732257
19	0xbe2d2087	-0.1690694
20	0xbb2713d7	-0.0025494003
21	0x3e38876a	0.18020406
22	0xbee2f9c2	-0.44331175
23	0xbeab4d22	-0.33457285
24	0xbe159404	-0.14607245
25	0xbe0a0170	-0.13477111
26	0xbeadabae	-0.33920044
27	0xbec04385	-0.37551513
28	0x3e16783d	0.14694305
29	0x3bbfaa04	0.005849125
30	0x3e5ec6e7	0.21755563
31	0xbe0fb0a1	-0.14032222
32	0x3daf28ec	0.08552727
33	0x3dcbb0f6	0.09945862
34	0x3dc3ce34	0.095608145
35	0x3d283f32	0.041075893
36	0xbca78e19	-0.0204535
37	0xbea4e41b	-0.3220528
38	0xbe985158	-0.2974956
39	0xbd06c046	-0.03289821
40	0xbea93155	-0.3304545
41	0xbe14d625	-0.14534815
42	0xbe820116	-0.25391454
43	0xbe09d35a	-0.1345953
44	0xbee8a3fe	-0.45437616
45	0x3d3cf69e	0.04613363
46	0xbea798e0	-0.32733822
47	0xbd9eae3f	-0.077480786
48	0xbeeaeb3d	-0.45882598
49	0x3e4a7472	0.19770983
50	0xbdbaf03f	-0.091278546
51	0xbea99de1	-0.33128265
52	0xbee11d6f	-0.4396777
53	0xbddb0f46	-0.106962726
54	0xbe37f626	-0.17964992
55	0x3e091f67	0.13390885
56	0xbe8779e4	-0.26460183
57	0xbcfc2c17	-0.030782742
58	0xbed23b3a	-0.4106081
59	0x3b45ce77	0.0030182877
60	0xbe99f5f7	-0.3007047
61	0x3b6b06b6	0.0035862154
62	0xbe24f672	-0.16109636
63	0xbeb615ac	-0.3556341
64	0xbd3d19ce	-0.046167187
65	0xbeae00dc	-0.3398503
66	0x3e3279e3	0.17429309
67	0xbdcf68c2	-0.10127403
68	0x3cc84f84	0.024451979
69	0x3d95c09d	0.07312129
70	0xbed99a7e	-0.4250068
71	0xbcf121bf	-0.029435037
72	0xbe6ec2b6	-0.23316464
73	0xbeb4530b	-0.35219607
74	0xbe40588f	-0.18783782
75	0x3da3f059	0.08004827
76	0x3e532ac8	0.20621789
77	0x3e107c47	0.14109908
78	0xbe85ee08	-0.26158166
79	0x3b984b8e	0.0046476787
80	0xbe5903bc	-0.21192831
81	0x3da81250	0.08206618
82	0xbd10750b	-0.03526787
83	0x3e026895	0.12735207
84	0x3e85230a	0.26003295
85	0xbd0e73d5	-0.034778435
86	0xbe63c3ae	-0.22242615
87	0xbe554ae5	-0.20829351
88	0xbe44f265	-0.19233091
89	0x3ca8633f	0.020555137
90	0xbe8b2772	-0.27178532
91	0x3e0f2020	0.13977098
92	0xbed670a6	-0.4188282
93	0xbec1eb3c	-0.37874782
94	0xbeebe29a	-0.4607132
95	0xbec3b0ac	-0.38220727
96	0xbcbcd1d3	-0.02304927
97	0xbebb894b	-0.36628184
98	0x3d8db375	0.06918994
99	0xbbe64624	-0.0070274044
100	0x3aa1fe94	0.0012359195
101	0xbd80863e	-0.06275605
102	0xbe8c3cc8	-0.27390122
103	0xbeb25205	-0.348282
104	0xbedd603f	-0.43237492
105	0xbd6a6712	-0.0572272
106	0x3dc9ef8d	0.09860144
107	0x3e05421c	0.130135
108	0xbedde411	-0.43338063
109	0x3c228c6e	0.009921176
110	0xbef00b42	-0.4688359
111	0xbe798212	-0.24366024
112	0x3e0ee797	0.13955532
113	0xbde9c579	-0.11414618
114	0xbed6cc03	-0.41952524
115	0xbdacdcc6	-0.08440547
116	0xbe3e7f1c	-0.18603176
117	0xbe8be7e1	-0.27325347
118	0x3c915c1c	0.017744116
119	0xbe10f7c3	-0.14157014
120	0x3d32efb8	0.043685645
121	0xbba48272	-0.005020433
122	0x3df84635	0.12122766
123	0x3e2f2bb8	0.17106521
124	0xbde40f25	-0.11135701
125	0x3e52bd6f	0.20580076
126	0xbcc3d89e	-0.023907002
127	0xbe0314f4	-0.12800962
128	0xbdbd9571	-0.09257019
129	0xbe5260d4	-0.2054475
130	0xbe852f5a	-0.2601269
131	0x3d2b6d6e	0.041852407
132	0x3ea176fa	0.31536084
133	0x3bbcd000	0.0057621
134	0xbf02367e	-0.508644
135	0xbea11e6b	-0.3146852
136	0xbe25a7bd	-0.16177268
137	0xbef56a02	-0.4793244
138	0x3e7da918	0.24771535
139	0x3e19d624	0.15023094
140	0xbe0b998a	-0.13632789
141	0x3e46e284	0.19422346
142	0xbcddc1cb	-0.027069947
143	0x3e04c8ab	0.12967174
144	0x3e152675	0.14565451
145	0xbe833ac8	-0.25630784
146	0x3e130750	0.14358258
147	0xbedb7667	-0.4286377
148	0xbed01461	-0.40640548
149	0x3e280147	0.16406737
150	0xbb3e4011	-0.0029029886
151	0x3e5b045e	0.21388385
152	0xbed2b1b5	-0.41151205
153	0xbe3a035c	-0.18165344
154	0xbe6b9b18	-0.23008382
155	0xbe574c16	-0.21025118
156	0xbe1720e5	-0.14758642
157	0xbec3e75a	-0.38262445
158	0x3e2230a4	0.15838867
159	0x3dab7bba	0.08373208
160	0xbf020379	-0.5078655
161	0xbe6fdb88	-0.23423588
162	0xbd657bce	-0.056026272
163	0xbe8a0c97	-0.2696273
164	0xbeb401e0	-0.3515768
165	0xbe35ba13	-0.17746763
166	0xbd9effff	-0.07763671
167	0xbe2df513	-0.1698802
168	0x3ddccd33	0.10781326
169	0x3d895714	0.06706062
170	0x3e0848cc	0.1330902
171	0x3d7a60c2	0.06112743
172	0x3e248b18	0.16068685
173	0xbd9c3887	-0.07627969
174	0xbe3ab482	-0.18232921
175	0xbd07f62f	-0.033193763
176	0x3e9f9bab	0.31173453
177	0xbe5148ce	-0.20437929
178	0x3e44e8e2	0.19229463
179	0x3e344c4e	0.17607233
180	0x3e14656a	0.14491811
181	0x3e2c835a	0.16846982
182	0x3e3f1786	0.18661317
183	0xbe908d95	-0.2823302
184	0xbea7faac	-0.32808435
185	0xbcbb9560	-0.022898376
186	0xbad26400	-0.0016051531
187	0x3d8ce574	0.06879702
188	0x3e5f6a72	0.2181795
189	0x3e93d549	0.2887366
190	0x3da82ce0	0.08211684
191	0xbe858a03	-0.26081857
192	0x3d19076c	0.037360594
193	0x3dc8ab97	0.09798353
194	0x3e0be405	0.13661201
195	0x3c14d55c	0.009084072
196	0xbdfc413a	-0.123171285
197	0xbee98a7f	-0.45613477
198	0xbf0c3bbe	-0.5477866
199	0xbea2d1d5	-0.31800714
200	0xbd23a699	-0.0399538
201	0xbf0bf6fa	-0.5467373
202	0xbeb41a56	-0.35176343
203	0x3e03cf10	0.12871957
204	0xbf0be143	-0.546406
205	0xbebe023b	-0.37111077
206	0xbf24ec7d	-0.6442335
207	0x3e0f9f2d	0.14025564
208	0xbe504896	-0.2034019
209	0x3e2e2591	0.17006518
210	0xbeb01a9f	-0.3439531
211	0xbe69762c	-0.22798985
212	0xbd78aa7b	-0.060709458
213	0x3a7ff04d	0.00097632856
214	0x3dfec4d9	0.124398895
215	0x3e47ba11	0.19504572
216	0xbd32330e	-0.04350572
217	0xbeca3418	-0.3949287
218	0xbf11fb10	-0.57023716
219	0xbdd2cc40	-0.10292864
220	0x3e566821	0.2093816
221	0x3dccf65a	0.10007925
222	0xbeda55da	-0.42643625
223	0xbea77d8e	-0.32712978
224	0xbcd519a6	-0.026013207
225	0xbe1e1565	-0.15437849
226	0xbe9bed1e	-0.30454344
227	0x3d9a09c5	0.07521395
228	0x3da6c88e	0.081437215
229	0xbdeb6030	-0.11492956
230	0xbf0f382f	-0.55945104
231	0x3b8d48e8	0.0043116696
232	0xbe156e70	-0.1459291
233	0xbe319881	-0.17343332
234	0xbee9f85e	-0.45697302
235	0xbe89aa6a	-0.26887828
236	0xbe7590de	-0.23981044
237	0xbec0a223	-0.376237
238	0xbf135321	-0.5754872
239	0xbdbac2bb	-0.09119173
240	0x3e2d4fb2	0.16924933
241	0x3cceacc5	0.025228867
242	0x3e445aa3	0.191752
243	0xbb884b56	-0.0041593714
244	0xbecabf9e	-0.39599317
245	0xbd1458b7	-0.036217418
246	0xbe86790c	-0.26264226
247	0x3d80f6d5	0.062970795
248	0x3d856fb9	0.0651545
249	0x3e0540d9	0.13013019
250	0xbece5d19	-0.40305403
251	0x3d920ea4	0.07131699
252	0x3e127f28	0.14306319
253	0x3e5b8080	0.21435738
254	0xbe4909c3	-0.1963263
255	0xbd9aab4b	-0.07552203
