Protection/model/VAE_btc_part.pt (torch_old, 5535 bytes, 3 tensors)

gc1.weight f4 [6, 32]
0.3122398 -0.15606882 -0.28990096 0.10730456 -0.12161891 0.066778645 0.42719948 -0.036331967
0.118875526 0.41296485 -0.36401945 -0.17573668 0.04934214 0.4305632 -0.22809365 -0.46931973
0.0753503 -0.15293951 -0.2894539 0.2893207 0.12038867 0.45537657 0.49185044 -0.18876377
-0.23514923 -0.12031837 0.0008506143 0.095203824 -0.03807205 -0.42762342 0.390848 0.4127555
0.054599725 0.06788052 0.2471831 -0.25650567 0.27388918 0.28793457 0.20044877 0.33774322
-0.14488915 -0.15673433 0.096676946 0.030092703 -0.11907444 0.0024316674 -0.34441304 -0.042489942
0.23742881 0.068023615 -0.40576932 0.23584962 0.23904753 -0.23488325 -0.24560525 0.4874639
0.35935724 0.18991446 0.090842515 0.3433643 -0.0040693283 0.011015869 -0.2012417 0.024589319
0.06203357 -0.16935834 -0.14897823 -0.10175058 0.1694368 0.17276281 0.34858814 0.00037717205
0.2368492 0.37145054 0.08421143 0.26229525 -0.10806445 0.39509672 -0.017851561 0.27615342
-0.112684436 -0.085295334 -0.3511279 -0.4351752 -0.25019342 0.12617353 0.33363026 -1.0440555
0.2656001 0.25958845 0.11706906 -0.26858687 -0.26080668 0.27321902 -0.08966616 0.039042164
-0.34083885 0.18250717 -0.18151225 -0.0887211 0.22948073 0.38026237 -0.029192965 0.3276836
-0.08981522 -0.32846427 -0.25269917 -0.3699557 0.66980386 -0.15349051 -0.2146565 -0.22122258
0.13128623 -0.48276603 -0.30170757 0.35802633 -0.19609894 0.39949474 0.12793598 0.38812944
0.31517664 -0.056971796 -0.09982645 -0.1890041 -0.15249184 -0.39592895 0.4804687 -0.28979003
-0.3347244 0.32912633 -0.25178587 -0.38870648 0.113680854 -0.10423654 -0.14521235 -0.44138873
0.39001685 0.42638713 -0.26784942 -0.24497983 -0.23813032 0.3060184 0.10533258 0.08552736
0.3530735 -0.36838353 0.043008596 -0.048247807 0.27816713 0.33602396 -0.21877709 -1.1312722
0.114942186 0.36156127 0.048987035 0.48795187 -0.3555772 -0.20447919 0.08456018 -0.015685031
-0.37885723 0.13546424 0.27458975 -0.21086635 0.34324127 0.13426891 -0.25337365 0.23583367
0.18368071 0.42456153 0.2427435 0.010015886 0.12064573 0.2204436 -0.33152816 0.16991195
0.26448706 0.18689568 -0.043098688 -0.38320488 -0.6487188 0.2753153 0.20370169 0.34349072
0.14035499 -0.29114574 -0.09296325 0.41384178 0.049654335 0.042140912 -0.012587738 0.28327063
00000000: e5dd 9f3e 81d0 1fbe e66d 94be 7ec2 db3d
00000010: 5613 f9bd 3ec3 883d e4b9 da3e d4d0 14bd
00000020: 0375 f33d 2170 d33e c260 babe 51f4 33be
00000030: fc1a 4a3d c872 dc3e 6291 69be ad4a f0be
00000040: 4251 9a3d 2d9c 1cbe 4d33 94be d821 943e
00000050: 568e f63d 1e27 e93e d2d3 fb3e 4a4b 41be
00000060: f6ca 70be 7a69 f6bd c2fb 5e3a 39fa c23d
00000070: 70f1 1bbd 75f1 dabe 3b1d c83e b054 d33e
00000080: f6a3 5f3d f104 8b3d 911d 7d3e b654 83be
00000090: 343b 8c3e 296c 933e 7142 4d3e aeec ac3e
000000a0: d25d 14be f77e 20be 90fe c53d f984 f63c
000000b0: 4ddd f3bd 9c5c 1f3b e856 b0be ef09 2ebd
000000c0: 8a20 733e f74f 8b3d ffc0 cfbe 9082 713e
000000d0: e0c8 743e 3c85 70be f17f 7bbe de94 f93e
000000e0: acfd b73e f078 423e a40b ba3d 72cd af3e
000000f0: 0058 85bb e77b 343c 4e12 4ebe 8a6f c93c
00000100: ea16 7e3d 466c 2dbe c08d 18be 9c62 d0bd
00000110: d780 2d3e bce8 303e 257a b23e 2dbf c539
00000120: 9988 723e c42e be3e 0b77 ac3d 904b 863e
00000130: e550 ddbd 1e4a ca3e 703d 92bc fb63 8d3e
00000140: 19c7 e6bd 52af aebd 09c7 b3be 49cf debe
00000150: 5a19 80be a233 013e 96d1 aa3e 9ca3 85bf
00000160: bcfc 873e c7e8 843e e7c1 ef3d 3884 89be
00000170: 7488 85be 5de3 8b3e e4a2 b7bd adea 1f3d
00000180: 6e82 aebe 29e3 3a3e 59de 39be 68b3 b5bd
00000190: fffc 6a3e c0b1 c23e 1626 efbc 25c6 a73e
000001a0: 0bf1 b7bd 782c a8be c961 81be d56a bdbe
000001b0: 4478 2b3f 9e2c 1dbe eace 5bbe 2c88 62be
000001c0: e66f 063e 1c2d f7be 6a79 9abe 3a4f b73e
000001d0: 29ce 48be 938a cc3e a601 033e e7b8 c63e
000001e0: d55e a13e 425b 69bd cf71 ccbd 4a8a 41be
000001f0: d226 1cbe 33b7 cabe feff f53e 5c5f 94be
00000200: ff60 abbe 3f83 a83e 14ea 80be 8904 c7be
00000210: 82d1 e83d f879 d5bd 8cb2 14be b4fd e1be
00000220: 4ab0 c73e 6a4f da3e 8f23 89be fedb 7abe
00000230: 6fd8 73be 72ae 9c3e 9cb8 d73d f828 af3d
00000240: 0dc6 b43e c49c bcbe c829 303d 7e9f 45bd
00000250: ec6b 8e3e 550b ac3e 1a07 60be 87cd 90bf
00000260: cf66 eb3d 8f1e b93e a1a6 483d d4d4 f93e
00000270: 370e b6be fe62 51be e32d ad3d e57d 80bc
00000280: 93f9 c1be 23b7 0a3e 0797 8c3e 59ed 57be
00000290: 52bd af3e ca7d 093e 31ba 81be 627e 713e
000002a0: cc16 3c3e 2160 d93e c191 783e ac19 243c
000002b0: 1c15 f73d f8bb 613e 0fbe a9be 66fd 2d3e
000002c0: d96a 873e 9561 3f3e 4088 30bd 6e33 c4be
000002d0: 6f12 26bf 21f6 8c3e 2d97 503e 04de af3e
000002e0: 38b9 0f3e 0e11 95be 8463 bebd 12e3 d33e
000002f0: 5862 4b3d f39b 2c3d cd3c 4ebc d908 913e

gc2.weight f4 [32, 16]
-0.24027573 -0.115049005 0.19721448 0.101511784 -0.37923208 0.021837657 -0.040406536 -0.3238653
-0.19932142 0.14747754 -0.18688653 0.27040648 0.32275507 -0.12931536 0.091771506 -0.07762985
-0.35557774 -0.3062784 -0.26257262 -0.31841984 -0.1923334 0.0129036065 -0.069980904 0.024238378
-0.206445 0.01708318 0.00027511572 0.091521665 0.1826871 0.094294675 0.12243147 -0.09701538
0.18382074 -0.28989342 -0.029205285 0.14768402 0.03498833 -0.12719423 -0.04745166 -0.32301942
-0.28777444 -0.18348284 0.06946197 0.14297333 0.3004625 0.09471296 -0.3166021 -0.23690614
-0.3277918 0.38717678 0.1202519 0.3306669 0.05616318 0.02666179 -0.18398124 -0.0530902
0.15249428 -0.25261763 -0.08727537 0.030561753 0.21428557 -0.04987051 0.1183952 -0.0348049
0.033158634 -0.12601776 -0.2872826 0.047355603 0.168651 -0.047154095 -0.18712403 0.31293058
-0.28418568 -0.18448013 0.08403913 -0.065699525 -0.12551163 -0.18014677 -0.073142424 -0.13008727
-0.0803498 -0.034466956 -0.051809266 0.43863246 -0.05314992 0.19028045 0.15237752 0.17614213
0.065139316 0.060633577 -0.01429387 0.33648458 -0.09564923 -0.13862969 -0.27226728 0.03903571
0.41852298 -0.14904115 -0.2870496 -0.20555726 0.013372699 0.038772225 -0.22335118 0.19442943
0.15574968 -0.32374078 0.090579115 -0.34667638 -0.2069618 0.15920605 0.28245562 0.3844102
0.28952843 0.1998875 0.24362274 0.5498227 0.340483 -0.26820084 -0.28687188 -0.163981
0.3007027 -0.32771572 0.1229005 0.04076011 0.3011453 -0.27232096 0.37415376 0.036250457
-0.38309866 -0.088587075 0.3717934 -0.35974324 0.15350352 -0.250314 0.1911237 -0.2825271
0.29295266 0.06461889 -0.16369413 -0.027923213 -0.28472486 0.024687607 0.12969966 -0.2055366
0.17744616 -0.22696956 0.04072591 -0.42913285 0.27928364 0.38914004 -0.016553245 0.27435365
0.19002138 0.060908 -0.23535405 0.401655 -0.13806455 0.3716798 0.03568419 0.16675574
-0.21265557 0.15473904 -0.084280245 0.21634436 -0.31879422 -0.06732281 0.09318949 0.110177435
0.24605842 0.0129796965 0.14771047 0.18987109 -0.13285838 0.011668238 -0.24914742 0.039715372
-0.09137184 -0.15850925 0.07473593 -0.33616945 -0.6989079 0.24762867 0.4724778 -0.11817699
-0.18359153 -0.07541077 0.17925209 -0.1386672 -0.16861558 -0.33389938 -0.013154376 0.25656033
0.17440586 0.11239049 -0.11632944 1.0234373 0.41803947 -0.037940796 0.3042365 0.07476263
-0.15650645 -0.051432576 -0.37951982 0.23823552 0.23742288 -0.20362622 -0.61120695 -0.10154669
-0.064076036 -0.05036484 -0.049376126 0.10266133 0.20461288 0.27893695 0.17005435 -0.3310126
0.009621364 0.13228749 0.12438505 -0.10731788 0.030127568 0.18733649 -0.0074937674 0.30438823
0.29897794 -0.109441966 0.31045535 -0.19740151 -0.042810023 -0.23158744 -0.289531 0.23396775
0.35177258 0.19325581 -0.29601884 -0.1613397 -0.13742055 0.105680645 0.31719312 0.15742663
-0.091150954 -0.2718671 0.39989266 -0.39515865 -0.069879755 -0.22485514 -0.1204366 0.11399197
0.23919062 -0.008255836 0.33331966 0.23978615 -0.32060653 0.29620808 -0.009826621 0.2430359
00000000: d70a 76be d09e ebbd 98f2 493e 69e5 cf3d
00000010: b52a c2be e3e4 b23c 5381 25bd acd1 a5be
00000020: ea1a 4cbe 5a04 173e 2f5f 3fbe b872 8a3e
00000030: 2740 a53e 3f6b 04be b3f2 bb3d 66fc 9ebd
00000040: 490e b6be 86d0 9cbe eb6f 86be ed07 a3be
00000050: 0cf3 44be a669 533c 2652 8fbd 908f c63c
00000060: 5166 53be 06f2 8b3c 683d 9039 b66f bb3d
00000070: 5412 3b3e 911d c13d 5abd fa3d 00b0 c6bd
00000080: 813b 3c3e e96c 94be ec3f efbc 7b3a 173e
00000090: ec4f 0f3d 343f 02be ac5c 42bd cd62 a5be
000000a0: 2c57 93be ede2 3bbe 1442 8e3d 9a67 123e
000000b0: 39d6 993e def8 c13d ac19 a2be 8697 72be
000000c0: 54d4 a7be 093c c63e a146 f63d 2c4d a93e
000000d0: 5d0b 663d d469 da3c 9465 3cbe 1c75 59bd
000000e0: 7627 1c3e 1957 81be 6ebd b2bd a45c fa3c
000000f0: ad6d 5b3e 0545 4cbd 2f79 f23d 958f 0ebd
00000100: 59d1 073d cd0a 01be b416 93be f3f7 413d
00000110: d9b2 2c3e a724 41bd 719d 3fbe 7038 a03e
00000120: c980 91be 5ce8 3cbe b51c ac3d 798d 86bd
00000130: 1f86 00be 6578 38be b2cb 95bd 9935 05be
00000140: 708e a4bd 392d 0dbd f435 54bd 6f94 e03e
00000150: bbb3 59bd e1d8 423e da08 1c3e 9a5e 343e
00000160: c367 853d ea5a 783d d630 6abc b547 ac3e
00000170: bee3 c3bd f1f4 0dbe 9e66 8bbe e9e3 1f3d
00000180: a548 d63e 3e9e 18be 2af8 92be 9a7d 52be
00000190: 2a19 5b3c a0cf 1e3d 2cb6 64be 8218 473e
000001a0: d87c 1f3e 5ac1 a5be 8b81 b93d 917f b1be
000001b0: cbed 53be e906 233e 069e 903e 6ad1 c43e
000001c0: 123d 943e 4faf 4c3e 3d78 793e 2ec1 0c3f
000001d0: ca53 ae3e 9f51 89be dfe0 92be a3ea 27be
000001e0: b4f5 993e 5bca a7be 42b3 fb3d 13f4 263d
000001f0: b72f 9a3e a76d 8bbe 1591 bf3e 5c7b 143d
00000200: 8225 c4be 246d b5bd b45b be3e 4430 b8be
00000210: 0730 1d3e 2829 80be eeb5 433e 64a7 90be
00000220: e4fd 953e e956 843d 6f9f 27be 39bf e4bc
00000230: 75c7 91be aa3d ca3c fdcf 043e 3078 52be
00000240: 72b4 353e b56a 68be 36d0 263d 4db7 dbbe
00000250: 44fe 8e3e 5d3d c73e ac9a 87bc 1578 8c3e
00000260: f794 423e ab7a 793d a700 71be b9a5 cd3e
00000270: cb60 0dbe d14c be3e 9629 123d 04c2 2a3e
00000280: 62c2 59be e973 1e3e 1f9b acbd 6089 5d3e
00000290: ff38 a3be 8be0 89bd 22da be3d b5a4 e13d
000002a0: bdf6 7b3e cba8 543c 6a41 173e 916d 423e
000002b0: 070c 08be 232c 3f3c 8020 7fbe 96ac 223d
000002c0: 2921 bbbd 4050 22be 270f 993d 671e acbe
000002d0: a1eb 32bf 5f92 7d3e 9ce8 f13e c706 f2bd
000002e0: 6bff 3bbe f670 9abd dc8d 373e c6fe 0dbe
000002f0: 90a9 2cbe dcf4 aabe 7485 57bc e05b 833e
00000300: 7397 323e fc2c e63d 213e eebd feff 823f
00000310: 4509 d63e cf67 1bbd e3c4 9b3e 261d 993d
00000320: 3a43 20be f7aa 52bd 6c50 c2be 03f4 733e
00000330: fc1e 733e 6483 50be 0f78 1cbf b6f7 cfbd
00000340: 4c3a 83bd 5d4b 4ebd 9f3e 4abd 1a40 d23d
00000350: 0a86 513e d3d0 8e3e ba22 2e3e 7c7a a9be
00000360: eda2 1d3c 5f76 073e 97bd fe3d 7ac9 dbbd
00000370: 17ce f63c 23d5 3f3e 478e f5bb c6d8 9b3e
00000380: a313 993e 1c23 e0bd 01f4 9e3e 9f23 4abe
00000390: 9059 2fbd 4225 6dbe 683d 94be 3e95 6f3e
000003a0: 891b b43e dae4 453e c88f 97be 3c36 25be
000003b0: f9b7 0cbe 186f d83d 2367 a23e 7234 213e
000003c0: 5aad babd 2a32 8bbe bbbe cc3e 3c52 cabe
000003d0: 1e1d 8fbd 6d40 66be 77a7 f6bd 9f74 e93d
000003e0: 63ee 743e 7c43 07bc e0a8 aa3e 808a 753e
000003f0: 8a26 a4be 96a8 973e d6ff 20bc 67de 783e

gc3.weight f4 [32, 16]
-0.047484115 -0.030704193 0.11713627 -0.009681548 -0.42793566 0.16183142 -0.2639161 -0.051532324
0.048156172 0.051604774 -0.19671263 -0.1250525 -0.21985647 -0.14982921 0.007833109 -0.12000312
0.117563166 -0.11100984 0.053978853 -0.20840481 -0.41103184 -0.10999834 -0.31468222 -0.48797828
-0.49863145 -0.41218475 0.14408499 -0.4488218 -0.05918994 0.11653037 -0.37624678 0.0061792335
-0.13934259 0.040378463 0.18128735 -0.18131179 -0.29231054 -0.17940539 -0.2565058 0.20108746
0.17900091 -0.023706509 -0.2781116 0.17346501 -0.15172535 -0.057569034 0.071364745 0.23721403
-0.16611426 0.2741459 0.14481533 0.215404 0.18659052 0.09037843 -0.35057017 -0.39299858
-0.19098392 0.21586785 0.16970465 0.04488042 -0.047663387 -0.08315903 -0.26996213 0.109273955
-0.39635324 -0.44963667 -0.282644 -0.47076622 -0.673161 -0.120403565 0.12715746 -0.476639
-0.3534278 -0.23283097 0.100671835 0.024647605 0.132505 -0.54225266 -0.021696344 -0.092192635
-0.21066427 -0.3117019 -0.1267441 -0.23199311 -0.7420548 -0.48208874 -0.27534127 -0.20222822
-0.3484447 -0.1715994 -0.22333492 -0.33876365 -0.13076407 0.043641638 -0.29229313 -0.36663073
-0.37145898 0.27083987 0.020330945 -0.26021507 -0.69344693 0.2095559 0.100084715 -0.25800955
-0.07431744 -0.26467818 -0.20153207 -0.027556192 -0.526573 -0.20929979 -0.33228076 -0.14607269
-0.10007763 -0.18351722 0.19823942 -0.047564242 -0.46501938 -0.32885575 0.108095564 -0.18103948
-0.029949948 -0.5375836 0.13975775 -0.4547727 -0.1796276 -0.2147805 0.10398941 -0.46812734
0.30284923 0.14523605 -0.084263414 -0.04154233 -0.9170872 0.29948348 0.22960258 0.49330235
0.343671 0.3536178 -0.09606016 -0.07050077 -0.36438853 -0.02593004 -0.2187251 -0.01783411
0.11504108 -0.22414118 0.18858434 0.02323766 -0.7099589 -0.13834767 -0.33104926 -0.24775808
0.13450806 -0.50442815 -0.39393637 -0.26371416 -0.4361694 -0.5017196 -0.17020924 -0.35974082
-0.10973237 -0.030880382 0.07163243 -0.12942821 -0.115915745 -0.4634809 0.037597835 -0.25281438
0.19927494 -0.054113865 -0.21190564 -0.112781234 0.1664281 -0.07934959 -0.03921065 0.17372894
-0.15675288 -0.37062716 0.20731895 -0.016873527 -0.007882578 -0.2832665 -0.06284547 -0.16525716
-0.37220615 0.13115251 0.015751187 0.016887086 -0.05689216 -0.3394203 -0.21145028 -0.044894937
0.18092784 0.41049072 -0.46332988 -0.3132941 -0.7629112 -0.34168866 -0.04947131 0.16277006
0.06071862 -0.14748085 -0.3539168 -0.14809512 -0.26825163 -0.26011473 0.18910317 -0.2500774
-0.47476506 -0.34512976 -0.35270587 -0.384611 -0.48686367 -0.5716163 -0.17576545 -0.3271158
-0.37695053 -0.11908173 -0.28200793 -0.1987144 -0.20279974 -0.45223165 -0.026441041 0.11305289
-0.025351554 0.2677423 0.29767838 -0.19529934 -0.053235143 -0.019368589 -0.23742314 -0.29055607
-0.17070489 0.018452734 0.28896698 -0.14525923 0.018702328 -0.11751506 -0.1493677 0.18559644
-0.12816563 0.14092976 0.10139754 -0.25080335 -0.47335815 -0.42692405 -0.17932336 0.056719594
-0.0551248 -0.010952333 -0.11476826 -0.33451095 0.14552224 -0.501421 0.1225026 9.222966e-05
00000000: b47e 42bd 5c87 fbbc 24e5 ef3d 5b9f 1ebc
00000010: 621a dbbe 23b7 253e 0320 87be 8f13 53bd
00000020: 683f 453d 875f 533d 096f 49be c30d 00be
00000030: 0e22 61be d46c 19be 7156 003c 32c4 f5bd
00000040: f5c4 f03d 2159 e3bd ee18 5d3d 1268 55be
00000050: c472 d2be cf46 e1bd 071e a1be 4ad8 f9be
00000060: 9f4c ffbe e109 d3be 048b 133e f9cb e5be
00000070: 2771 72bd 7aa7 ee3d 6ba3 c0be 2b7b ca3b
00000080: d3af 0ebe e363 253d 64a3 393e cca9 39be
00000090: baa9 95be 0cb6 37be ba54 83be dfe9 4d3e
000000a0: 044c 373e 2734 c2bc a564 8ebe d0a0 313e
000000b0: e45d 1bbe 82cd 6bbd ae27 923d 3ce8 723e
000000c0: db19 2abe da5c 8c3e 784a 143e de92 5c3e
000000d0: 9611 3f3e 5418 b93d ef7d b3be 1c37 c9be
000000e0: 4a91 43be 760c 5d3e 0ec7 2d3e 88d4 373d
000000f0: af3a 43bd 484f aabd 7a38 8abe 06cb df3d
00000100: d0ee cabe c736 e6be b7b6 90be 4508 f1be
00000110: 4754 2cbf 2596 f6bd 9135 023e 070a f4be
00000120: 7df4 b4be 3e6b 6ebe 092d ce3d c6e9 c93c
00000130: 64af 073e 12d1 0abf 88bc b1bc 7ecf bcbd
00000140: 60b8 57be 6497 9fbe 35c9 01be 9a8f 6dbe
00000150: 4ef7 3dbf 56d4 f6be 88f9 8cbe ea14 4fbe
00000160: 5867 b2be c1b7 2fbe e9b1 64be 6e72 adbe
00000170: 04e7 05be 93c1 323d 72a7 95be 06b7 bbbe
00000180: df2f bebe 86ab 8a3e 158d a63c e93a 85be
00000190: bd85 31bf d295 563e 37f9 cc3d d419 84be
000001a0: be33 98bd e683 87be 6c5e 4ebe 86bd e1bc
000001b0: 7dcd 06bf af52 56be b420 aabe 1494 15be
000001c0: 80f5 ccbd f0eb 3bbe 46ff 4a3e b9d2 42bd
000001d0: 0517 eebe c85f a8be 3561 dd3d 6a62 39be
000001e0: 9859 f5bc 149f 09bf a81c 0f3e f8d7 e8be
000001f0: 4cf0 37be 6bef 5bbe 66f8 d43d 63ae efbe
00000200: 0e0f 9b3e c2b8 143e 4c92 acbd 4a28 2abd
00000210: 3ac6 6abf e655 993e f01c 6b3e 2092 fc3e
00000220: a5f5 af3e 640d b53e 30bb c4bd b562 90bd
00000230: 2291 babe 3c6b d4bc 79f9 5fbe d718 92bc
00000240: a89a eb3d 4485 65be 411c 413e e85c be3c
00000250: debf 35bf 03ab 0dbe 4a7f a9be 4bb4 7dbe
00000260: 7bbc 093e 3422 01bf 07b2 c9be 8b05 87be
00000270: 9851 dfbe b270 00bf 554b 2ebe f32f b8be
00000280: 5dbb e0bd dbf8 fcbc 06b4 923d d488 04be
00000290: 3c65 edbd 5e4d edbe 3000 1a3d e370 81be
000002a0: bb0e 4c3e 80a6 5dbd cbfd 58be d9f9 e6bd
000002b0: 216c 2a3e 0a82 a2bd 599b 20bd 00e6 313e
000002c0: d483 20be d8c2 bdbe 6b4b 543e 5a3a 8abc
000002d0: ee25 01bc 4f08 91be 20b5 80bd 2c39 29be
000002e0: ce91 bebe d84c 063e a208 813c c956 8a3c
000002f0: c107 69bd 7fc8 adbe 6c86 58be c1e3 37bd
00000300: 2645 393e d72b d23e 9339 edbe 1668 a0be
00000310: 264e 43bf d1f1 aebe 6ea2 4abd 32ad 263e
00000320: 16b4 783d 3805 17be 9534 b5be 3fa6 17be
00000330: 4758 89be c22d 85be 43a4 413e 250a 80be
00000340: 6814 f3be d9b4 b0be dd95 b4be bceb c4be
00000350: 3246 f9be 7255 12bf dcfb 33be b97b a7be
00000360: a9ff c0be 1fe1 f3bd 5863 90be ca7b 4bbe
00000370: bcaa 4fbe e88a e7be e29a d8bc 4688 e73d
00000380: 10ae cfbc 8515 893e 4d69 983e 8dfc 47be
00000390: 180d 5abd e0aa 9ebc 0d1f 73be c4c3 94be
000003a0: 43cd 2ebe 302a 973c 7bf3 933e d6be 14be
000003b0: a035 993c bcab f0bd d9f3 18be fe0c 3e3e
000003c0: da3d 03be e44f 103e 83a9 cf3d 4c69 80be
000003d0: 005c f2be ca95 dabe 8ba0 37be ce52 683d
000003e0: 8bca 61bd 6a71 33bc 9f0b ebbd 0545 abbe
000003f0: c803 153e 205d 00bf a5e2 fa3d 6c6b c138
